{"format": "graph-model", "generatedBy": "1.9.0", "convertedBy": "TensorFlow.js Converter v1.5.2", "userDefinedMetadata": {"signature": {"inputs": {"image_tensor:0": {"name": "image_tensor:0", "dtype": "DT_UINT8", "tensorShape": {"dim": [{"size": "-1"}, {"size": "-1"}, {"size": "-1"}, {"size": "3"}]}}}, "outputs": {"detection_boxes:0": {"name": "detection_boxes:0", "dtype": "DT_FLOAT", "tensorShape": {"dim": [{"size": "-1"}, {"size": "100"}, {"size": "4"}]}}, "detection_scores:0": {"name": "detection_scores:0", "dtype": "DT_FLOAT", "tensorShape": {"dim": [{"size": "-1"}, {"size": "100"}]}}, "detection_classes:0": {"name": "detection_classes:0", "dtype": "DT_FLOAT", "tensorShape": {"dim": [{"size": "-1"}, {"size": "100"}]}}, "num_detections:0": {"name": "num_detections:0", "dtype": "DT_FLOAT", "tensorShape": {"dim": [{"size": "-1"}]}}}}}, "modelTopology": {"node": [{"name": "BoxPredictor_0/ClassPredictor/weights", "op": "Const", "attr": {"value": {"tensor": {"dtype": "DT_FLOAT", "tensorShape": {"dim": [{"size": "1"}, {"size": "1"}, {"size": "576"}, {"size": "84"}]}}}, "dtype": {"type": "DT_FLOAT"}}}, {"name": "BoxPredictor_0/ClassPredictor/biases", "op": "Const", "attr": {"value": {"tensor": {"dtype": "DT_FLOAT", "tensorShape": {"dim": [{"size": "84"}]}}}, "dtype": {"type": "DT_FLOAT"}}}, {"name": "BoxPredictor_1/ClassPredictor/weights", "op": "Const", "attr": {"value": {"tensor": {"dtype": "DT_FLOAT", "tensorShape": {"dim": [{"size": "1"}, {"size": "1"}, {"size": "1280"}, {"size": "168"}]}}}, "dtype": {"type": "DT_FLOAT"}}}, {"name": "BoxPredictor_1/ClassPredictor/biases", "op": "Const", "attr": {"value": {"tensor": {"dtype": "DT_FLOAT", "tensorShape": {"dim": [{"size": "168"}]}}}, "dtype": {"type": "DT_FLOAT"}}}, {"name": "BoxPredictor_2/ClassPredictor/weights", "op": "Const", "attr": {"value": {"tensor": {"dtype": "DT_FLOAT", "tensorShape": {"dim": [{"size": "1"}, {"size": "1"}, {"size": "512"}, {"size": "168"}]}}}, "dtype": {"type": "DT_FLOAT"}}}, {"name": "BoxPredictor_2/ClassPredictor/biases", "op": "Const", "attr": {"value": {"tensor": {"dtype": "DT_FLOAT", "tensorShape": {"dim": [{"size": "168"}]}}}, "dtype": {"type": "DT_FLOAT"}}}, {"name": "BoxPredictor_3/ClassPredictor/weights", "op": "Const", "attr": {"value": {"tensor": {"dtype": "DT_FLOAT", "tensorShape": {"dim": [{"size": "1"}, {"size": "1"}, {"size": "256"}, {"size": "168"}]}}}, "dtype": {"type": "DT_FLOAT"}}}, {"name": "BoxPredictor_3/ClassPredictor/biases", "op": "Const", "attr": {"value": {"tensor": {"dtype": "DT_FLOAT", "tensorShape": {"dim": [{"size": "168"}]}}}, "dtype": {"type": "DT_FLOAT"}}}, {"name": "BoxPredictor_4/ClassPredictor/weights", "op": "Const", "attr": {"value": {"tensor": {"dtype": "DT_FLOAT", "tensorShape": {"dim": [{"size": "1"}, {"size": "1"}, {"size": "256"}, {"size": "168"}]}}}, "dtype": {"type": "DT_FLOAT"}}}, {"name": "BoxPredictor_4/ClassPredictor/biases", "op": "Const", "attr": {"value": {"tensor": {"dtype": "DT_FLOAT", "tensorShape": {"dim": [{"size": "168"}]}}}, "dtype": {"type": "DT_FLOAT"}}}, {"name": "BoxPredictor_5/ClassPredictor/weights", "op": "Const", "attr": {"value": {"tensor": {"dtype": "DT_FLOAT", "tensorShape": {"dim": [{"size": "1"}, {"size": "1"}, {"size": "128"}, {"size": "168"}]}}}, "dtype": {"type": "DT_FLOAT"}}}, {"name": "BoxPredictor_5/ClassPredictor/biases", "op": "Const", "attr": {"value": {"tensor": {"dtype": "DT_FLOAT", "tensorShape": {"dim": [{"size": "168"}]}}}, "dtype": {"type": "DT_FLOAT"}}}, {"name": "BoxPredictor_0/Reshape_1/shape/2", "op": "Const", "attr": {"value": {"tensor": {"dtype": "DT_INT32", "tensorShape": {}}}, "dtype": {"type": "DT_INT32"}}}, {"name": "Postprocessor/Slice/begin", "op": "Const", "attr": {"value": {"tensor": {"dtype": "DT_INT32", "tensorShape": {"dim": [{"size": "3"}]}}}, "dtype": {"type": "DT_INT32"}}}, {"name": "Postprocessor/Slice/size", "op": "Const", "attr": {"value": {"tensor": {"dtype": "DT_INT32", "tensorShape": {"dim": [{"size": "3"}]}}}, "dtype": {"type": "DT_INT32"}}}, {"name": "ConstantFolding/Postprocessor/truediv_recip", "op": "Const", "attr": {"value": {"tensor": {"dtype": "DT_FLOAT", "tensorShape": {}}}, "dtype": {"type": "DT_FLOAT"}}}, {"name": "ConstantFolding/Postprocessor/Decode/truediv_recip", "op": "Const", "attr": {"value": {"tensor": {"dtype": "DT_FLOAT", "tensorShape": {}}}, "dtype": {"type": "DT_FLOAT"}}}, {"name": "ConstantFolding/Postprocessor/Decode/truediv_2_recip", "op": "Const", "attr": {"value": {"tensor": {"dtype": "DT_FLOAT", "tensorShape": {}}}, "dtype": {"type": "DT_FLOAT"}}}, {"name": "ConstantFolding/Postprocessor/Decode/truediv_4_recip", "op": "Const", "attr": {"value": {"tensor": {"dtype": "DT_FLOAT", "tensorShape": {}}}, "dtype": {"type": "DT_FLOAT"}}}, {"name": "Postprocessor/ExpandDims", "op": "Const", "attr": {"value": {"tensor": {"dtype": "DT_FLOAT", "tensorShape": {"dim": [{"size": "1"}, {"size": "7326"}, {"size": "4"}]}}}, "dtype": {"type": "DT_FLOAT"}}}, {"name": "Postprocessor/Reshape_1/shape", "op": "Const", "attr": {"value": {"tensor": {"dtype": "DT_INT32", "tensorShape": {"dim": [{"size": "2"}]}}}, "dtype": {"type": "DT_INT32"}}}, {"name": "BoxPredictor_0/BoxEncodingPredictor/weights", "op": "Const", "attr": {"value": {"tensor": {"dtype": "DT_FLOAT", "tensorShape": {"dim": [{"size": "1"}, {"size": "1"}, {"size": "576"}, {"size": "12"}]}}}, "dtype": {"type": "DT_FLOAT"}}}, {"name": "BoxPredictor_0/BoxEncodingPredictor/biases", "op": "Const", "attr": {"value": {"tensor": {"dtype": "DT_FLOAT", "tensorShape": {"dim": [{"size": "12"}]}}}, "dtype": {"type": "DT_FLOAT"}}}, {"name": "BoxPredictor_1/BoxEncodingPredictor/weights", "op": "Const", "attr": {"value": {"tensor": {"dtype": "DT_FLOAT", "tensorShape": {"dim": [{"size": "1"}, {"size": "1"}, {"size": "1280"}, {"size": "24"}]}}}, "dtype": {"type": "DT_FLOAT"}}}, {"name": "BoxPredictor_1/BoxEncodingPredictor/biases", "op": "Const", "attr": {"value": {"tensor": {"dtype": "DT_FLOAT", "tensorShape": {"dim": [{"size": "24"}]}}}, "dtype": {"type": "DT_FLOAT"}}}, {"name": "BoxPredictor_2/BoxEncodingPredictor/weights", "op": "Const", "attr": {"value": {"tensor": {"dtype": "DT_FLOAT", "tensorShape": {"dim": [{"size": "1"}, {"size": "1"}, {"size": "512"}, {"size": "24"}]}}}, "dtype": {"type": "DT_FLOAT"}}}, {"name": "BoxPredictor_2/BoxEncodingPredictor/biases", "op": "Const", "attr": {"value": {"tensor": {"dtype": "DT_FLOAT", "tensorShape": {"dim": [{"size": "24"}]}}}, "dtype": {"type": "DT_FLOAT"}}}, {"name": "BoxPredictor_3/BoxEncodingPredictor/weights", "op": "Const", "attr": {"value": {"tensor": {"dtype": "DT_FLOAT", "tensorShape": {"dim": [{"size": "1"}, {"size": "1"}, {"size": "256"}, {"size": "24"}]}}}, "dtype": {"type": "DT_FLOAT"}}}, {"name": "BoxPredictor_3/BoxEncodingPredictor/biases", "op": "Const", "attr": {"value": {"tensor": {"dtype": "DT_FLOAT", "tensorShape": {"dim": [{"size": "24"}]}}}, "dtype": {"type": "DT_FLOAT"}}}, {"name": "BoxPredictor_4/BoxEncodingPredictor/weights", "op": "Const", "attr": {"value": {"tensor": {"dtype": "DT_FLOAT", "tensorShape": {"dim": [{"size": "1"}, {"size": "1"}, {"size": "256"}, {"size": "24"}]}}}, "dtype": {"type": "DT_FLOAT"}}}, {"name": "BoxPredictor_4/BoxEncodingPredictor/biases", "op": "Const", "attr": {"value": {"tensor": {"dtype": "DT_FLOAT", "tensorShape": {"dim": [{"size": "24"}]}}}, "dtype": {"type": "DT_FLOAT"}}}, {"name": "BoxPredictor_5/BoxEncodingPredictor/weights", "op": "Const", "attr": {"value": {"tensor": {"dtype": "DT_FLOAT", "tensorShape": {"dim": [{"size": "1"}, {"size": "1"}, {"size": "128"}, {"size": "24"}]}}}, "dtype": {"type": "DT_FLOAT"}}}, {"name": "BoxPredictor_5/BoxEncodingPredictor/biases", "op": "Const", "attr": {"value": {"tensor": {"dtype": "DT_FLOAT", "tensorShape": {"dim": [{"size": "24"}]}}}, "dtype": {"type": "DT_FLOAT"}}}, {"name": "Postprocessor/BatchMultiClassNonMaxSuppression/map/TensorArrayStack/range/start", "op": "Const", "attr": {"value": {"tensor": {"dtype": "DT_INT32", "tensorShape": {}}}, "dtype": {"type": "DT_INT32"}}}, {"name": "image_tensor", "op": "Placeholder", "attr": {"shape": {"shape": {"dim": [{"size": "-1"}, {"size": "-1"}, {"size": "-1"}, {"size": "3"}]}}, "dtype": {"type": "DT_UINT8"}}}, {"name": "Preprocessor/mul/x", "op": "Const", "attr": {"value": {"tensor": {"dtype": "DT_FLOAT", "tensorShape": {}}}, "dtype": {"type": "DT_FLOAT"}}}, {"name": "add/y", "op": "Const", "attr": {"value": {"tensor": {"dtype": "DT_FLOAT", "tensorShape": {}}}, "dtype": {"type": "DT_FLOAT"}}}, {"name": "BoxPredictor_0/Reshape_1/shape/1", "op": "Const", "attr": {"value": {"tensor": {"dtype": "DT_INT32", "tensorShape": {}}}, "dtype": {"type": "DT_INT32"}}}, {"name": "Postprocessor/BatchMultiClassNonMaxSuppression/map/TensorArrayStack/range/delta", "op": "Const", "attr": {"value": {"tensor": {"dtype": "DT_INT32", "tensorShape": {}}}, "dtype": {"type": "DT_INT32"}}}, {"name": "Postprocessor/BatchMultiClassNonMaxSuppression/strided_slice_1/stack_1", "op": "Const", "attr": {"value": {"tensor": {"dtype": "DT_INT32", "tensorShape": {"dim": [{"size": "1"}]}}}, "dtype": {"type": "DT_INT32"}}}, {"name": "BoxPredictor_0/Reshape/shape/3", "op": "Const", "attr": {"value": {"tensor": {"dtype": "DT_INT32", "tensorShape": {}}}, "dtype": {"type": "DT_INT32"}}}, {"name": "Postprocessor/ExpandDims_1/dim", "op": "Const", "attr": {"value": {"tensor": {"dtype": "DT_INT32", "tensorShape": {}}}, "dtype": {"type": "DT_INT32"}}}, {"name": "Postprocessor/BatchMultiClassNonMaxSuppression/map/TensorArrayUnstack_1/strided_slice/stack", "op": "Const", "attr": {"value": {"tensor": {"dtype": "DT_INT32", "tensorShape": {"dim": [{"size": "1"}]}}}, "dtype": {"type": "DT_INT32"}}}, {"name": "Postprocessor/BatchMultiClassNonMaxSuppression/map/TensorArrayUnstack_1/strided_slice/stack_1", "op": "Const", "attr": {"value": {"tensor": {"dtype": "DT_INT32", "tensorShape": {"dim": [{"size": "1"}]}}}, "dtype": {"type": "DT_INT32"}}}, {"name": "FeatureExtractor/MobilenetV2/Conv/Conv2D_weights", "op": "Const", "attr": {"value": {"tensor": {"dtype": "DT_FLOAT", "tensorShape": {"dim": [{"size": "3"}, {"size": "3"}, {"size": "3"}, {"size": "32"}]}}}, "dtype": {"type": "DT_FLOAT"}}}, {"name": "FeatureExtractor/MobilenetV2/Conv/Conv2D_bn_offset", "op": "Const", "attr": {"value": {"tensor": {"dtype": "DT_FLOAT", "tensorShape": {"dim": [{"size": "32"}]}}}, "dtype": {"type": "DT_FLOAT"}}}, {"name": "FeatureExtractor/MobilenetV2/expanded_conv/depthwise/depthwise_weights", "op": "Const", "attr": {"value": {"tensor": {"dtype": "DT_FLOAT", "tensorShape": {"dim": [{"size": "3"}, {"size": "3"}, {"size": "32"}, {"size": "1"}]}}}, "dtype": {"type": "DT_FLOAT"}}}, {"name": "FeatureExtractor/MobilenetV2/expanded_conv/depthwise/depthwise_bn_offset", "op": "Const", "attr": {"value": {"tensor": {"dtype": "DT_FLOAT", "tensorShape": {"dim": [{"size": "32"}]}}}, "dtype": {"type": "DT_FLOAT"}}}, {"name": "FeatureExtractor/MobilenetV2/expanded_conv/project/Conv2D_weights", "op": "Const", "attr": {"value": {"tensor": {"dtype": "DT_FLOAT", "tensorShape": {"dim": [{"size": "1"}, {"size": "1"}, {"size": "32"}, {"size": "16"}]}}}, "dtype": {"type": "DT_FLOAT"}}}, {"name": "FeatureExtractor/MobilenetV2/expanded_conv/project/Conv2D_bn_offset", "op": "Const", "attr": {"value": {"tensor": {"dtype": "DT_FLOAT", "tensorShape": {"dim": [{"size": "16"}]}}}, "dtype": {"type": "DT_FLOAT"}}}, {"name": "FeatureExtractor/MobilenetV2/expanded_conv_1/expand/Conv2D_weights", "op": "Const", "attr": {"value": {"tensor": {"dtype": "DT_FLOAT", "tensorShape": {"dim": [{"size": "1"}, {"size": "1"}, {"size": "16"}, {"size": "96"}]}}}, "dtype": {"type": "DT_FLOAT"}}}, {"name": "FeatureExtractor/MobilenetV2/expanded_conv_1/expand/Conv2D_bn_offset", "op": "Const", "attr": {"value": {"tensor": {"dtype": "DT_FLOAT", "tensorShape": {"dim": [{"size": "96"}]}}}, "dtype": {"type": "DT_FLOAT"}}}, {"name": "FeatureExtractor/MobilenetV2/expanded_conv_1/depthwise/depthwise_weights", "op": "Const", "attr": {"value": {"tensor": {"dtype": "DT_FLOAT", "tensorShape": {"dim": [{"size": "3"}, {"size": "3"}, {"size": "96"}, {"size": "1"}]}}}, "dtype": {"type": "DT_FLOAT"}}}, {"name": "FeatureExtractor/MobilenetV2/expanded_conv_1/depthwise/depthwise_bn_offset", "op": "Const", "attr": {"value": {"tensor": {"dtype": "DT_FLOAT", "tensorShape": {"dim": [{"size": "96"}]}}}, "dtype": {"type": "DT_FLOAT"}}}, {"name": "FeatureExtractor/MobilenetV2/expanded_conv_1/project/Conv2D_weights", "op": "Const", "attr": {"value": {"tensor": {"dtype": "DT_FLOAT", "tensorShape": {"dim": [{"size": "1"}, {"size": "1"}, {"size": "96"}, {"size": "24"}]}}}, "dtype": {"type": "DT_FLOAT"}}}, {"name": "FeatureExtractor/MobilenetV2/expanded_conv_1/project/Conv2D_bn_offset", "op": "Const", "attr": {"value": {"tensor": {"dtype": "DT_FLOAT", "tensorShape": {"dim": [{"size": "24"}]}}}, "dtype": {"type": "DT_FLOAT"}}}, {"name": "FeatureExtractor/MobilenetV2/expanded_conv_2/expand/Conv2D_weights", "op": "Const", "attr": {"value": {"tensor": {"dtype": "DT_FLOAT", "tensorShape": {"dim": [{"size": "1"}, {"size": "1"}, {"size": "24"}, {"size": "144"}]}}}, "dtype": {"type": "DT_FLOAT"}}}, {"name": "FeatureExtractor/MobilenetV2/expanded_conv_2/expand/Conv2D_bn_offset", "op": "Const", "attr": {"value": {"tensor": {"dtype": "DT_FLOAT", "tensorShape": {"dim": [{"size": "144"}]}}}, "dtype": {"type": "DT_FLOAT"}}}, {"name": "FeatureExtractor/MobilenetV2/expanded_conv_2/depthwise/depthwise_weights", "op": "Const", "attr": {"value": {"tensor": {"dtype": "DT_FLOAT", "tensorShape": {"dim": [{"size": "3"}, {"size": "3"}, {"size": "144"}, {"size": "1"}]}}}, "dtype": {"type": "DT_FLOAT"}}}, {"name": "FeatureExtractor/MobilenetV2/expanded_conv_2/depthwise/depthwise_bn_offset", "op": "Const", "attr": {"value": {"tensor": {"dtype": "DT_FLOAT", "tensorShape": {"dim": [{"size": "144"}]}}}, "dtype": {"type": "DT_FLOAT"}}}, {"name": "FeatureExtractor/MobilenetV2/expanded_conv_2/project/Conv2D_weights", "op": "Const", "attr": {"value": {"tensor": {"dtype": "DT_FLOAT", "tensorShape": {"dim": [{"size": "1"}, {"size": "1"}, {"size": "144"}, {"size": "24"}]}}}, "dtype": {"type": "DT_FLOAT"}}}, {"name": "FeatureExtractor/MobilenetV2/expanded_conv_2/project/Conv2D_bn_offset", "op": "Const", "attr": {"value": {"tensor": {"dtype": "DT_FLOAT", "tensorShape": {"dim": [{"size": "24"}]}}}, "dtype": {"type": "DT_FLOAT"}}}, {"name": "FeatureExtractor/MobilenetV2/expanded_conv_3/expand/Conv2D_weights", "op": "Const", "attr": {"value": {"tensor": {"dtype": "DT_FLOAT", "tensorShape": {"dim": [{"size": "1"}, {"size": "1"}, {"size": "24"}, {"size": "144"}]}}}, "dtype": {"type": "DT_FLOAT"}}}, {"name": "FeatureExtractor/MobilenetV2/expanded_conv_3/expand/Conv2D_bn_offset", "op": "Const", "attr": {"value": {"tensor": {"dtype": "DT_FLOAT", "tensorShape": {"dim": [{"size": "144"}]}}}, "dtype": {"type": "DT_FLOAT"}}}, {"name": "FeatureExtractor/MobilenetV2/expanded_conv_3/depthwise/depthwise_weights", "op": "Const", "attr": {"value": {"tensor": {"dtype": "DT_FLOAT", "tensorShape": {"dim": [{"size": "3"}, {"size": "3"}, {"size": "144"}, {"size": "1"}]}}}, "dtype": {"type": "DT_FLOAT"}}}, {"name": "FeatureExtractor/MobilenetV2/expanded_conv_3/depthwise/depthwise_bn_offset", "op": "Const", "attr": {"value": {"tensor": {"dtype": "DT_FLOAT", "tensorShape": {"dim": [{"size": "144"}]}}}, "dtype": {"type": "DT_FLOAT"}}}, {"name": "FeatureExtractor/MobilenetV2/expanded_conv_3/project/Conv2D_weights", "op": "Const", "attr": {"value": {"tensor": {"dtype": "DT_FLOAT", "tensorShape": {"dim": [{"size": "1"}, {"size": "1"}, {"size": "144"}, {"size": "32"}]}}}, "dtype": {"type": "DT_FLOAT"}}}, {"name": "FeatureExtractor/MobilenetV2/expanded_conv_3/project/Conv2D_bn_offset", "op": "Const", "attr": {"value": {"tensor": {"dtype": "DT_FLOAT", "tensorShape": {"dim": [{"size": "32"}]}}}, "dtype": {"type": "DT_FLOAT"}}}, {"name": "FeatureExtractor/MobilenetV2/expanded_conv_4/expand/Conv2D_weights", "op": "Const", "attr": {"value": {"tensor": {"dtype": "DT_FLOAT", "tensorShape": {"dim": [{"size": "1"}, {"size": "1"}, {"size": "32"}, {"size": "192"}]}}}, "dtype": {"type": "DT_FLOAT"}}}, {"name": "FeatureExtractor/MobilenetV2/expanded_conv_4/expand/Conv2D_bn_offset", "op": "Const", "attr": {"value": {"tensor": {"dtype": "DT_FLOAT", "tensorShape": {"dim": [{"size": "192"}]}}}, "dtype": {"type": "DT_FLOAT"}}}, {"name": "FeatureExtractor/MobilenetV2/expanded_conv_4/depthwise/depthwise_weights", "op": "Const", "attr": {"value": {"tensor": {"dtype": "DT_FLOAT", "tensorShape": {"dim": [{"size": "3"}, {"size": "3"}, {"size": "192"}, {"size": "1"}]}}}, "dtype": {"type": "DT_FLOAT"}}}, {"name": "FeatureExtractor/MobilenetV2/expanded_conv_4/depthwise/depthwise_bn_offset", "op": "Const", "attr": {"value": {"tensor": {"dtype": "DT_FLOAT", "tensorShape": {"dim": [{"size": "192"}]}}}, "dtype": {"type": "DT_FLOAT"}}}, {"name": "FeatureExtractor/MobilenetV2/expanded_conv_4/project/Conv2D_weights", "op": "Const", "attr": {"value": {"tensor": {"dtype": "DT_FLOAT", "tensorShape": {"dim": [{"size": "1"}, {"size": "1"}, {"size": "192"}, {"size": "32"}]}}}, "dtype": {"type": "DT_FLOAT"}}}, {"name": "FeatureExtractor/MobilenetV2/expanded_conv_4/project/Conv2D_bn_offset", "op": "Const", "attr": {"value": {"tensor": {"dtype": "DT_FLOAT", "tensorShape": {"dim": [{"size": "32"}]}}}, "dtype": {"type": "DT_FLOAT"}}}, {"name": "FeatureExtractor/MobilenetV2/expanded_conv_5/expand/Conv2D_weights", "op": "Const", "attr": {"value": {"tensor": {"dtype": "DT_FLOAT", "tensorShape": {"dim": [{"size": "1"}, {"size": "1"}, {"size": "32"}, {"size": "192"}]}}}, "dtype": {"type": "DT_FLOAT"}}}, {"name": "FeatureExtractor/MobilenetV2/expanded_conv_5/expand/Conv2D_bn_offset", "op": "Const", "attr": {"value": {"tensor": {"dtype": "DT_FLOAT", "tensorShape": {"dim": [{"size": "192"}]}}}, "dtype": {"type": "DT_FLOAT"}}}, {"name": "FeatureExtractor/MobilenetV2/expanded_conv_5/depthwise/depthwise_weights", "op": "Const", "attr": {"value": {"tensor": {"dtype": "DT_FLOAT", "tensorShape": {"dim": [{"size": "3"}, {"size": "3"}, {"size": "192"}, {"size": "1"}]}}}, "dtype": {"type": "DT_FLOAT"}}}, {"name": "FeatureExtractor/MobilenetV2/expanded_conv_5/depthwise/depthwise_bn_offset", "op": "Const", "attr": {"value": {"tensor": {"dtype": "DT_FLOAT", "tensorShape": {"dim": [{"size": "192"}]}}}, "dtype": {"type": "DT_FLOAT"}}}, {"name": "FeatureExtractor/MobilenetV2/expanded_conv_5/project/Conv2D_weights", "op": "Const", "attr": {"value": {"tensor": {"dtype": "DT_FLOAT", "tensorShape": {"dim": [{"size": "1"}, {"size": "1"}, {"size": "192"}, {"size": "32"}]}}}, "dtype": {"type": "DT_FLOAT"}}}, {"name": "FeatureExtractor/MobilenetV2/expanded_conv_5/project/Conv2D_bn_offset", "op": "Const", "attr": {"value": {"tensor": {"dtype": "DT_FLOAT", "tensorShape": {"dim": [{"size": "32"}]}}}, "dtype": {"type": "DT_FLOAT"}}}, {"name": "FeatureExtractor/MobilenetV2/expanded_conv_6/expand/Conv2D_weights", "op": "Const", "attr": {"value": {"tensor": {"dtype": "DT_FLOAT", "tensorShape": {"dim": [{"size": "1"}, {"size": "1"}, {"size": "32"}, {"size": "192"}]}}}, "dtype": {"type": "DT_FLOAT"}}}, {"name": "FeatureExtractor/MobilenetV2/expanded_conv_6/expand/Conv2D_bn_offset", "op": "Const", "attr": {"value": {"tensor": {"dtype": "DT_FLOAT", "tensorShape": {"dim": [{"size": "192"}]}}}, "dtype": {"type": "DT_FLOAT"}}}, {"name": "FeatureExtractor/MobilenetV2/expanded_conv_6/depthwise/depthwise_weights", "op": "Const", "attr": {"value": {"tensor": {"dtype": "DT_FLOAT", "tensorShape": {"dim": [{"size": "3"}, {"size": "3"}, {"size": "192"}, {"size": "1"}]}}}, "dtype": {"type": "DT_FLOAT"}}}, {"name": "FeatureExtractor/MobilenetV2/expanded_conv_6/depthwise/depthwise_bn_offset", "op": "Const", "attr": {"value": {"tensor": {"dtype": "DT_FLOAT", "tensorShape": {"dim": [{"size": "192"}]}}}, "dtype": {"type": "DT_FLOAT"}}}, {"name": "FeatureExtractor/MobilenetV2/expanded_conv_6/project/Conv2D_weights", "op": "Const", "attr": {"value": {"tensor": {"dtype": "DT_FLOAT", "tensorShape": {"dim": [{"size": "1"}, {"size": "1"}, {"size": "192"}, {"size": "64"}]}}}, "dtype": {"type": "DT_FLOAT"}}}, {"name": "FeatureExtractor/MobilenetV2/expanded_conv_6/project/Conv2D_bn_offset", "op": "Const", "attr": {"value": {"tensor": {"dtype": "DT_FLOAT", "tensorShape": {"dim": [{"size": "64"}]}}}, "dtype": {"type": "DT_FLOAT"}}}, {"name": "FeatureExtractor/MobilenetV2/expanded_conv_7/expand/Conv2D_weights", "op": "Const", "attr": {"value": {"tensor": {"dtype": "DT_FLOAT", "tensorShape": {"dim": [{"size": "1"}, {"size": "1"}, {"size": "64"}, {"size": "384"}]}}}, "dtype": {"type": "DT_FLOAT"}}}, {"name": "FeatureExtractor/MobilenetV2/expanded_conv_7/expand/Conv2D_bn_offset", "op": "Const", "attr": {"value": {"tensor": {"dtype": "DT_FLOAT", "tensorShape": {"dim": [{"size": "384"}]}}}, "dtype": {"type": "DT_FLOAT"}}}, {"name": "FeatureExtractor/MobilenetV2/expanded_conv_7/depthwise/depthwise_weights", "op": "Const", "attr": {"value": {"tensor": {"dtype": "DT_FLOAT", "tensorShape": {"dim": [{"size": "3"}, {"size": "3"}, {"size": "384"}, {"size": "1"}]}}}, "dtype": {"type": "DT_FLOAT"}}}, {"name": "FeatureExtractor/MobilenetV2/expanded_conv_7/depthwise/depthwise_bn_offset", "op": "Const", "attr": {"value": {"tensor": {"dtype": "DT_FLOAT", "tensorShape": {"dim": [{"size": "384"}]}}}, "dtype": {"type": "DT_FLOAT"}}}, {"name": "FeatureExtractor/MobilenetV2/expanded_conv_7/project/Conv2D_weights", "op": "Const", "attr": {"value": {"tensor": {"dtype": "DT_FLOAT", "tensorShape": {"dim": [{"size": "1"}, {"size": "1"}, {"size": "384"}, {"size": "64"}]}}}, "dtype": {"type": "DT_FLOAT"}}}, {"name": "FeatureExtractor/MobilenetV2/expanded_conv_7/project/Conv2D_bn_offset", "op": "Const", "attr": {"value": {"tensor": {"dtype": "DT_FLOAT", "tensorShape": {"dim": [{"size": "64"}]}}}, "dtype": {"type": "DT_FLOAT"}}}, {"name": "FeatureExtractor/MobilenetV2/expanded_conv_8/expand/Conv2D_weights", "op": "Const", "attr": {"value": {"tensor": {"dtype": "DT_FLOAT", "tensorShape": {"dim": [{"size": "1"}, {"size": "1"}, {"size": "64"}, {"size": "384"}]}}}, "dtype": {"type": "DT_FLOAT"}}}, {"name": "FeatureExtractor/MobilenetV2/expanded_conv_8/expand/Conv2D_bn_offset", "op": "Const", "attr": {"value": {"tensor": {"dtype": "DT_FLOAT", "tensorShape": {"dim": [{"size": "384"}]}}}, "dtype": {"type": "DT_FLOAT"}}}, {"name": "FeatureExtractor/MobilenetV2/expanded_conv_8/depthwise/depthwise_weights", "op": "Const", "attr": {"value": {"tensor": {"dtype": "DT_FLOAT", "tensorShape": {"dim": [{"size": "3"}, {"size": "3"}, {"size": "384"}, {"size": "1"}]}}}, "dtype": {"type": "DT_FLOAT"}}}, {"name": "FeatureExtractor/MobilenetV2/expanded_conv_8/depthwise/depthwise_bn_offset", "op": "Const", "attr": {"value": {"tensor": {"dtype": "DT_FLOAT", "tensorShape": {"dim": [{"size": "384"}]}}}, "dtype": {"type": "DT_FLOAT"}}}, {"name": "FeatureExtractor/MobilenetV2/expanded_conv_8/project/Conv2D_weights", "op": "Const", "attr": {"value": {"tensor": {"dtype": "DT_FLOAT", "tensorShape": {"dim": [{"size": "1"}, {"size": "1"}, {"size": "384"}, {"size": "64"}]}}}, "dtype": {"type": "DT_FLOAT"}}}, {"name": "FeatureExtractor/MobilenetV2/expanded_conv_8/project/Conv2D_bn_offset", "op": "Const", "attr": {"value": {"tensor": {"dtype": "DT_FLOAT", "tensorShape": {"dim": [{"size": "64"}]}}}, "dtype": {"type": "DT_FLOAT"}}}, {"name": "FeatureExtractor/MobilenetV2/expanded_conv_9/expand/Conv2D_weights", "op": "Const", "attr": {"value": {"tensor": {"dtype": "DT_FLOAT", "tensorShape": {"dim": [{"size": "1"}, {"size": "1"}, {"size": "64"}, {"size": "384"}]}}}, "dtype": {"type": "DT_FLOAT"}}}, {"name": "FeatureExtractor/MobilenetV2/expanded_conv_9/expand/Conv2D_bn_offset", "op": "Const", "attr": {"value": {"tensor": {"dtype": "DT_FLOAT", "tensorShape": {"dim": [{"size": "384"}]}}}, "dtype": {"type": "DT_FLOAT"}}}, {"name": "FeatureExtractor/MobilenetV2/expanded_conv_9/depthwise/depthwise_weights", "op": "Const", "attr": {"value": {"tensor": {"dtype": "DT_FLOAT", "tensorShape": {"dim": [{"size": "3"}, {"size": "3"}, {"size": "384"}, {"size": "1"}]}}}, "dtype": {"type": "DT_FLOAT"}}}, {"name": "FeatureExtractor/MobilenetV2/expanded_conv_9/depthwise/depthwise_bn_offset", "op": "Const", "attr": {"value": {"tensor": {"dtype": "DT_FLOAT", "tensorShape": {"dim": [{"size": "384"}]}}}, "dtype": {"type": "DT_FLOAT"}}}, {"name": "FeatureExtractor/MobilenetV2/expanded_conv_9/project/Conv2D_weights", "op": "Const", "attr": {"value": {"tensor": {"dtype": "DT_FLOAT", "tensorShape": {"dim": [{"size": "1"}, {"size": "1"}, {"size": "384"}, {"size": "64"}]}}}, "dtype": {"type": "DT_FLOAT"}}}, {"name": "FeatureExtractor/MobilenetV2/expanded_conv_9/project/Conv2D_bn_offset", "op": "Const", "attr": {"value": {"tensor": {"dtype": "DT_FLOAT", "tensorShape": {"dim": [{"size": "64"}]}}}, "dtype": {"type": "DT_FLOAT"}}}, {"name": "FeatureExtractor/MobilenetV2/expanded_conv_10/expand/Conv2D_weights", "op": "Const", "attr": {"value": {"tensor": {"dtype": "DT_FLOAT", "tensorShape": {"dim": [{"size": "1"}, {"size": "1"}, {"size": "64"}, {"size": "384"}]}}}, "dtype": {"type": "DT_FLOAT"}}}, {"name": "FeatureExtractor/MobilenetV2/expanded_conv_10/expand/Conv2D_bn_offset", "op": "Const", "attr": {"value": {"tensor": {"dtype": "DT_FLOAT", "tensorShape": {"dim": [{"size": "384"}]}}}, "dtype": {"type": "DT_FLOAT"}}}, {"name": "FeatureExtractor/MobilenetV2/expanded_conv_10/depthwise/depthwise_weights", "op": "Const", "attr": {"value": {"tensor": {"dtype": "DT_FLOAT", "tensorShape": {"dim": [{"size": "3"}, {"size": "3"}, {"size": "384"}, {"size": "1"}]}}}, "dtype": {"type": "DT_FLOAT"}}}, {"name": "FeatureExtractor/MobilenetV2/expanded_conv_10/depthwise/depthwise_bn_offset", "op": "Const", "attr": {"value": {"tensor": {"dtype": "DT_FLOAT", "tensorShape": {"dim": [{"size": "384"}]}}}, "dtype": {"type": "DT_FLOAT"}}}, {"name": "FeatureExtractor/MobilenetV2/expanded_conv_10/project/Conv2D_weights", "op": "Const", "attr": {"value": {"tensor": {"dtype": "DT_FLOAT", "tensorShape": {"dim": [{"size": "1"}, {"size": "1"}, {"size": "384"}, {"size": "96"}]}}}, "dtype": {"type": "DT_FLOAT"}}}, {"name": "FeatureExtractor/MobilenetV2/expanded_conv_10/project/Conv2D_bn_offset", "op": "Const", "attr": {"value": {"tensor": {"dtype": "DT_FLOAT", "tensorShape": {"dim": [{"size": "96"}]}}}, "dtype": {"type": "DT_FLOAT"}}}, {"name": "FeatureExtractor/MobilenetV2/expanded_conv_11/expand/Conv2D_weights", "op": "Const", "attr": {"value": {"tensor": {"dtype": "DT_FLOAT", "tensorShape": {"dim": [{"size": "1"}, {"size": "1"}, {"size": "96"}, {"size": "576"}]}}}, "dtype": {"type": "DT_FLOAT"}}}, {"name": "FeatureExtractor/MobilenetV2/expanded_conv_11/expand/Conv2D_bn_offset", "op": "Const", "attr": {"value": {"tensor": {"dtype": "DT_FLOAT", "tensorShape": {"dim": [{"size": "576"}]}}}, "dtype": {"type": "DT_FLOAT"}}}, {"name": "FeatureExtractor/MobilenetV2/expanded_conv_11/depthwise/depthwise_weights", "op": "Const", "attr": {"value": {"tensor": {"dtype": "DT_FLOAT", "tensorShape": {"dim": [{"size": "3"}, {"size": "3"}, {"size": "576"}, {"size": "1"}]}}}, "dtype": {"type": "DT_FLOAT"}}}, {"name": "FeatureExtractor/MobilenetV2/expanded_conv_11/depthwise/depthwise_bn_offset", "op": "Const", "attr": {"value": {"tensor": {"dtype": "DT_FLOAT", "tensorShape": {"dim": [{"size": "576"}]}}}, "dtype": {"type": "DT_FLOAT"}}}, {"name": "FeatureExtractor/MobilenetV2/expanded_conv_11/project/Conv2D_weights", "op": "Const", "attr": {"value": {"tensor": {"dtype": "DT_FLOAT", "tensorShape": {"dim": [{"size": "1"}, {"size": "1"}, {"size": "576"}, {"size": "96"}]}}}, "dtype": {"type": "DT_FLOAT"}}}, {"name": "FeatureExtractor/MobilenetV2/expanded_conv_11/project/Conv2D_bn_offset", "op": "Const", "attr": {"value": {"tensor": {"dtype": "DT_FLOAT", "tensorShape": {"dim": [{"size": "96"}]}}}, "dtype": {"type": "DT_FLOAT"}}}, {"name": "FeatureExtractor/MobilenetV2/expanded_conv_12/expand/Conv2D_weights", "op": "Const", "attr": {"value": {"tensor": {"dtype": "DT_FLOAT", "tensorShape": {"dim": [{"size": "1"}, {"size": "1"}, {"size": "96"}, {"size": "576"}]}}}, "dtype": {"type": "DT_FLOAT"}}}, {"name": "FeatureExtractor/MobilenetV2/expanded_conv_12/expand/Conv2D_bn_offset", "op": "Const", "attr": {"value": {"tensor": {"dtype": "DT_FLOAT", "tensorShape": {"dim": [{"size": "576"}]}}}, "dtype": {"type": "DT_FLOAT"}}}, {"name": "FeatureExtractor/MobilenetV2/expanded_conv_12/depthwise/depthwise_weights", "op": "Const", "attr": {"value": {"tensor": {"dtype": "DT_FLOAT", "tensorShape": {"dim": [{"size": "3"}, {"size": "3"}, {"size": "576"}, {"size": "1"}]}}}, "dtype": {"type": "DT_FLOAT"}}}, {"name": "FeatureExtractor/MobilenetV2/expanded_conv_12/depthwise/depthwise_bn_offset", "op": "Const", "attr": {"value": {"tensor": {"dtype": "DT_FLOAT", "tensorShape": {"dim": [{"size": "576"}]}}}, "dtype": {"type": "DT_FLOAT"}}}, {"name": "FeatureExtractor/MobilenetV2/expanded_conv_12/project/Conv2D_weights", "op": "Const", "attr": {"value": {"tensor": {"dtype": "DT_FLOAT", "tensorShape": {"dim": [{"size": "1"}, {"size": "1"}, {"size": "576"}, {"size": "96"}]}}}, "dtype": {"type": "DT_FLOAT"}}}, {"name": "FeatureExtractor/MobilenetV2/expanded_conv_12/project/Conv2D_bn_offset", "op": "Const", "attr": {"value": {"tensor": {"dtype": "DT_FLOAT", "tensorShape": {"dim": [{"size": "96"}]}}}, "dtype": {"type": "DT_FLOAT"}}}, {"name": "FeatureExtractor/MobilenetV2/expanded_conv_13/expand/Conv2D_weights", "op": "Const", "attr": {"value": {"tensor": {"dtype": "DT_FLOAT", "tensorShape": {"dim": [{"size": "1"}, {"size": "1"}, {"size": "96"}, {"size": "576"}]}}}, "dtype": {"type": "DT_FLOAT"}}}, {"name": "FeatureExtractor/MobilenetV2/expanded_conv_13/expand/Conv2D_bn_offset", "op": "Const", "attr": {"value": {"tensor": {"dtype": "DT_FLOAT", "tensorShape": {"dim": [{"size": "576"}]}}}, "dtype": {"type": "DT_FLOAT"}}}, {"name": "FeatureExtractor/MobilenetV2/expanded_conv_13/depthwise/depthwise_weights", "op": "Const", "attr": {"value": {"tensor": {"dtype": "DT_FLOAT", "tensorShape": {"dim": [{"size": "3"}, {"size": "3"}, {"size": "576"}, {"size": "1"}]}}}, "dtype": {"type": "DT_FLOAT"}}}, {"name": "FeatureExtractor/MobilenetV2/expanded_conv_13/depthwise/depthwise_bn_offset", "op": "Const", "attr": {"value": {"tensor": {"dtype": "DT_FLOAT", "tensorShape": {"dim": [{"size": "576"}]}}}, "dtype": {"type": "DT_FLOAT"}}}, {"name": "FeatureExtractor/MobilenetV2/expanded_conv_13/project/Conv2D_weights", "op": "Const", "attr": {"value": {"tensor": {"dtype": "DT_FLOAT", "tensorShape": {"dim": [{"size": "1"}, {"size": "1"}, {"size": "576"}, {"size": "160"}]}}}, "dtype": {"type": "DT_FLOAT"}}}, {"name": "FeatureExtractor/MobilenetV2/expanded_conv_13/project/Conv2D_bn_offset", "op": "Const", "attr": {"value": {"tensor": {"dtype": "DT_FLOAT", "tensorShape": {"dim": [{"size": "160"}]}}}, "dtype": {"type": "DT_FLOAT"}}}, {"name": "FeatureExtractor/MobilenetV2/expanded_conv_14/expand/Conv2D_weights", "op": "Const", "attr": {"value": {"tensor": {"dtype": "DT_FLOAT", "tensorShape": {"dim": [{"size": "1"}, {"size": "1"}, {"size": "160"}, {"size": "960"}]}}}, "dtype": {"type": "DT_FLOAT"}}}, {"name": "FeatureExtractor/MobilenetV2/expanded_conv_14/expand/Conv2D_bn_offset", "op": "Const", "attr": {"value": {"tensor": {"dtype": "DT_FLOAT", "tensorShape": {"dim": [{"size": "960"}]}}}, "dtype": {"type": "DT_FLOAT"}}}, {"name": "FeatureExtractor/MobilenetV2/expanded_conv_14/depthwise/depthwise_weights", "op": "Const", "attr": {"value": {"tensor": {"dtype": "DT_FLOAT", "tensorShape": {"dim": [{"size": "3"}, {"size": "3"}, {"size": "960"}, {"size": "1"}]}}}, "dtype": {"type": "DT_FLOAT"}}}, {"name": "FeatureExtractor/MobilenetV2/expanded_conv_14/depthwise/depthwise_bn_offset", "op": "Const", "attr": {"value": {"tensor": {"dtype": "DT_FLOAT", "tensorShape": {"dim": [{"size": "960"}]}}}, "dtype": {"type": "DT_FLOAT"}}}, {"name": "FeatureExtractor/MobilenetV2/expanded_conv_14/project/Conv2D_weights", "op": "Const", "attr": {"value": {"tensor": {"dtype": "DT_FLOAT", "tensorShape": {"dim": [{"size": "1"}, {"size": "1"}, {"size": "960"}, {"size": "160"}]}}}, "dtype": {"type": "DT_FLOAT"}}}, {"name": "FeatureExtractor/MobilenetV2/expanded_conv_14/project/Conv2D_bn_offset", "op": "Const", "attr": {"value": {"tensor": {"dtype": "DT_FLOAT", "tensorShape": {"dim": [{"size": "160"}]}}}, "dtype": {"type": "DT_FLOAT"}}}, {"name": "FeatureExtractor/MobilenetV2/expanded_conv_15/expand/Conv2D_weights", "op": "Const", "attr": {"value": {"tensor": {"dtype": "DT_FLOAT", "tensorShape": {"dim": [{"size": "1"}, {"size": "1"}, {"size": "160"}, {"size": "960"}]}}}, "dtype": {"type": "DT_FLOAT"}}}, {"name": "FeatureExtractor/MobilenetV2/expanded_conv_15/expand/Conv2D_bn_offset", "op": "Const", "attr": {"value": {"tensor": {"dtype": "DT_FLOAT", "tensorShape": {"dim": [{"size": "960"}]}}}, "dtype": {"type": "DT_FLOAT"}}}, {"name": "FeatureExtractor/MobilenetV2/expanded_conv_15/depthwise/depthwise_weights", "op": "Const", "attr": {"value": {"tensor": {"dtype": "DT_FLOAT", "tensorShape": {"dim": [{"size": "3"}, {"size": "3"}, {"size": "960"}, {"size": "1"}]}}}, "dtype": {"type": "DT_FLOAT"}}}, {"name": "FeatureExtractor/MobilenetV2/expanded_conv_15/depthwise/depthwise_bn_offset", "op": "Const", "attr": {"value": {"tensor": {"dtype": "DT_FLOAT", "tensorShape": {"dim": [{"size": "960"}]}}}, "dtype": {"type": "DT_FLOAT"}}}, {"name": "FeatureExtractor/MobilenetV2/expanded_conv_15/project/Conv2D_weights", "op": "Const", "attr": {"value": {"tensor": {"dtype": "DT_FLOAT", "tensorShape": {"dim": [{"size": "1"}, {"size": "1"}, {"size": "960"}, {"size": "160"}]}}}, "dtype": {"type": "DT_FLOAT"}}}, {"name": "FeatureExtractor/MobilenetV2/expanded_conv_15/project/Conv2D_bn_offset", "op": "Const", "attr": {"value": {"tensor": {"dtype": "DT_FLOAT", "tensorShape": {"dim": [{"size": "160"}]}}}, "dtype": {"type": "DT_FLOAT"}}}, {"name": "FeatureExtractor/MobilenetV2/expanded_conv_16/expand/Conv2D_weights", "op": "Const", "attr": {"value": {"tensor": {"dtype": "DT_FLOAT", "tensorShape": {"dim": [{"size": "1"}, {"size": "1"}, {"size": "160"}, {"size": "960"}]}}}, "dtype": {"type": "DT_FLOAT"}}}, {"name": "FeatureExtractor/MobilenetV2/expanded_conv_16/expand/Conv2D_bn_offset", "op": "Const", "attr": {"value": {"tensor": {"dtype": "DT_FLOAT", "tensorShape": {"dim": [{"size": "960"}]}}}, "dtype": {"type": "DT_FLOAT"}}}, {"name": "FeatureExtractor/MobilenetV2/expanded_conv_16/depthwise/depthwise_weights", "op": "Const", "attr": {"value": {"tensor": {"dtype": "DT_FLOAT", "tensorShape": {"dim": [{"size": "3"}, {"size": "3"}, {"size": "960"}, {"size": "1"}]}}}, "dtype": {"type": "DT_FLOAT"}}}, {"name": "FeatureExtractor/MobilenetV2/expanded_conv_16/depthwise/depthwise_bn_offset", "op": "Const", "attr": {"value": {"tensor": {"dtype": "DT_FLOAT", "tensorShape": {"dim": [{"size": "960"}]}}}, "dtype": {"type": "DT_FLOAT"}}}, {"name": "FeatureExtractor/MobilenetV2/expanded_conv_16/project/Conv2D_weights", "op": "Const", "attr": {"value": {"tensor": {"dtype": "DT_FLOAT", "tensorShape": {"dim": [{"size": "1"}, {"size": "1"}, {"size": "960"}, {"size": "320"}]}}}, "dtype": {"type": "DT_FLOAT"}}}, {"name": "FeatureExtractor/MobilenetV2/expanded_conv_16/project/Conv2D_bn_offset", "op": "Const", "attr": {"value": {"tensor": {"dtype": "DT_FLOAT", "tensorShape": {"dim": [{"size": "320"}]}}}, "dtype": {"type": "DT_FLOAT"}}}, {"name": "FeatureExtractor/MobilenetV2/Conv_1/Conv2D_weights", "op": "Const", "attr": {"value": {"tensor": {"dtype": "DT_FLOAT", "tensorShape": {"dim": [{"size": "1"}, {"size": "1"}, {"size": "320"}, {"size": "1280"}]}}}, "dtype": {"type": "DT_FLOAT"}}}, {"name": "FeatureExtractor/MobilenetV2/Conv_1/Conv2D_bn_offset", "op": "Const", "attr": {"value": {"tensor": {"dtype": "DT_FLOAT", "tensorShape": {"dim": [{"size": "1280"}]}}}, "dtype": {"type": "DT_FLOAT"}}}, {"name": "FeatureExtractor/MobilenetV2/layer_19_1_Conv2d_2_1x1_256/Conv2D_weights", "op": "Const", "attr": {"value": {"tensor": {"dtype": "DT_FLOAT", "tensorShape": {"dim": [{"size": "1"}, {"size": "1"}, {"size": "1280"}, {"size": "256"}]}}}, "dtype": {"type": "DT_FLOAT"}}}, {"name": "FeatureExtractor/MobilenetV2/layer_19_1_Conv2d_2_1x1_256/Conv2D_bn_offset", "op": "Const", "attr": {"value": {"tensor": {"dtype": "DT_FLOAT", "tensorShape": {"dim": [{"size": "256"}]}}}, "dtype": {"type": "DT_FLOAT"}}}, {"name": "FeatureExtractor/MobilenetV2/layer_19_2_Conv2d_2_3x3_s2_512/Conv2D_weights", "op": "Const", "attr": {"value": {"tensor": {"dtype": "DT_FLOAT", "tensorShape": {"dim": [{"size": "3"}, {"size": "3"}, {"size": "256"}, {"size": "512"}]}}}, "dtype": {"type": "DT_FLOAT"}}}, {"name": "FeatureExtractor/MobilenetV2/layer_19_2_Conv2d_2_3x3_s2_512/Conv2D_bn_offset", "op": "Const", "attr": {"value": {"tensor": {"dtype": "DT_FLOAT", "tensorShape": {"dim": [{"size": "512"}]}}}, "dtype": {"type": "DT_FLOAT"}}}, {"name": "FeatureExtractor/MobilenetV2/layer_19_1_Conv2d_3_1x1_128/Conv2D_weights", "op": "Const", "attr": {"value": {"tensor": {"dtype": "DT_FLOAT", "tensorShape": {"dim": [{"size": "1"}, {"size": "1"}, {"size": "512"}, {"size": "128"}]}}}, "dtype": {"type": "DT_FLOAT"}}}, {"name": "FeatureExtractor/MobilenetV2/layer_19_1_Conv2d_3_1x1_128/Conv2D_bn_offset", "op": "Const", "attr": {"value": {"tensor": {"dtype": "DT_FLOAT", "tensorShape": {"dim": [{"size": "128"}]}}}, "dtype": {"type": "DT_FLOAT"}}}, {"name": "FeatureExtractor/MobilenetV2/layer_19_2_Conv2d_3_3x3_s2_256/Conv2D_weights", "op": "Const", "attr": {"value": {"tensor": {"dtype": "DT_FLOAT", "tensorShape": {"dim": [{"size": "3"}, {"size": "3"}, {"size": "128"}, {"size": "256"}]}}}, "dtype": {"type": "DT_FLOAT"}}}, {"name": "FeatureExtractor/MobilenetV2/layer_19_2_Conv2d_3_3x3_s2_256/Conv2D_bn_offset", "op": "Const", "attr": {"value": {"tensor": {"dtype": "DT_FLOAT", "tensorShape": {"dim": [{"size": "256"}]}}}, "dtype": {"type": "DT_FLOAT"}}}, {"name": "FeatureExtractor/MobilenetV2/layer_19_1_Conv2d_4_1x1_128/Conv2D_weights", "op": "Const", "attr": {"value": {"tensor": {"dtype": "DT_FLOAT", "tensorShape": {"dim": [{"size": "1"}, {"size": "1"}, {"size": "256"}, {"size": "128"}]}}}, "dtype": {"type": "DT_FLOAT"}}}, {"name": "FeatureExtractor/MobilenetV2/layer_19_1_Conv2d_4_1x1_128/Conv2D_bn_offset", "op": "Const", "attr": {"value": {"tensor": {"dtype": "DT_FLOAT", "tensorShape": {"dim": [{"size": "128"}]}}}, "dtype": {"type": "DT_FLOAT"}}}, {"name": "FeatureExtractor/MobilenetV2/layer_19_2_Conv2d_4_3x3_s2_256/Conv2D_weights", "op": "Const", "attr": {"value": {"tensor": {"dtype": "DT_FLOAT", "tensorShape": {"dim": [{"size": "3"}, {"size": "3"}, {"size": "128"}, {"size": "256"}]}}}, "dtype": {"type": "DT_FLOAT"}}}, {"name": "FeatureExtractor/MobilenetV2/layer_19_2_Conv2d_4_3x3_s2_256/Conv2D_bn_offset", "op": "Const", "attr": {"value": {"tensor": {"dtype": "DT_FLOAT", "tensorShape": {"dim": [{"size": "256"}]}}}, "dtype": {"type": "DT_FLOAT"}}}, {"name": "FeatureExtractor/MobilenetV2/layer_19_1_Conv2d_5_1x1_64/Conv2D_weights", "op": "Const", "attr": {"value": {"tensor": {"dtype": "DT_FLOAT", "tensorShape": {"dim": [{"size": "1"}, {"size": "1"}, {"size": "256"}, {"size": "64"}]}}}, "dtype": {"type": "DT_FLOAT"}}}, {"name": "FeatureExtractor/MobilenetV2/layer_19_1_Conv2d_5_1x1_64/Conv2D_bn_offset", "op": "Const", "attr": {"value": {"tensor": {"dtype": "DT_FLOAT", "tensorShape": {"dim": [{"size": "64"}]}}}, "dtype": {"type": "DT_FLOAT"}}}, {"name": "FeatureExtractor/MobilenetV2/layer_19_2_Conv2d_5_3x3_s2_128/Conv2D_weights", "op": "Const", "attr": {"value": {"tensor": {"dtype": "DT_FLOAT", "tensorShape": {"dim": [{"size": "3"}, {"size": "3"}, {"size": "64"}, {"size": "128"}]}}}, "dtype": {"type": "DT_FLOAT"}}}, {"name": "FeatureExtractor/MobilenetV2/layer_19_2_Conv2d_5_3x3_s2_128/Conv2D_bn_offset", "op": "Const", "attr": {"value": {"tensor": {"dtype": "DT_FLOAT", "tensorShape": {"dim": [{"size": "128"}]}}}, "dtype": {"type": "DT_FLOAT"}}}, {"name": "Postprocessor/BatchMultiClassNonMaxSuppression/map/while/Enter_1", "op": "Enter", "input": ["Postprocessor/BatchMultiClassNonMaxSuppression/map/TensorArrayStack/range/start"], "attr": {"T": {"type": "DT_INT32"}, "is_constant": {"b": false}, "parallel_iterations": {"i": "32"}, "frame_name": {"s": "UG9zdHByb2Nlc3Nvci9CYXRjaE11bHRpQ2xhc3NOb25NYXhTdXBwcmVzc2lvbi9tYXAvd2hpbGUvd2hpbGVfY29udGV4dA=="}}}, {"name": "Postprocessor/BatchMultiClassNonMaxSuppression/map/while/Enter", "op": "Enter", "input": ["Postprocessor/BatchMultiClassNonMaxSuppression/map/TensorArrayStack/range/start"], "attr": {"T": {"type": "DT_INT32"}, "is_constant": {"b": false}, "parallel_iterations": {"i": "32"}, "frame_name": {"s": "UG9zdHByb2Nlc3Nvci9CYXRjaE11bHRpQ2xhc3NOb25NYXhTdXBwcmVzc2lvbi9tYXAvd2hpbGUvd2hpbGVfY29udGV4dA=="}}}, {"name": "Preprocessor/map/while/Enter_1", "op": "Enter", "input": ["Postprocessor/BatchMultiClassNonMaxSuppression/map/TensorArrayStack/range/start"], "attr": {"T": {"type": "DT_INT32"}, "is_constant": {"b": false}, "parallel_iterations": {"i": "32"}, "frame_name": {"s": "UHJlcHJvY2Vzc29yL21hcC93aGlsZS93aGlsZV9jb250ZXh0"}}}, {"name": "Preprocessor/map/while/Enter", "op": "Enter", "input": ["Postprocessor/BatchMultiClassNonMaxSuppression/map/TensorArrayStack/range/start"], "attr": {"T": {"type": "DT_INT32"}, "is_constant": {"b": false}, "parallel_iterations": {"i": "32"}, "frame_name": {"s": "UHJlcHJvY2Vzc29yL21hcC93aGlsZS93aGlsZV9jb250ZXh0"}}}, {"name": "ToFloat", "op": "Cast", "input": ["image_tensor"], "attr": {"SrcT": {"type": "DT_UINT8"}, "Truncate": {"b": false}, "DstT": {"type": "DT_FLOAT"}}}, {"name": "Postprocessor/BatchMultiClassNonMaxSuppression/map/while/Merge_1", "op": "Merge", "input": ["Postprocessor/BatchMultiClassNonMaxSuppression/map/while/Enter_1", "Postprocessor/BatchMultiClassNonMaxSuppression/map/while/NextIteration_1"], "attr": {"T": {"type": "DT_INT32"}, "N": {"i": "2"}}}, {"name": "Postprocessor/BatchMultiClassNonMaxSuppression/map/while/Merge", "op": "Merge", "input": ["Postprocessor/BatchMultiClassNonMaxSuppression/map/while/Enter", "Postprocessor/BatchMultiClassNonMaxSuppression/map/while/NextIteration"], "attr": {"T": {"type": "DT_INT32"}, "N": {"i": "2"}}}, {"name": "Preprocessor/map/while/Merge_1", "op": "Merge", "input": ["Preprocessor/map/while/Enter_1", "Preprocessor/map/while/NextIteration_1"], "attr": {"T": {"type": "DT_INT32"}, "N": {"i": "2"}}}, {"name": "Preprocessor/map/while/Merge", "op": "Merge", "input": ["Preprocessor/map/while/Enter", "Preprocessor/map/while/NextIteration"], "attr": {"T": {"type": "DT_INT32"}, "N": {"i": "2"}}}, {"name": "Preprocessor/map/TensorArrayUnstack/Shape", "op": "Shape", "input": ["ToFloat"], "attr": {"T": {"type": "DT_FLOAT"}, "out_type": {"type": "DT_INT32"}}}, {"name": "Preprocessor/map/TensorArrayUnstack/strided_slice", "op": "StridedSlice", "input": ["Preprocessor/map/TensorArrayUnstack/Shape", "Postprocessor/BatchMultiClassNonMaxSuppression/map/TensorArrayUnstack_1/strided_slice/stack", "Postprocessor/BatchMultiClassNonMaxSuppression/map/TensorArrayUnstack_1/strided_slice/stack_1", "Postprocessor/BatchMultiClassNonMaxSuppression/map/TensorArrayUnstack_1/strided_slice/stack_1"], "attr": {"T": {"type": "DT_INT32"}, "Index": {"type": "DT_INT32"}, "shrink_axis_mask": {"i": "1"}, "begin_mask": {"i": "0"}, "ellipsis_mask": {"i": "0"}, "new_axis_mask": {"i": "0"}, "end_mask": {"i": "0"}}}, {"name": "Preprocessor/map/TensorArray_2", "op": "TensorArrayV3", "input": ["Preprocessor/map/TensorArrayUnstack/strided_slice"], "attr": {"element_shape": {"shape": {"unknownRank": true}}, "dynamic_size": {"b": false}, "clear_after_read": {"b": true}, "identical_element_shapes": {"b": true}, "tensor_array_name": {"s": ""}, "dtype": {"type": "DT_INT32"}}}, {"name": "Preprocessor/map/TensorArray_1", "op": "TensorArrayV3", "input": ["Preprocessor/map/TensorArrayUnstack/strided_slice"], "attr": {"element_shape": {"shape": {"unknownRank": true}}, "clear_after_read": {"b": true}, "dynamic_size": {"b": false}, "identical_element_shapes": {"b": true}, "tensor_array_name": {"s": ""}, "dtype": {"type": "DT_FLOAT"}}}, {"name": "Preprocessor/map/TensorArrayUnstack/range", "op": "Range", "input": ["Postprocessor/BatchMultiClassNonMaxSuppression/map/TensorArrayStack/range/start", "Preprocessor/map/TensorArrayUnstack/strided_slice", "Postprocessor/BatchMultiClassNonMaxSuppression/map/TensorArrayStack/range/delta"], "attr": {"Tidx": {"type": "DT_INT32"}}}, {"name": "Preprocessor/map/TensorArray", "op": "TensorArrayV3", "input": ["Preprocessor/map/TensorArrayUnstack/strided_slice"], "attr": {"element_shape": {"shape": {"unknownRank": true}}, "clear_after_read": {"b": true}, "dynamic_size": {"b": false}, "identical_element_shapes": {"b": true}, "tensor_array_name": {"s": ""}, "dtype": {"type": "DT_FLOAT"}}}, {"name": "Preprocessor/map/while/Less/Enter", "op": "Enter", "input": ["Preprocessor/map/TensorArrayUnstack/strided_slice"], "attr": {"T": {"type": "DT_INT32"}, "is_constant": {"b": true}, "parallel_iterations": {"i": "32"}, "frame_name": {"s": "UHJlcHJvY2Vzc29yL21hcC93aGlsZS93aGlsZV9jb250ZXh0"}}}, {"name": "Preprocessor/map/while/TensorArrayWrite_1/TensorArrayWriteV3/Enter", "op": "Enter", "input": ["Preprocessor/map/TensorArray_2"], "attr": {"T": {"type": "DT_RESOURCE"}, "is_constant": {"b": true}, "parallel_iterations": {"i": "32"}, "frame_name": {"s": "UHJlcHJvY2Vzc29yL21hcC93aGlsZS93aGlsZV9jb250ZXh0"}}}, {"name": "Preprocessor/map/while/Enter_3", "op": "Enter", "input": ["Preprocessor/map/TensorArray_2:1"], "attr": {"T": {"type": "DT_FLOAT"}, "is_constant": {"b": false}, "parallel_iterations": {"i": "32"}, "frame_name": {"s": "UHJlcHJvY2Vzc29yL21hcC93aGlsZS93aGlsZV9jb250ZXh0"}}}, {"name": "Preprocessor/map/while/TensorArrayWrite/TensorArrayWriteV3/Enter", "op": "Enter", "input": ["Preprocessor/map/TensorArray_1"], "attr": {"T": {"type": "DT_RESOURCE"}, "is_constant": {"b": true}, "parallel_iterations": {"i": "32"}, "frame_name": {"s": "UHJlcHJvY2Vzc29yL21hcC93aGlsZS93aGlsZV9jb250ZXh0"}}}, {"name": "Preprocessor/map/while/Enter_2", "op": "Enter", "input": ["Preprocessor/map/TensorArray_1:1"], "attr": {"T": {"type": "DT_FLOAT"}, "is_constant": {"b": false}, "parallel_iterations": {"i": "32"}, "frame_name": {"s": "UHJlcHJvY2Vzc29yL21hcC93aGlsZS93aGlsZV9jb250ZXh0"}}}, {"name": "Preprocessor/map/while/TensorArrayReadV3/Enter", "op": "Enter", "input": ["Preprocessor/map/TensorArray"], "attr": {"T": {"type": "DT_RESOURCE"}, "is_constant": {"b": true}, "parallel_iterations": {"i": "32"}, "frame_name": {"s": "UHJlcHJvY2Vzc29yL21hcC93aGlsZS93aGlsZV9jb250ZXh0"}}}, {"name": "Preprocessor/map/TensorArrayUnstack/TensorArrayScatter/TensorArrayScatterV3", "op": "TensorArrayScatterV3", "input": ["Preprocessor/map/TensorArray", "Preprocessor/map/TensorArrayUnstack/range", "ToFloat", "Preprocessor/map/TensorArray:1"], "attr": {"T": {"type": "DT_FLOAT"}}}, {"name": "Preprocessor/map/while/Less", "op": "Less", "input": ["Preprocessor/map/while/Merge", "Preprocessor/map/while/Less/Enter"], "attr": {"T": {"type": "DT_INT32"}}}, {"name": "Preprocessor/map/while/Less_1", "op": "Less", "input": ["Preprocessor/map/while/Merge_1", "Preprocessor/map/while/Less/Enter"], "attr": {"T": {"type": "DT_INT32"}}}, {"name": "Preprocessor/map/while/Merge_3", "op": "Merge", "input": ["Preprocessor/map/while/Enter_3", "Preprocessor/map/while/NextIteration_3"], "attr": {"T": {"type": "DT_FLOAT"}, "N": {"i": "2"}}}, {"name": "Preprocessor/map/while/Merge_2", "op": "Merge", "input": ["Preprocessor/map/while/Enter_2", "Preprocessor/map/while/NextIteration_2"], "attr": {"T": {"type": "DT_FLOAT"}, "N": {"i": "2"}}}, {"name": "Preprocessor/map/while/TensorArrayReadV3/Enter_1", "op": "Enter", "input": ["Preprocessor/map/TensorArrayUnstack/TensorArrayScatter/TensorArrayScatterV3"], "attr": {"T": {"type": "DT_FLOAT"}, "is_constant": {"b": true}, "parallel_iterations": {"i": "32"}, "frame_name": {"s": "UHJlcHJvY2Vzc29yL21hcC93aGlsZS93aGlsZV9jb250ZXh0"}}}, {"name": "Preprocessor/map/while/LogicalAnd", "op": "LogicalAnd", "input": ["Preprocessor/map/while/Less", "Preprocessor/map/while/Less_1"]}, {"name": "Preprocessor/map/while/LoopCond", "op": "LoopCond", "input": ["Preprocessor/map/while/LogicalAnd"]}, {"name": "Preprocessor/map/while/Switch_3", "op": "Switch", "input": ["Preprocessor/map/while/Merge_3", "Preprocessor/map/while/LoopCond"], "attr": {"T": {"type": "DT_FLOAT"}}}, {"name": "Preprocessor/map/while/Switch_1", "op": "Switch", "input": ["Preprocessor/map/while/Merge_1", "Preprocessor/map/while/LoopCond"], "attr": {"T": {"type": "DT_INT32"}}}, {"name": "Preprocessor/map/while/Switch", "op": "Switch", "input": ["Preprocessor/map/while/Merge", "Preprocessor/map/while/LoopCond"], "attr": {"T": {"type": "DT_INT32"}}}, {"name": "Preprocessor/map/while/Switch_2", "op": "Switch", "input": ["Preprocessor/map/while/Merge_2", "Preprocessor/map/while/LoopCond"], "attr": {"T": {"type": "DT_FLOAT"}}}, {"name": "Preprocessor/map/while/Exit_3", "op": "Exit", "input": ["Preprocessor/map/while/Switch_3"], "attr": {"T": {"type": "DT_FLOAT"}}}, {"name": "Preprocessor/map/while/TensorArrayReadV3", "op": "TensorArrayReadV3", "input": ["Preprocessor/map/while/TensorArrayReadV3/Enter", "Preprocessor/map/while/Switch_1:1", "Preprocessor/map/while/TensorArrayReadV3/Enter_1"], "attr": {"dtype": {"type": "DT_FLOAT"}}}, {"name": "Preprocessor/map/while/Identity", "op": "Identity", "input": ["Preprocessor/map/while/Switch:1"], "attr": {"T": {"type": "DT_INT32"}}}, {"name": "Preprocessor/map/while/Exit_2", "op": "Exit", "input": ["Preprocessor/map/while/Switch_2"], "attr": {"T": {"type": "DT_FLOAT"}}}, {"name": "Preprocessor/map/TensorArrayStack_1/TensorArraySizeV3", "op": "TensorArraySizeV3", "input": ["Preprocessor/map/TensorArray_2", "Preprocessor/map/while/Exit_3"]}, {"name": "Preprocessor/map/while/ResizeImage/stack_1", "op": "Const", "input": ["^Preprocessor/map/while/Identity"], "attr": {"value": {"tensor": {"dtype": "DT_INT32", "tensorShape": {"dim": [{"size": "3"}]}}}, "dtype": {"type": "DT_INT32"}}}, {"name": "Preprocessor/map/while/ResizeImage/resize_images/ExpandDims/dim", "op": "Const", "input": ["^Preprocessor/map/while/Identity"], "attr": {"value": {"tensor": {"dtype": "DT_INT32", "tensorShape": {}}}, "dtype": {"type": "DT_INT32"}}}, {"name": "Preprocessor/map/while/ResizeImage/stack", "op": "Const", "input": ["^Preprocessor/map/while/Identity"], "attr": {"value": {"tensor": {"dtype": "DT_INT32", "tensorShape": {"dim": [{"size": "2"}]}}}, "dtype": {"type": "DT_INT32"}}}, {"name": "Preprocessor/map/while/add/y", "op": "Const", "input": ["^Preprocessor/map/while/Identity"], "attr": {"value": {"tensor": {"dtype": "DT_INT32", "tensorShape": {}}}, "dtype": {"type": "DT_INT32"}}}, {"name": "Preprocessor/map/TensorArrayStack/TensorArraySizeV3", "op": "TensorArraySizeV3", "input": ["Preprocessor/map/TensorArray_1", "Preprocessor/map/while/Exit_2"]}, {"name": "Preprocessor/map/TensorArrayStack_1/range", "op": "Range", "input": ["Postprocessor/BatchMultiClassNonMaxSuppression/map/TensorArrayStack/range/start", "Preprocessor/map/TensorArrayStack_1/TensorArraySizeV3", "Postprocessor/BatchMultiClassNonMaxSuppression/map/TensorArrayStack/range/delta"], "attr": {"Tidx": {"type": "DT_INT32"}}}, {"name": "Preprocessor/map/while/TensorArrayWrite_1/TensorArrayWriteV3", "op": "TensorArrayWriteV3", "input": ["Preprocessor/map/while/TensorArrayWrite_1/TensorArrayWriteV3/Enter", "Preprocessor/map/while/Switch_1:1", "Preprocessor/map/while/ResizeImage/stack_1", "Preprocessor/map/while/Switch_3:1"], "attr": {"T": {"type": "DT_INT32"}}}, {"name": "Preprocessor/map/while/ResizeImage/resize_images/ExpandDims", "op": "ExpandDims", "input": ["Preprocessor/map/while/TensorArrayReadV3", "Preprocessor/map/while/ResizeImage/resize_images/ExpandDims/dim"], "attr": {"Tdim": {"type": "DT_INT32"}, "T": {"type": "DT_FLOAT"}}}, {"name": "Preprocessor/map/while/add", "op": "Add", "input": ["Preprocessor/map/while/Identity", "Preprocessor/map/while/add/y"], "attr": {"T": {"type": "DT_INT32"}}}, {"name": "Preprocessor/map/while/add_1", "op": "Add", "input": ["Preprocessor/map/while/Switch_1:1", "Preprocessor/map/while/add/y"], "attr": {"T": {"type": "DT_INT32"}}}, {"name": "Preprocessor/map/TensorArrayStack/range", "op": "Range", "input": ["Postprocessor/BatchMultiClassNonMaxSuppression/map/TensorArrayStack/range/start", "Preprocessor/map/TensorArrayStack/TensorArraySizeV3", "Postprocessor/BatchMultiClassNonMaxSuppression/map/TensorArrayStack/range/delta"], "attr": {"Tidx": {"type": "DT_INT32"}}}, {"name": "Preprocessor/map/TensorArrayStack_1/TensorArrayGatherV3", "op": "TensorArrayGatherV3", "input": ["Preprocessor/map/TensorArray_2", "Preprocessor/map/TensorArrayStack_1/range", "Preprocessor/map/while/Exit_3"], "attr": {"element_shape": {"shape": {"dim": [{"size": "3"}]}}, "dtype": {"type": "DT_INT32"}}}, {"name": "Preprocessor/map/while/NextIteration_3", "op": "NextIteration", "input": ["Preprocessor/map/while/TensorArrayWrite_1/TensorArrayWriteV3"], "attr": {"T": {"type": "DT_FLOAT"}}}, {"name": "Preprocessor/map/while/ResizeImage/resize_images/ResizeBilinear", "op": "ResizeBilinear", "input": ["Preprocessor/map/while/ResizeImage/resize_images/ExpandDims", "Preprocessor/map/while/ResizeImage/stack"], "attr": {"align_corners": {"b": false}, "half_pixel_centers": {"b": false}, "T": {"type": "DT_FLOAT"}}}, {"name": "Preprocessor/map/while/NextIteration", "op": "NextIteration", "input": ["Preprocessor/map/while/add"], "attr": {"T": {"type": "DT_INT32"}}}, {"name": "Preprocessor/map/while/NextIteration_1", "op": "NextIteration", "input": ["Preprocessor/map/while/add_1"], "attr": {"T": {"type": "DT_INT32"}}}, {"name": "Preprocessor/map/TensorArrayStack/TensorArrayGatherV3", "op": "TensorArrayGatherV3", "input": ["Preprocessor/map/TensorArray_1", "Preprocessor/map/TensorArrayStack/range", "Preprocessor/map/while/Exit_2"], "attr": {"element_shape": {"shape": {"dim": [{"size": "600"}, {"size": "600"}, {"size": "3"}]}}, "dtype": {"type": "DT_FLOAT"}}}, {"name": "Postprocessor/ToFloat", "op": "Cast", "input": ["Preprocessor/map/TensorArrayStack_1/TensorArrayGatherV3"], "attr": {"SrcT": {"type": "DT_INT32"}, "Truncate": {"b": false}, "DstT": {"type": "DT_FLOAT"}}}, {"name": "Preprocessor/map/while/ResizeImage/resize_images/Squeeze", "op": "Squeeze", "input": ["Preprocessor/map/while/ResizeImage/resize_images/ResizeBilinear"], "attr": {"squeeze_dims": {"list": {"i": ["0"]}}, "T": {"type": "DT_FLOAT"}}}, {"name": "Preprocessor/mul", "op": "Mul", "input": ["Preprocessor/map/TensorArrayStack/TensorArrayGatherV3", "Preprocessor/mul/x"], "attr": {"T": {"type": "DT_FLOAT"}}}, {"name": "Postprocessor/unstack", "op": "Unpack", "input": ["Postprocessor/ToFloat"], "attr": {"num": {"i": "3"}, "T": {"type": "DT_FLOAT"}, "axis": {"i": "1"}}}, {"name": "Preprocessor/map/while/TensorArrayWrite/TensorArrayWriteV3", "op": "TensorArrayWriteV3", "input": ["Preprocessor/map/while/TensorArrayWrite/TensorArrayWriteV3/Enter", "Preprocessor/map/while/Switch_1:1", "Preprocessor/map/while/ResizeImage/resize_images/Squeeze", "Preprocessor/map/while/Switch_2:1"], "attr": {"T": {"type": "DT_FLOAT"}}}, {"name": "Preprocessor/sub", "op": "Sub", "input": ["Preprocessor/mul", "add/y"], "attr": {"T": {"type": "DT_FLOAT"}}}, {"name": "Postprocessor/zeros_like", "op": "ZerosLike", "input": ["Postprocessor/unstack"], "attr": {"T": {"type": "DT_FLOAT"}}}, {"name": "Postprocessor/truediv", "op": "Mul", "input": ["ConstantFolding/Postprocessor/truediv_recip", "Postprocessor/unstack"], "attr": {"T": {"type": "DT_FLOAT"}}}, {"name": "Postprocessor/zeros_like_1", "op": "ZerosLike", "input": ["Postprocessor/unstack:1"], "attr": {"T": {"type": "DT_FLOAT"}}}, {"name": "Postprocessor/truediv_1", "op": "Mul", "input": ["ConstantFolding/Postprocessor/truediv_recip", "Postprocessor/unstack:1"], "attr": {"T": {"type": "DT_FLOAT"}}}, {"name": "Preprocessor/map/while/NextIteration_2", "op": "NextIteration", "input": ["Preprocessor/map/while/TensorArrayWrite/TensorArrayWriteV3"], "attr": {"T": {"type": "DT_FLOAT"}}}, {"name": "FeatureExtractor/MobilenetV2/Conv/Relu6", "op": "_FusedConv2D", "input": ["Preprocessor/sub", "FeatureExtractor/MobilenetV2/Conv/Conv2D_weights", "FeatureExtractor/MobilenetV2/Conv/Conv2D_bn_offset"], "device": "/device:CPU:0", "attr": {"dilations": {"list": {"i": ["1", "1", "1", "1"]}}, "T": {"type": "DT_FLOAT"}, "data_format": {"s": "TkhXQw=="}, "strides": {"list": {"i": ["1", "2", "2", "1"]}}, "explicit_paddings": {"list": {}}, "use_cudnn_on_gpu": {"b": true}, "num_args": {"i": "1"}, "epsilon": {"f": 0.0}, "padding": {"s": "U0FNRQ=="}, "fused_ops": {"list": {"s": ["Qmlhc0FkZA==", "UmVsdTY="]}}}}, {"name": "Postprocessor/stack_1", "op": "Pack", "input": ["Postprocessor/zeros_like", "Postprocessor/zeros_like_1", "Postprocessor/truediv", "Postprocessor/truediv_1"], "attr": {"T": {"type": "DT_FLOAT"}, "axis": {"i": "1"}, "N": {"i": "4"}}}, {"name": "FeatureExtractor/MobilenetV2/expanded_conv/depthwise/depthwise", "op": "FusedDepthwiseConv2dNative", "input": ["FeatureExtractor/MobilenetV2/Conv/Relu6", "FeatureExtractor/MobilenetV2/expanded_conv/depthwise/depthwise_weights", "FeatureExtractor/MobilenetV2/expanded_conv/depthwise/depthwise_bn_offset"], "attr": {"dilations": {"list": {"i": ["1", "1", "1", "1"]}}, "T": {"type": "DT_FLOAT"}, "data_format": {"s": "TkhXQw=="}, "strides": {"list": {"i": ["1", "1", "1", "1"]}}, "num_args": {"i": "1"}, "padding": {"s": "U0FNRQ=="}, "fused_ops": {"list": {"s": ["Qmlhc0FkZA==", "UmVsdTY="]}}}}, {"name": "Postprocessor/BatchMultiClassNonMaxSuppression/map/TensorArrayUnstack_3/Shape", "op": "Shape", "input": ["Postprocessor/stack_1"], "attr": {"T": {"type": "DT_FLOAT"}, "out_type": {"type": "DT_INT32"}}}, {"name": "Postprocessor/BatchMultiClassNonMaxSuppression/map/TensorArrayUnstack_3/strided_slice", "op": "StridedSlice", "input": ["Postprocessor/BatchMultiClassNonMaxSuppression/map/TensorArrayUnstack_3/Shape", "Postprocessor/BatchMultiClassNonMaxSuppression/map/TensorArrayUnstack_1/strided_slice/stack", "Postprocessor/BatchMultiClassNonMaxSuppression/map/TensorArrayUnstack_1/strided_slice/stack_1", "Postprocessor/BatchMultiClassNonMaxSuppression/map/TensorArrayUnstack_1/strided_slice/stack_1"], "attr": {"T": {"type": "DT_INT32"}, "Index": {"type": "DT_INT32"}, "shrink_axis_mask": {"i": "1"}, "begin_mask": {"i": "0"}, "ellipsis_mask": {"i": "0"}, "new_axis_mask": {"i": "0"}, "end_mask": {"i": "0"}}}, {"name": "Postprocessor/BatchMultiClassNonMaxSuppression/map/TensorArrayUnstack_3/range", "op": "Range", "input": ["Postprocessor/BatchMultiClassNonMaxSuppression/map/TensorArrayStack/range/start", "Postprocessor/BatchMultiClassNonMaxSuppression/map/TensorArrayUnstack_3/strided_slice", "Postprocessor/BatchMultiClassNonMaxSuppression/map/TensorArrayStack/range/delta"], "attr": {"Tidx": {"type": "DT_INT32"}}}, {"name": "FeatureExtractor/MobilenetV2/expanded_conv/project/BatchNorm/FusedBatchNorm", "op": "_FusedConv2D", "input": ["FeatureExtractor/MobilenetV2/expanded_conv/depthwise/depthwise", "FeatureExtractor/MobilenetV2/expanded_conv/project/Conv2D_weights", "FeatureExtractor/MobilenetV2/expanded_conv/project/Conv2D_bn_offset"], "device": "/device:CPU:0", "attr": {"dilations": {"list": {"i": ["1", "1", "1", "1"]}}, "T": {"type": "DT_FLOAT"}, "data_format": {"s": "TkhXQw=="}, "strides": {"list": {"i": ["1", "1", "1", "1"]}}, "explicit_paddings": {"list": {}}, "use_cudnn_on_gpu": {"b": true}, "num_args": {"i": "1"}, "epsilon": {"f": 0.0}, "padding": {"s": "U0FNRQ=="}, "fused_ops": {"list": {"s": ["Qmlhc0FkZA=="]}}}}, {"name": "FeatureExtractor/MobilenetV2/expanded_conv_1/expand/Relu6", "op": "_FusedConv2D", "input": ["FeatureExtractor/MobilenetV2/expanded_conv/project/BatchNorm/FusedBatchNorm", "FeatureExtractor/MobilenetV2/expanded_conv_1/expand/Conv2D_weights", "FeatureExtractor/MobilenetV2/expanded_conv_1/expand/Conv2D_bn_offset"], "device": "/device:CPU:0", "attr": {"dilations": {"list": {"i": ["1", "1", "1", "1"]}}, "T": {"type": "DT_FLOAT"}, "data_format": {"s": "TkhXQw=="}, "strides": {"list": {"i": ["1", "1", "1", "1"]}}, "explicit_paddings": {"list": {}}, "use_cudnn_on_gpu": {"b": true}, "num_args": {"i": "1"}, "epsilon": {"f": 0.0}, "padding": {"s": "U0FNRQ=="}, "fused_ops": {"list": {"s": ["Qmlhc0FkZA==", "UmVsdTY="]}}}}, {"name": "FeatureExtractor/MobilenetV2/expanded_conv_1/depthwise/depthwise", "op": "FusedDepthwiseConv2dNative", "input": ["FeatureExtractor/MobilenetV2/expanded_conv_1/expand/Relu6", "FeatureExtractor/MobilenetV2/expanded_conv_1/depthwise/depthwise_weights", "FeatureExtractor/MobilenetV2/expanded_conv_1/depthwise/depthwise_bn_offset"], "attr": {"dilations": {"list": {"i": ["1", "1", "1", "1"]}}, "T": {"type": "DT_FLOAT"}, "strides": {"list": {"i": ["1", "2", "2", "1"]}}, "data_format": {"s": "TkhXQw=="}, "num_args": {"i": "1"}, "padding": {"s": "U0FNRQ=="}, "fused_ops": {"list": {"s": ["Qmlhc0FkZA==", "UmVsdTY="]}}}}, {"name": "FeatureExtractor/MobilenetV2/expanded_conv_1/project/BatchNorm/FusedBatchNorm", "op": "_FusedConv2D", "input": ["FeatureExtractor/MobilenetV2/expanded_conv_1/depthwise/depthwise", "FeatureExtractor/MobilenetV2/expanded_conv_1/project/Conv2D_weights", "FeatureExtractor/MobilenetV2/expanded_conv_1/project/Conv2D_bn_offset"], "device": "/device:CPU:0", "attr": {"dilations": {"list": {"i": ["1", "1", "1", "1"]}}, "T": {"type": "DT_FLOAT"}, "data_format": {"s": "TkhXQw=="}, "strides": {"list": {"i": ["1", "1", "1", "1"]}}, "explicit_paddings": {"list": {}}, "use_cudnn_on_gpu": {"b": true}, "num_args": {"i": "1"}, "epsilon": {"f": 0.0}, "padding": {"s": "U0FNRQ=="}, "fused_ops": {"list": {"s": ["Qmlhc0FkZA=="]}}}}, {"name": "FeatureExtractor/MobilenetV2/expanded_conv_2/expand/Relu6", "op": "_FusedConv2D", "input": ["FeatureExtractor/MobilenetV2/expanded_conv_1/project/BatchNorm/FusedBatchNorm", "FeatureExtractor/MobilenetV2/expanded_conv_2/expand/Conv2D_weights", "FeatureExtractor/MobilenetV2/expanded_conv_2/expand/Conv2D_bn_offset"], "device": "/device:CPU:0", "attr": {"dilations": {"list": {"i": ["1", "1", "1", "1"]}}, "T": {"type": "DT_FLOAT"}, "data_format": {"s": "TkhXQw=="}, "strides": {"list": {"i": ["1", "1", "1", "1"]}}, "explicit_paddings": {"list": {}}, "use_cudnn_on_gpu": {"b": true}, "num_args": {"i": "1"}, "epsilon": {"f": 0.0}, "padding": {"s": "U0FNRQ=="}, "fused_ops": {"list": {"s": ["Qmlhc0FkZA==", "UmVsdTY="]}}}}, {"name": "FeatureExtractor/MobilenetV2/expanded_conv_2/depthwise/depthwise", "op": "FusedDepthwiseConv2dNative", "input": ["FeatureExtractor/MobilenetV2/expanded_conv_2/expand/Relu6", "FeatureExtractor/MobilenetV2/expanded_conv_2/depthwise/depthwise_weights", "FeatureExtractor/MobilenetV2/expanded_conv_2/depthwise/depthwise_bn_offset"], "attr": {"dilations": {"list": {"i": ["1", "1", "1", "1"]}}, "T": {"type": "DT_FLOAT"}, "strides": {"list": {"i": ["1", "1", "1", "1"]}}, "data_format": {"s": "TkhXQw=="}, "num_args": {"i": "1"}, "padding": {"s": "U0FNRQ=="}, "fused_ops": {"list": {"s": ["Qmlhc0FkZA==", "UmVsdTY="]}}}}, {"name": "FeatureExtractor/MobilenetV2/expanded_conv_2/project/BatchNorm/FusedBatchNorm", "op": "_FusedConv2D", "input": ["FeatureExtractor/MobilenetV2/expanded_conv_2/depthwise/depthwise", "FeatureExtractor/MobilenetV2/expanded_conv_2/project/Conv2D_weights", "FeatureExtractor/MobilenetV2/expanded_conv_2/project/Conv2D_bn_offset"], "device": "/device:CPU:0", "attr": {"dilations": {"list": {"i": ["1", "1", "1", "1"]}}, "T": {"type": "DT_FLOAT"}, "data_format": {"s": "TkhXQw=="}, "strides": {"list": {"i": ["1", "1", "1", "1"]}}, "explicit_paddings": {"list": {}}, "use_cudnn_on_gpu": {"b": true}, "num_args": {"i": "1"}, "epsilon": {"f": 0.0}, "padding": {"s": "U0FNRQ=="}, "fused_ops": {"list": {"s": ["Qmlhc0FkZA=="]}}}}, {"name": "FeatureExtractor/MobilenetV2/expanded_conv_2/add", "op": "Add", "input": ["FeatureExtractor/MobilenetV2/expanded_conv_1/project/BatchNorm/FusedBatchNorm", "FeatureExtractor/MobilenetV2/expanded_conv_2/project/BatchNorm/FusedBatchNorm"], "attr": {"T": {"type": "DT_FLOAT"}}}, {"name": "FeatureExtractor/MobilenetV2/expanded_conv_3/expand/Relu6", "op": "_FusedConv2D", "input": ["FeatureExtractor/MobilenetV2/expanded_conv_2/add", "FeatureExtractor/MobilenetV2/expanded_conv_3/expand/Conv2D_weights", "FeatureExtractor/MobilenetV2/expanded_conv_3/expand/Conv2D_bn_offset"], "device": "/device:CPU:0", "attr": {"dilations": {"list": {"i": ["1", "1", "1", "1"]}}, "T": {"type": "DT_FLOAT"}, "data_format": {"s": "TkhXQw=="}, "strides": {"list": {"i": ["1", "1", "1", "1"]}}, "explicit_paddings": {"list": {}}, "use_cudnn_on_gpu": {"b": true}, "num_args": {"i": "1"}, "epsilon": {"f": 0.0}, "padding": {"s": "U0FNRQ=="}, "fused_ops": {"list": {"s": ["Qmlhc0FkZA==", "UmVsdTY="]}}}}, {"name": "FeatureExtractor/MobilenetV2/expanded_conv_3/depthwise/depthwise", "op": "FusedDepthwiseConv2dNative", "input": ["FeatureExtractor/MobilenetV2/expanded_conv_3/expand/Relu6", "FeatureExtractor/MobilenetV2/expanded_conv_3/depthwise/depthwise_weights", "FeatureExtractor/MobilenetV2/expanded_conv_3/depthwise/depthwise_bn_offset"], "attr": {"dilations": {"list": {"i": ["1", "1", "1", "1"]}}, "T": {"type": "DT_FLOAT"}, "data_format": {"s": "TkhXQw=="}, "strides": {"list": {"i": ["1", "2", "2", "1"]}}, "num_args": {"i": "1"}, "padding": {"s": "U0FNRQ=="}, "fused_ops": {"list": {"s": ["Qmlhc0FkZA==", "UmVsdTY="]}}}}, {"name": "FeatureExtractor/MobilenetV2/expanded_conv_3/project/BatchNorm/FusedBatchNorm", "op": "_FusedConv2D", "input": ["FeatureExtractor/MobilenetV2/expanded_conv_3/depthwise/depthwise", "FeatureExtractor/MobilenetV2/expanded_conv_3/project/Conv2D_weights", "FeatureExtractor/MobilenetV2/expanded_conv_3/project/Conv2D_bn_offset"], "device": "/device:CPU:0", "attr": {"dilations": {"list": {"i": ["1", "1", "1", "1"]}}, "T": {"type": "DT_FLOAT"}, "data_format": {"s": "TkhXQw=="}, "strides": {"list": {"i": ["1", "1", "1", "1"]}}, "explicit_paddings": {"list": {}}, "use_cudnn_on_gpu": {"b": true}, "num_args": {"i": "1"}, "epsilon": {"f": 0.0}, "padding": {"s": "U0FNRQ=="}, "fused_ops": {"list": {"s": ["Qmlhc0FkZA=="]}}}}, {"name": "FeatureExtractor/MobilenetV2/expanded_conv_4/expand/Relu6", "op": "_FusedConv2D", "input": ["FeatureExtractor/MobilenetV2/expanded_conv_3/project/BatchNorm/FusedBatchNorm", "FeatureExtractor/MobilenetV2/expanded_conv_4/expand/Conv2D_weights", "FeatureExtractor/MobilenetV2/expanded_conv_4/expand/Conv2D_bn_offset"], "device": "/device:CPU:0", "attr": {"dilations": {"list": {"i": ["1", "1", "1", "1"]}}, "T": {"type": "DT_FLOAT"}, "data_format": {"s": "TkhXQw=="}, "strides": {"list": {"i": ["1", "1", "1", "1"]}}, "explicit_paddings": {"list": {}}, "use_cudnn_on_gpu": {"b": true}, "num_args": {"i": "1"}, "epsilon": {"f": 0.0}, "padding": {"s": "U0FNRQ=="}, "fused_ops": {"list": {"s": ["Qmlhc0FkZA==", "UmVsdTY="]}}}}, {"name": "FeatureExtractor/MobilenetV2/expanded_conv_4/depthwise/depthwise", "op": "FusedDepthwiseConv2dNative", "input": ["FeatureExtractor/MobilenetV2/expanded_conv_4/expand/Relu6", "FeatureExtractor/MobilenetV2/expanded_conv_4/depthwise/depthwise_weights", "FeatureExtractor/MobilenetV2/expanded_conv_4/depthwise/depthwise_bn_offset"], "attr": {"dilations": {"list": {"i": ["1", "1", "1", "1"]}}, "T": {"type": "DT_FLOAT"}, "data_format": {"s": "TkhXQw=="}, "strides": {"list": {"i": ["1", "1", "1", "1"]}}, "num_args": {"i": "1"}, "padding": {"s": "U0FNRQ=="}, "fused_ops": {"list": {"s": ["Qmlhc0FkZA==", "UmVsdTY="]}}}}, {"name": "FeatureExtractor/MobilenetV2/expanded_conv_4/project/BatchNorm/FusedBatchNorm", "op": "_FusedConv2D", "input": ["FeatureExtractor/MobilenetV2/expanded_conv_4/depthwise/depthwise", "FeatureExtractor/MobilenetV2/expanded_conv_4/project/Conv2D_weights", "FeatureExtractor/MobilenetV2/expanded_conv_4/project/Conv2D_bn_offset"], "device": "/device:CPU:0", "attr": {"dilations": {"list": {"i": ["1", "1", "1", "1"]}}, "T": {"type": "DT_FLOAT"}, "data_format": {"s": "TkhXQw=="}, "strides": {"list": {"i": ["1", "1", "1", "1"]}}, "explicit_paddings": {"list": {}}, "use_cudnn_on_gpu": {"b": true}, "num_args": {"i": "1"}, "epsilon": {"f": 0.0}, "padding": {"s": "U0FNRQ=="}, "fused_ops": {"list": {"s": ["Qmlhc0FkZA=="]}}}}, {"name": "FeatureExtractor/MobilenetV2/expanded_conv_4/add", "op": "Add", "input": ["FeatureExtractor/MobilenetV2/expanded_conv_3/project/BatchNorm/FusedBatchNorm", "FeatureExtractor/MobilenetV2/expanded_conv_4/project/BatchNorm/FusedBatchNorm"], "attr": {"T": {"type": "DT_FLOAT"}}}, {"name": "FeatureExtractor/MobilenetV2/expanded_conv_5/expand/Relu6", "op": "_FusedConv2D", "input": ["FeatureExtractor/MobilenetV2/expanded_conv_4/add", "FeatureExtractor/MobilenetV2/expanded_conv_5/expand/Conv2D_weights", "FeatureExtractor/MobilenetV2/expanded_conv_5/expand/Conv2D_bn_offset"], "device": "/device:CPU:0", "attr": {"dilations": {"list": {"i": ["1", "1", "1", "1"]}}, "T": {"type": "DT_FLOAT"}, "data_format": {"s": "TkhXQw=="}, "strides": {"list": {"i": ["1", "1", "1", "1"]}}, "explicit_paddings": {"list": {}}, "use_cudnn_on_gpu": {"b": true}, "num_args": {"i": "1"}, "epsilon": {"f": 0.0}, "padding": {"s": "U0FNRQ=="}, "fused_ops": {"list": {"s": ["Qmlhc0FkZA==", "UmVsdTY="]}}}}, {"name": "FeatureExtractor/MobilenetV2/expanded_conv_5/depthwise/depthwise", "op": "FusedDepthwiseConv2dNative", "input": ["FeatureExtractor/MobilenetV2/expanded_conv_5/expand/Relu6", "FeatureExtractor/MobilenetV2/expanded_conv_5/depthwise/depthwise_weights", "FeatureExtractor/MobilenetV2/expanded_conv_5/depthwise/depthwise_bn_offset"], "attr": {"dilations": {"list": {"i": ["1", "1", "1", "1"]}}, "T": {"type": "DT_FLOAT"}, "strides": {"list": {"i": ["1", "1", "1", "1"]}}, "data_format": {"s": "TkhXQw=="}, "num_args": {"i": "1"}, "padding": {"s": "U0FNRQ=="}, "fused_ops": {"list": {"s": ["Qmlhc0FkZA==", "UmVsdTY="]}}}}, {"name": "FeatureExtractor/MobilenetV2/expanded_conv_5/project/BatchNorm/FusedBatchNorm", "op": "_FusedConv2D", "input": ["FeatureExtractor/MobilenetV2/expanded_conv_5/depthwise/depthwise", "FeatureExtractor/MobilenetV2/expanded_conv_5/project/Conv2D_weights", "FeatureExtractor/MobilenetV2/expanded_conv_5/project/Conv2D_bn_offset"], "device": "/device:CPU:0", "attr": {"dilations": {"list": {"i": ["1", "1", "1", "1"]}}, "T": {"type": "DT_FLOAT"}, "data_format": {"s": "TkhXQw=="}, "strides": {"list": {"i": ["1", "1", "1", "1"]}}, "explicit_paddings": {"list": {}}, "use_cudnn_on_gpu": {"b": true}, "num_args": {"i": "1"}, "epsilon": {"f": 0.0}, "padding": {"s": "U0FNRQ=="}, "fused_ops": {"list": {"s": ["Qmlhc0FkZA=="]}}}}, {"name": "FeatureExtractor/MobilenetV2/expanded_conv_5/add", "op": "Add", "input": ["FeatureExtractor/MobilenetV2/expanded_conv_4/add", "FeatureExtractor/MobilenetV2/expanded_conv_5/project/BatchNorm/FusedBatchNorm"], "attr": {"T": {"type": "DT_FLOAT"}}}, {"name": "FeatureExtractor/MobilenetV2/expanded_conv_6/expand/Relu6", "op": "_FusedConv2D", "input": ["FeatureExtractor/MobilenetV2/expanded_conv_5/add", "FeatureExtractor/MobilenetV2/expanded_conv_6/expand/Conv2D_weights", "FeatureExtractor/MobilenetV2/expanded_conv_6/expand/Conv2D_bn_offset"], "device": "/device:CPU:0", "attr": {"dilations": {"list": {"i": ["1", "1", "1", "1"]}}, "T": {"type": "DT_FLOAT"}, "data_format": {"s": "TkhXQw=="}, "strides": {"list": {"i": ["1", "1", "1", "1"]}}, "explicit_paddings": {"list": {}}, "use_cudnn_on_gpu": {"b": true}, "num_args": {"i": "1"}, "epsilon": {"f": 0.0}, "padding": {"s": "U0FNRQ=="}, "fused_ops": {"list": {"s": ["Qmlhc0FkZA==", "UmVsdTY="]}}}}, {"name": "FeatureExtractor/MobilenetV2/expanded_conv_6/depthwise/depthwise", "op": "FusedDepthwiseConv2dNative", "input": ["FeatureExtractor/MobilenetV2/expanded_conv_6/expand/Relu6", "FeatureExtractor/MobilenetV2/expanded_conv_6/depthwise/depthwise_weights", "FeatureExtractor/MobilenetV2/expanded_conv_6/depthwise/depthwise_bn_offset"], "attr": {"dilations": {"list": {"i": ["1", "1", "1", "1"]}}, "T": {"type": "DT_FLOAT"}, "data_format": {"s": "TkhXQw=="}, "strides": {"list": {"i": ["1", "2", "2", "1"]}}, "num_args": {"i": "1"}, "padding": {"s": "U0FNRQ=="}, "fused_ops": {"list": {"s": ["Qmlhc0FkZA==", "UmVsdTY="]}}}}, {"name": "FeatureExtractor/MobilenetV2/expanded_conv_6/project/BatchNorm/FusedBatchNorm", "op": "_FusedConv2D", "input": ["FeatureExtractor/MobilenetV2/expanded_conv_6/depthwise/depthwise", "FeatureExtractor/MobilenetV2/expanded_conv_6/project/Conv2D_weights", "FeatureExtractor/MobilenetV2/expanded_conv_6/project/Conv2D_bn_offset"], "device": "/device:CPU:0", "attr": {"dilations": {"list": {"i": ["1", "1", "1", "1"]}}, "T": {"type": "DT_FLOAT"}, "data_format": {"s": "TkhXQw=="}, "strides": {"list": {"i": ["1", "1", "1", "1"]}}, "explicit_paddings": {"list": {}}, "use_cudnn_on_gpu": {"b": true}, "num_args": {"i": "1"}, "epsilon": {"f": 0.0}, "padding": {"s": "U0FNRQ=="}, "fused_ops": {"list": {"s": ["Qmlhc0FkZA=="]}}}}, {"name": "FeatureExtractor/MobilenetV2/expanded_conv_7/expand/Relu6", "op": "_FusedConv2D", "input": ["FeatureExtractor/MobilenetV2/expanded_conv_6/project/BatchNorm/FusedBatchNorm", "FeatureExtractor/MobilenetV2/expanded_conv_7/expand/Conv2D_weights", "FeatureExtractor/MobilenetV2/expanded_conv_7/expand/Conv2D_bn_offset"], "device": "/device:CPU:0", "attr": {"dilations": {"list": {"i": ["1", "1", "1", "1"]}}, "T": {"type": "DT_FLOAT"}, "data_format": {"s": "TkhXQw=="}, "strides": {"list": {"i": ["1", "1", "1", "1"]}}, "explicit_paddings": {"list": {}}, "use_cudnn_on_gpu": {"b": true}, "num_args": {"i": "1"}, "epsilon": {"f": 0.0}, "padding": {"s": "U0FNRQ=="}, "fused_ops": {"list": {"s": ["Qmlhc0FkZA==", "UmVsdTY="]}}}}, {"name": "FeatureExtractor/MobilenetV2/expanded_conv_7/depthwise/depthwise", "op": "FusedDepthwiseConv2dNative", "input": ["FeatureExtractor/MobilenetV2/expanded_conv_7/expand/Relu6", "FeatureExtractor/MobilenetV2/expanded_conv_7/depthwise/depthwise_weights", "FeatureExtractor/MobilenetV2/expanded_conv_7/depthwise/depthwise_bn_offset"], "attr": {"dilations": {"list": {"i": ["1", "1", "1", "1"]}}, "T": {"type": "DT_FLOAT"}, "strides": {"list": {"i": ["1", "1", "1", "1"]}}, "data_format": {"s": "TkhXQw=="}, "num_args": {"i": "1"}, "padding": {"s": "U0FNRQ=="}, "fused_ops": {"list": {"s": ["Qmlhc0FkZA==", "UmVsdTY="]}}}}, {"name": "FeatureExtractor/MobilenetV2/expanded_conv_7/project/BatchNorm/FusedBatchNorm", "op": "_FusedConv2D", "input": ["FeatureExtractor/MobilenetV2/expanded_conv_7/depthwise/depthwise", "FeatureExtractor/MobilenetV2/expanded_conv_7/project/Conv2D_weights", "FeatureExtractor/MobilenetV2/expanded_conv_7/project/Conv2D_bn_offset"], "device": "/device:CPU:0", "attr": {"dilations": {"list": {"i": ["1", "1", "1", "1"]}}, "T": {"type": "DT_FLOAT"}, "data_format": {"s": "TkhXQw=="}, "strides": {"list": {"i": ["1", "1", "1", "1"]}}, "explicit_paddings": {"list": {}}, "use_cudnn_on_gpu": {"b": true}, "num_args": {"i": "1"}, "epsilon": {"f": 0.0}, "padding": {"s": "U0FNRQ=="}, "fused_ops": {"list": {"s": ["Qmlhc0FkZA=="]}}}}, {"name": "FeatureExtractor/MobilenetV2/expanded_conv_7/add", "op": "Add", "input": ["FeatureExtractor/MobilenetV2/expanded_conv_6/project/BatchNorm/FusedBatchNorm", "FeatureExtractor/MobilenetV2/expanded_conv_7/project/BatchNorm/FusedBatchNorm"], "attr": {"T": {"type": "DT_FLOAT"}}}, {"name": "FeatureExtractor/MobilenetV2/expanded_conv_8/expand/Relu6", "op": "_FusedConv2D", "input": ["FeatureExtractor/MobilenetV2/expanded_conv_7/add", "FeatureExtractor/MobilenetV2/expanded_conv_8/expand/Conv2D_weights", "FeatureExtractor/MobilenetV2/expanded_conv_8/expand/Conv2D_bn_offset"], "device": "/device:CPU:0", "attr": {"dilations": {"list": {"i": ["1", "1", "1", "1"]}}, "T": {"type": "DT_FLOAT"}, "data_format": {"s": "TkhXQw=="}, "strides": {"list": {"i": ["1", "1", "1", "1"]}}, "explicit_paddings": {"list": {}}, "use_cudnn_on_gpu": {"b": true}, "num_args": {"i": "1"}, "epsilon": {"f": 0.0}, "padding": {"s": "U0FNRQ=="}, "fused_ops": {"list": {"s": ["Qmlhc0FkZA==", "UmVsdTY="]}}}}, {"name": "FeatureExtractor/MobilenetV2/expanded_conv_8/depthwise/depthwise", "op": "FusedDepthwiseConv2dNative", "input": ["FeatureExtractor/MobilenetV2/expanded_conv_8/expand/Relu6", "FeatureExtractor/MobilenetV2/expanded_conv_8/depthwise/depthwise_weights", "FeatureExtractor/MobilenetV2/expanded_conv_8/depthwise/depthwise_bn_offset"], "attr": {"dilations": {"list": {"i": ["1", "1", "1", "1"]}}, "T": {"type": "DT_FLOAT"}, "data_format": {"s": "TkhXQw=="}, "strides": {"list": {"i": ["1", "1", "1", "1"]}}, "num_args": {"i": "1"}, "padding": {"s": "U0FNRQ=="}, "fused_ops": {"list": {"s": ["Qmlhc0FkZA==", "UmVsdTY="]}}}}, {"name": "FeatureExtractor/MobilenetV2/expanded_conv_8/project/BatchNorm/FusedBatchNorm", "op": "_FusedConv2D", "input": ["FeatureExtractor/MobilenetV2/expanded_conv_8/depthwise/depthwise", "FeatureExtractor/MobilenetV2/expanded_conv_8/project/Conv2D_weights", "FeatureExtractor/MobilenetV2/expanded_conv_8/project/Conv2D_bn_offset"], "device": "/device:CPU:0", "attr": {"dilations": {"list": {"i": ["1", "1", "1", "1"]}}, "T": {"type": "DT_FLOAT"}, "data_format": {"s": "TkhXQw=="}, "strides": {"list": {"i": ["1", "1", "1", "1"]}}, "explicit_paddings": {"list": {}}, "use_cudnn_on_gpu": {"b": true}, "num_args": {"i": "1"}, "epsilon": {"f": 0.0}, "padding": {"s": "U0FNRQ=="}, "fused_ops": {"list": {"s": ["Qmlhc0FkZA=="]}}}}, {"name": "FeatureExtractor/MobilenetV2/expanded_conv_8/add", "op": "Add", "input": ["FeatureExtractor/MobilenetV2/expanded_conv_7/add", "FeatureExtractor/MobilenetV2/expanded_conv_8/project/BatchNorm/FusedBatchNorm"], "attr": {"T": {"type": "DT_FLOAT"}}}, {"name": "FeatureExtractor/MobilenetV2/expanded_conv_9/expand/Relu6", "op": "_FusedConv2D", "input": ["FeatureExtractor/MobilenetV2/expanded_conv_8/add", "FeatureExtractor/MobilenetV2/expanded_conv_9/expand/Conv2D_weights", "FeatureExtractor/MobilenetV2/expanded_conv_9/expand/Conv2D_bn_offset"], "device": "/device:CPU:0", "attr": {"dilations": {"list": {"i": ["1", "1", "1", "1"]}}, "T": {"type": "DT_FLOAT"}, "data_format": {"s": "TkhXQw=="}, "strides": {"list": {"i": ["1", "1", "1", "1"]}}, "explicit_paddings": {"list": {}}, "use_cudnn_on_gpu": {"b": true}, "num_args": {"i": "1"}, "epsilon": {"f": 0.0}, "padding": {"s": "U0FNRQ=="}, "fused_ops": {"list": {"s": ["Qmlhc0FkZA==", "UmVsdTY="]}}}}, {"name": "FeatureExtractor/MobilenetV2/expanded_conv_9/depthwise/depthwise", "op": "FusedDepthwiseConv2dNative", "input": ["FeatureExtractor/MobilenetV2/expanded_conv_9/expand/Relu6", "FeatureExtractor/MobilenetV2/expanded_conv_9/depthwise/depthwise_weights", "FeatureExtractor/MobilenetV2/expanded_conv_9/depthwise/depthwise_bn_offset"], "attr": {"dilations": {"list": {"i": ["1", "1", "1", "1"]}}, "T": {"type": "DT_FLOAT"}, "data_format": {"s": "TkhXQw=="}, "strides": {"list": {"i": ["1", "1", "1", "1"]}}, "num_args": {"i": "1"}, "padding": {"s": "U0FNRQ=="}, "fused_ops": {"list": {"s": ["Qmlhc0FkZA==", "UmVsdTY="]}}}}, {"name": "FeatureExtractor/MobilenetV2/expanded_conv_9/project/BatchNorm/FusedBatchNorm", "op": "_FusedConv2D", "input": ["FeatureExtractor/MobilenetV2/expanded_conv_9/depthwise/depthwise", "FeatureExtractor/MobilenetV2/expanded_conv_9/project/Conv2D_weights", "FeatureExtractor/MobilenetV2/expanded_conv_9/project/Conv2D_bn_offset"], "device": "/device:CPU:0", "attr": {"dilations": {"list": {"i": ["1", "1", "1", "1"]}}, "T": {"type": "DT_FLOAT"}, "data_format": {"s": "TkhXQw=="}, "strides": {"list": {"i": ["1", "1", "1", "1"]}}, "explicit_paddings": {"list": {}}, "use_cudnn_on_gpu": {"b": true}, "num_args": {"i": "1"}, "epsilon": {"f": 0.0}, "padding": {"s": "U0FNRQ=="}, "fused_ops": {"list": {"s": ["Qmlhc0FkZA=="]}}}}, {"name": "FeatureExtractor/MobilenetV2/expanded_conv_9/add", "op": "Add", "input": ["FeatureExtractor/MobilenetV2/expanded_conv_8/add", "FeatureExtractor/MobilenetV2/expanded_conv_9/project/BatchNorm/FusedBatchNorm"], "attr": {"T": {"type": "DT_FLOAT"}}}, {"name": "FeatureExtractor/MobilenetV2/expanded_conv_10/expand/Relu6", "op": "_FusedConv2D", "input": ["FeatureExtractor/MobilenetV2/expanded_conv_9/add", "FeatureExtractor/MobilenetV2/expanded_conv_10/expand/Conv2D_weights", "FeatureExtractor/MobilenetV2/expanded_conv_10/expand/Conv2D_bn_offset"], "device": "/device:CPU:0", "attr": {"dilations": {"list": {"i": ["1", "1", "1", "1"]}}, "T": {"type": "DT_FLOAT"}, "data_format": {"s": "TkhXQw=="}, "strides": {"list": {"i": ["1", "1", "1", "1"]}}, "explicit_paddings": {"list": {}}, "use_cudnn_on_gpu": {"b": true}, "num_args": {"i": "1"}, "epsilon": {"f": 0.0}, "padding": {"s": "U0FNRQ=="}, "fused_ops": {"list": {"s": ["Qmlhc0FkZA==", "UmVsdTY="]}}}}, {"name": "FeatureExtractor/MobilenetV2/expanded_conv_10/depthwise/depthwise", "op": "FusedDepthwiseConv2dNative", "input": ["FeatureExtractor/MobilenetV2/expanded_conv_10/expand/Relu6", "FeatureExtractor/MobilenetV2/expanded_conv_10/depthwise/depthwise_weights", "FeatureExtractor/MobilenetV2/expanded_conv_10/depthwise/depthwise_bn_offset"], "attr": {"dilations": {"list": {"i": ["1", "1", "1", "1"]}}, "T": {"type": "DT_FLOAT"}, "strides": {"list": {"i": ["1", "1", "1", "1"]}}, "data_format": {"s": "TkhXQw=="}, "num_args": {"i": "1"}, "padding": {"s": "U0FNRQ=="}, "fused_ops": {"list": {"s": ["Qmlhc0FkZA==", "UmVsdTY="]}}}}, {"name": "FeatureExtractor/MobilenetV2/expanded_conv_10/project/BatchNorm/FusedBatchNorm", "op": "_FusedConv2D", "input": ["FeatureExtractor/MobilenetV2/expanded_conv_10/depthwise/depthwise", "FeatureExtractor/MobilenetV2/expanded_conv_10/project/Conv2D_weights", "FeatureExtractor/MobilenetV2/expanded_conv_10/project/Conv2D_bn_offset"], "device": "/device:CPU:0", "attr": {"dilations": {"list": {"i": ["1", "1", "1", "1"]}}, "T": {"type": "DT_FLOAT"}, "data_format": {"s": "TkhXQw=="}, "strides": {"list": {"i": ["1", "1", "1", "1"]}}, "explicit_paddings": {"list": {}}, "use_cudnn_on_gpu": {"b": true}, "num_args": {"i": "1"}, "epsilon": {"f": 0.0}, "padding": {"s": "U0FNRQ=="}, "fused_ops": {"list": {"s": ["Qmlhc0FkZA=="]}}}}, {"name": "FeatureExtractor/MobilenetV2/expanded_conv_11/expand/Relu6", "op": "_FusedConv2D", "input": ["FeatureExtractor/MobilenetV2/expanded_conv_10/project/BatchNorm/FusedBatchNorm", "FeatureExtractor/MobilenetV2/expanded_conv_11/expand/Conv2D_weights", "FeatureExtractor/MobilenetV2/expanded_conv_11/expand/Conv2D_bn_offset"], "device": "/device:CPU:0", "attr": {"dilations": {"list": {"i": ["1", "1", "1", "1"]}}, "T": {"type": "DT_FLOAT"}, "data_format": {"s": "TkhXQw=="}, "strides": {"list": {"i": ["1", "1", "1", "1"]}}, "explicit_paddings": {"list": {}}, "use_cudnn_on_gpu": {"b": true}, "num_args": {"i": "1"}, "epsilon": {"f": 0.0}, "padding": {"s": "U0FNRQ=="}, "fused_ops": {"list": {"s": ["Qmlhc0FkZA==", "UmVsdTY="]}}}}, {"name": "FeatureExtractor/MobilenetV2/expanded_conv_11/depthwise/depthwise", "op": "FusedDepthwiseConv2dNative", "input": ["FeatureExtractor/MobilenetV2/expanded_conv_11/expand/Relu6", "FeatureExtractor/MobilenetV2/expanded_conv_11/depthwise/depthwise_weights", "FeatureExtractor/MobilenetV2/expanded_conv_11/depthwise/depthwise_bn_offset"], "attr": {"dilations": {"list": {"i": ["1", "1", "1", "1"]}}, "T": {"type": "DT_FLOAT"}, "data_format": {"s": "TkhXQw=="}, "strides": {"list": {"i": ["1", "1", "1", "1"]}}, "num_args": {"i": "1"}, "padding": {"s": "U0FNRQ=="}, "fused_ops": {"list": {"s": ["Qmlhc0FkZA==", "UmVsdTY="]}}}}, {"name": "FeatureExtractor/MobilenetV2/expanded_conv_11/project/BatchNorm/FusedBatchNorm", "op": "_FusedConv2D", "input": ["FeatureExtractor/MobilenetV2/expanded_conv_11/depthwise/depthwise", "FeatureExtractor/MobilenetV2/expanded_conv_11/project/Conv2D_weights", "FeatureExtractor/MobilenetV2/expanded_conv_11/project/Conv2D_bn_offset"], "device": "/device:CPU:0", "attr": {"dilations": {"list": {"i": ["1", "1", "1", "1"]}}, "T": {"type": "DT_FLOAT"}, "data_format": {"s": "TkhXQw=="}, "strides": {"list": {"i": ["1", "1", "1", "1"]}}, "explicit_paddings": {"list": {}}, "use_cudnn_on_gpu": {"b": true}, "num_args": {"i": "1"}, "epsilon": {"f": 0.0}, "padding": {"s": "U0FNRQ=="}, "fused_ops": {"list": {"s": ["Qmlhc0FkZA=="]}}}}, {"name": "FeatureExtractor/MobilenetV2/expanded_conv_11/add", "op": "Add", "input": ["FeatureExtractor/MobilenetV2/expanded_conv_10/project/BatchNorm/FusedBatchNorm", "FeatureExtractor/MobilenetV2/expanded_conv_11/project/BatchNorm/FusedBatchNorm"], "attr": {"T": {"type": "DT_FLOAT"}}}, {"name": "FeatureExtractor/MobilenetV2/expanded_conv_12/expand/Relu6", "op": "_FusedConv2D", "input": ["FeatureExtractor/MobilenetV2/expanded_conv_11/add", "FeatureExtractor/MobilenetV2/expanded_conv_12/expand/Conv2D_weights", "FeatureExtractor/MobilenetV2/expanded_conv_12/expand/Conv2D_bn_offset"], "device": "/device:CPU:0", "attr": {"dilations": {"list": {"i": ["1", "1", "1", "1"]}}, "T": {"type": "DT_FLOAT"}, "data_format": {"s": "TkhXQw=="}, "strides": {"list": {"i": ["1", "1", "1", "1"]}}, "explicit_paddings": {"list": {}}, "use_cudnn_on_gpu": {"b": true}, "num_args": {"i": "1"}, "epsilon": {"f": 0.0}, "padding": {"s": "U0FNRQ=="}, "fused_ops": {"list": {"s": ["Qmlhc0FkZA==", "UmVsdTY="]}}}}, {"name": "FeatureExtractor/MobilenetV2/expanded_conv_12/depthwise/depthwise", "op": "FusedDepthwiseConv2dNative", "input": ["FeatureExtractor/MobilenetV2/expanded_conv_12/expand/Relu6", "FeatureExtractor/MobilenetV2/expanded_conv_12/depthwise/depthwise_weights", "FeatureExtractor/MobilenetV2/expanded_conv_12/depthwise/depthwise_bn_offset"], "attr": {"dilations": {"list": {"i": ["1", "1", "1", "1"]}}, "T": {"type": "DT_FLOAT"}, "data_format": {"s": "TkhXQw=="}, "strides": {"list": {"i": ["1", "1", "1", "1"]}}, "num_args": {"i": "1"}, "padding": {"s": "U0FNRQ=="}, "fused_ops": {"list": {"s": ["Qmlhc0FkZA==", "UmVsdTY="]}}}}, {"name": "FeatureExtractor/MobilenetV2/expanded_conv_12/project/BatchNorm/FusedBatchNorm", "op": "_FusedConv2D", "input": ["FeatureExtractor/MobilenetV2/expanded_conv_12/depthwise/depthwise", "FeatureExtractor/MobilenetV2/expanded_conv_12/project/Conv2D_weights", "FeatureExtractor/MobilenetV2/expanded_conv_12/project/Conv2D_bn_offset"], "device": "/device:CPU:0", "attr": {"dilations": {"list": {"i": ["1", "1", "1", "1"]}}, "T": {"type": "DT_FLOAT"}, "data_format": {"s": "TkhXQw=="}, "strides": {"list": {"i": ["1", "1", "1", "1"]}}, "explicit_paddings": {"list": {}}, "use_cudnn_on_gpu": {"b": true}, "num_args": {"i": "1"}, "epsilon": {"f": 0.0}, "padding": {"s": "U0FNRQ=="}, "fused_ops": {"list": {"s": ["Qmlhc0FkZA=="]}}}}, {"name": "FeatureExtractor/MobilenetV2/expanded_conv_12/add", "op": "Add", "input": ["FeatureExtractor/MobilenetV2/expanded_conv_11/add", "FeatureExtractor/MobilenetV2/expanded_conv_12/project/BatchNorm/FusedBatchNorm"], "attr": {"T": {"type": "DT_FLOAT"}}}, {"name": "FeatureExtractor/MobilenetV2/expanded_conv_13/expand/Relu6", "op": "_FusedConv2D", "input": ["FeatureExtractor/MobilenetV2/expanded_conv_12/add", "FeatureExtractor/MobilenetV2/expanded_conv_13/expand/Conv2D_weights", "FeatureExtractor/MobilenetV2/expanded_conv_13/expand/Conv2D_bn_offset"], "device": "/device:CPU:0", "attr": {"dilations": {"list": {"i": ["1", "1", "1", "1"]}}, "T": {"type": "DT_FLOAT"}, "data_format": {"s": "TkhXQw=="}, "strides": {"list": {"i": ["1", "1", "1", "1"]}}, "explicit_paddings": {"list": {}}, "use_cudnn_on_gpu": {"b": true}, "num_args": {"i": "1"}, "epsilon": {"f": 0.0}, "padding": {"s": "U0FNRQ=="}, "fused_ops": {"list": {"s": ["Qmlhc0FkZA==", "UmVsdTY="]}}}}, {"name": "BoxPredictor_0/ClassPredictor/BiasAdd", "op": "_FusedConv2D", "input": ["FeatureExtractor/MobilenetV2/expanded_conv_13/expand/Relu6", "BoxPredictor_0/ClassPredictor/weights", "BoxPredictor_0/ClassPredictor/biases"], "device": "/device:CPU:0", "attr": {"dilations": {"list": {"i": ["1", "1", "1", "1"]}}, "T": {"type": "DT_FLOAT"}, "data_format": {"s": "TkhXQw=="}, "strides": {"list": {"i": ["1", "1", "1", "1"]}}, "explicit_paddings": {"list": {}}, "use_cudnn_on_gpu": {"b": true}, "num_args": {"i": "1"}, "epsilon": {"f": 0.0}, "padding": {"s": "U0FNRQ=="}, "fused_ops": {"list": {"s": ["Qmlhc0FkZA=="]}}}}, {"name": "BoxPredictor_0/BoxEncodingPredictor/BiasAdd", "op": "_FusedConv2D", "input": ["FeatureExtractor/MobilenetV2/expanded_conv_13/expand/Relu6", "BoxPredictor_0/BoxEncodingPredictor/weights", "BoxPredictor_0/BoxEncodingPredictor/biases"], "device": "/device:CPU:0", "attr": {"dilations": {"list": {"i": ["1", "1", "1", "1"]}}, "T": {"type": "DT_FLOAT"}, "data_format": {"s": "TkhXQw=="}, "strides": {"list": {"i": ["1", "1", "1", "1"]}}, "explicit_paddings": {"list": {}}, "use_cudnn_on_gpu": {"b": true}, "num_args": {"i": "1"}, "epsilon": {"f": 0.0}, "padding": {"s": "U0FNRQ=="}, "fused_ops": {"list": {"s": ["Qmlhc0FkZA=="]}}}}, {"name": "BoxPredictor_0/Shape_1", "op": "Shape", "input": ["FeatureExtractor/MobilenetV2/expanded_conv_13/expand/Relu6"], "attr": {"T": {"type": "DT_FLOAT"}, "out_type": {"type": "DT_INT32"}}}, {"name": "FeatureExtractor/MobilenetV2/expanded_conv_13/depthwise/depthwise", "op": "FusedDepthwiseConv2dNative", "input": ["FeatureExtractor/MobilenetV2/expanded_conv_13/expand/Relu6", "FeatureExtractor/MobilenetV2/expanded_conv_13/depthwise/depthwise_weights", "FeatureExtractor/MobilenetV2/expanded_conv_13/depthwise/depthwise_bn_offset"], "attr": {"dilations": {"list": {"i": ["1", "1", "1", "1"]}}, "T": {"type": "DT_FLOAT"}, "data_format": {"s": "TkhXQw=="}, "strides": {"list": {"i": ["1", "2", "2", "1"]}}, "num_args": {"i": "1"}, "padding": {"s": "U0FNRQ=="}, "fused_ops": {"list": {"s": ["Qmlhc0FkZA==", "UmVsdTY="]}}}}, {"name": "BoxPredictor_0/strided_slice_1", "op": "StridedSlice", "input": ["BoxPredictor_0/Shape_1", "Postprocessor/BatchMultiClassNonMaxSuppression/map/TensorArrayUnstack_1/strided_slice/stack", "Postprocessor/BatchMultiClassNonMaxSuppression/map/TensorArrayUnstack_1/strided_slice/stack_1", "Postprocessor/BatchMultiClassNonMaxSuppression/map/TensorArrayUnstack_1/strided_slice/stack_1"], "attr": {"T": {"type": "DT_INT32"}, "Index": {"type": "DT_INT32"}, "shrink_axis_mask": {"i": "1"}, "begin_mask": {"i": "0"}, "ellipsis_mask": {"i": "0"}, "new_axis_mask": {"i": "0"}, "end_mask": {"i": "0"}}}, {"name": "BoxPredictor_0/Reshape_1/shape", "op": "Pack", "input": ["BoxPredictor_0/strided_slice_1", "BoxPredictor_0/Reshape_1/shape/1", "BoxPredictor_0/Reshape_1/shape/2"], "attr": {"T": {"type": "DT_INT32"}, "axis": {"i": "0"}, "N": {"i": "3"}}}, {"name": "BoxPredictor_0/Reshape/shape", "op": "Pack", "input": ["BoxPredictor_0/strided_slice_1", "BoxPredictor_0/Reshape_1/shape/1", "Postprocessor/BatchMultiClassNonMaxSuppression/map/TensorArrayStack/range/delta", "BoxPredictor_0/Reshape/shape/3"], "attr": {"T": {"type": "DT_INT32"}, "axis": {"i": "0"}, "N": {"i": "4"}}}, {"name": "BoxPredictor_0/Reshape_1", "op": "Reshape", "input": ["BoxPredictor_0/ClassPredictor/BiasAdd", "BoxPredictor_0/Reshape_1/shape"], "attr": {"T": {"type": "DT_FLOAT"}, "Tshape": {"type": "DT_INT32"}}}, {"name": "BoxPredictor_0/Reshape", "op": "Reshape", "input": ["BoxPredictor_0/BoxEncodingPredictor/BiasAdd", "BoxPredictor_0/Reshape/shape"], "attr": {"T": {"type": "DT_FLOAT"}, "Tshape": {"type": "DT_INT32"}}}, {"name": "FeatureExtractor/MobilenetV2/expanded_conv_13/project/BatchNorm/FusedBatchNorm", "op": "_FusedConv2D", "input": ["FeatureExtractor/MobilenetV2/expanded_conv_13/depthwise/depthwise", "FeatureExtractor/MobilenetV2/expanded_conv_13/project/Conv2D_weights", "FeatureExtractor/MobilenetV2/expanded_conv_13/project/Conv2D_bn_offset"], "device": "/device:CPU:0", "attr": {"dilations": {"list": {"i": ["1", "1", "1", "1"]}}, "T": {"type": "DT_FLOAT"}, "data_format": {"s": "TkhXQw=="}, "strides": {"list": {"i": ["1", "1", "1", "1"]}}, "explicit_paddings": {"list": {}}, "use_cudnn_on_gpu": {"b": true}, "num_args": {"i": "1"}, "epsilon": {"f": 0.0}, "padding": {"s": "U0FNRQ=="}, "fused_ops": {"list": {"s": ["Qmlhc0FkZA=="]}}}}, {"name": "FeatureExtractor/MobilenetV2/expanded_conv_14/expand/Relu6", "op": "_FusedConv2D", "input": ["FeatureExtractor/MobilenetV2/expanded_conv_13/project/BatchNorm/FusedBatchNorm", "FeatureExtractor/MobilenetV2/expanded_conv_14/expand/Conv2D_weights", "FeatureExtractor/MobilenetV2/expanded_conv_14/expand/Conv2D_bn_offset"], "device": "/device:CPU:0", "attr": {"dilations": {"list": {"i": ["1", "1", "1", "1"]}}, "T": {"type": "DT_FLOAT"}, "data_format": {"s": "TkhXQw=="}, "strides": {"list": {"i": ["1", "1", "1", "1"]}}, "explicit_paddings": {"list": {}}, "use_cudnn_on_gpu": {"b": true}, "num_args": {"i": "1"}, "epsilon": {"f": 0.0}, "padding": {"s": "U0FNRQ=="}, "fused_ops": {"list": {"s": ["Qmlhc0FkZA==", "UmVsdTY="]}}}}, {"name": "FeatureExtractor/MobilenetV2/expanded_conv_14/depthwise/depthwise", "op": "FusedDepthwiseConv2dNative", "input": ["FeatureExtractor/MobilenetV2/expanded_conv_14/expand/Relu6", "FeatureExtractor/MobilenetV2/expanded_conv_14/depthwise/depthwise_weights", "FeatureExtractor/MobilenetV2/expanded_conv_14/depthwise/depthwise_bn_offset"], "attr": {"dilations": {"list": {"i": ["1", "1", "1", "1"]}}, "T": {"type": "DT_FLOAT"}, "strides": {"list": {"i": ["1", "1", "1", "1"]}}, "data_format": {"s": "TkhXQw=="}, "num_args": {"i": "1"}, "padding": {"s": "U0FNRQ=="}, "fused_ops": {"list": {"s": ["Qmlhc0FkZA==", "UmVsdTY="]}}}}, {"name": "FeatureExtractor/MobilenetV2/expanded_conv_14/project/BatchNorm/FusedBatchNorm", "op": "_FusedConv2D", "input": ["FeatureExtractor/MobilenetV2/expanded_conv_14/depthwise/depthwise", "FeatureExtractor/MobilenetV2/expanded_conv_14/project/Conv2D_weights", "FeatureExtractor/MobilenetV2/expanded_conv_14/project/Conv2D_bn_offset"], "device": "/device:CPU:0", "attr": {"dilations": {"list": {"i": ["1", "1", "1", "1"]}}, "T": {"type": "DT_FLOAT"}, "data_format": {"s": "TkhXQw=="}, "strides": {"list": {"i": ["1", "1", "1", "1"]}}, "explicit_paddings": {"list": {}}, "use_cudnn_on_gpu": {"b": true}, "num_args": {"i": "1"}, "epsilon": {"f": 0.0}, "padding": {"s": "U0FNRQ=="}, "fused_ops": {"list": {"s": ["Qmlhc0FkZA=="]}}}}, {"name": "FeatureExtractor/MobilenetV2/expanded_conv_14/add", "op": "Add", "input": ["FeatureExtractor/MobilenetV2/expanded_conv_13/project/BatchNorm/FusedBatchNorm", "FeatureExtractor/MobilenetV2/expanded_conv_14/project/BatchNorm/FusedBatchNorm"], "attr": {"T": {"type": "DT_FLOAT"}}}, {"name": "FeatureExtractor/MobilenetV2/expanded_conv_15/expand/Relu6", "op": "_FusedConv2D", "input": ["FeatureExtractor/MobilenetV2/expanded_conv_14/add", "FeatureExtractor/MobilenetV2/expanded_conv_15/expand/Conv2D_weights", "FeatureExtractor/MobilenetV2/expanded_conv_15/expand/Conv2D_bn_offset"], "device": "/device:CPU:0", "attr": {"dilations": {"list": {"i": ["1", "1", "1", "1"]}}, "T": {"type": "DT_FLOAT"}, "data_format": {"s": "TkhXQw=="}, "strides": {"list": {"i": ["1", "1", "1", "1"]}}, "explicit_paddings": {"list": {}}, "use_cudnn_on_gpu": {"b": true}, "num_args": {"i": "1"}, "epsilon": {"f": 0.0}, "padding": {"s": "U0FNRQ=="}, "fused_ops": {"list": {"s": ["Qmlhc0FkZA==", "UmVsdTY="]}}}}, {"name": "FeatureExtractor/MobilenetV2/expanded_conv_15/depthwise/depthwise", "op": "FusedDepthwiseConv2dNative", "input": ["FeatureExtractor/MobilenetV2/expanded_conv_15/expand/Relu6", "FeatureExtractor/MobilenetV2/expanded_conv_15/depthwise/depthwise_weights", "FeatureExtractor/MobilenetV2/expanded_conv_15/depthwise/depthwise_bn_offset"], "attr": {"dilations": {"list": {"i": ["1", "1", "1", "1"]}}, "T": {"type": "DT_FLOAT"}, "data_format": {"s": "TkhXQw=="}, "strides": {"list": {"i": ["1", "1", "1", "1"]}}, "num_args": {"i": "1"}, "padding": {"s": "U0FNRQ=="}, "fused_ops": {"list": {"s": ["Qmlhc0FkZA==", "UmVsdTY="]}}}}, {"name": "FeatureExtractor/MobilenetV2/expanded_conv_15/project/BatchNorm/FusedBatchNorm", "op": "_FusedConv2D", "input": ["FeatureExtractor/MobilenetV2/expanded_conv_15/depthwise/depthwise", "FeatureExtractor/MobilenetV2/expanded_conv_15/project/Conv2D_weights", "FeatureExtractor/MobilenetV2/expanded_conv_15/project/Conv2D_bn_offset"], "device": "/device:CPU:0", "attr": {"dilations": {"list": {"i": ["1", "1", "1", "1"]}}, "T": {"type": "DT_FLOAT"}, "data_format": {"s": "TkhXQw=="}, "strides": {"list": {"i": ["1", "1", "1", "1"]}}, "explicit_paddings": {"list": {}}, "use_cudnn_on_gpu": {"b": true}, "num_args": {"i": "1"}, "epsilon": {"f": 0.0}, "padding": {"s": "U0FNRQ=="}, "fused_ops": {"list": {"s": ["Qmlhc0FkZA=="]}}}}, {"name": "FeatureExtractor/MobilenetV2/expanded_conv_15/add", "op": "Add", "input": ["FeatureExtractor/MobilenetV2/expanded_conv_14/add", "FeatureExtractor/MobilenetV2/expanded_conv_15/project/BatchNorm/FusedBatchNorm"], "attr": {"T": {"type": "DT_FLOAT"}}}, {"name": "FeatureExtractor/MobilenetV2/expanded_conv_16/expand/Relu6", "op": "_FusedConv2D", "input": ["FeatureExtractor/MobilenetV2/expanded_conv_15/add", "FeatureExtractor/MobilenetV2/expanded_conv_16/expand/Conv2D_weights", "FeatureExtractor/MobilenetV2/expanded_conv_16/expand/Conv2D_bn_offset"], "device": "/device:CPU:0", "attr": {"dilations": {"list": {"i": ["1", "1", "1", "1"]}}, "T": {"type": "DT_FLOAT"}, "data_format": {"s": "TkhXQw=="}, "strides": {"list": {"i": ["1", "1", "1", "1"]}}, "explicit_paddings": {"list": {}}, "use_cudnn_on_gpu": {"b": true}, "num_args": {"i": "1"}, "epsilon": {"f": 0.0}, "padding": {"s": "U0FNRQ=="}, "fused_ops": {"list": {"s": ["Qmlhc0FkZA==", "UmVsdTY="]}}}}, {"name": "FeatureExtractor/MobilenetV2/expanded_conv_16/depthwise/depthwise", "op": "FusedDepthwiseConv2dNative", "input": ["FeatureExtractor/MobilenetV2/expanded_conv_16/expand/Relu6", "FeatureExtractor/MobilenetV2/expanded_conv_16/depthwise/depthwise_weights", "FeatureExtractor/MobilenetV2/expanded_conv_16/depthwise/depthwise_bn_offset"], "attr": {"dilations": {"list": {"i": ["1", "1", "1", "1"]}}, "T": {"type": "DT_FLOAT"}, "strides": {"list": {"i": ["1", "1", "1", "1"]}}, "data_format": {"s": "TkhXQw=="}, "num_args": {"i": "1"}, "padding": {"s": "U0FNRQ=="}, "fused_ops": {"list": {"s": ["Qmlhc0FkZA==", "UmVsdTY="]}}}}, {"name": "FeatureExtractor/MobilenetV2/expanded_conv_16/project/BatchNorm/FusedBatchNorm", "op": "_FusedConv2D", "input": ["FeatureExtractor/MobilenetV2/expanded_conv_16/depthwise/depthwise", "FeatureExtractor/MobilenetV2/expanded_conv_16/project/Conv2D_weights", "FeatureExtractor/MobilenetV2/expanded_conv_16/project/Conv2D_bn_offset"], "device": "/device:CPU:0", "attr": {"dilations": {"list": {"i": ["1", "1", "1", "1"]}}, "T": {"type": "DT_FLOAT"}, "data_format": {"s": "TkhXQw=="}, "strides": {"list": {"i": ["1", "1", "1", "1"]}}, "explicit_paddings": {"list": {}}, "use_cudnn_on_gpu": {"b": true}, "num_args": {"i": "1"}, "epsilon": {"f": 0.0}, "padding": {"s": "U0FNRQ=="}, "fused_ops": {"list": {"s": ["Qmlhc0FkZA=="]}}}}, {"name": "FeatureExtractor/MobilenetV2/Conv_1/Relu6", "op": "_FusedConv2D", "input": ["FeatureExtractor/MobilenetV2/expanded_conv_16/project/BatchNorm/FusedBatchNorm", "FeatureExtractor/MobilenetV2/Conv_1/Conv2D_weights", "FeatureExtractor/MobilenetV2/Conv_1/Conv2D_bn_offset"], "device": "/device:CPU:0", "attr": {"dilations": {"list": {"i": ["1", "1", "1", "1"]}}, "T": {"type": "DT_FLOAT"}, "data_format": {"s": "TkhXQw=="}, "strides": {"list": {"i": ["1", "1", "1", "1"]}}, "explicit_paddings": {"list": {}}, "use_cudnn_on_gpu": {"b": true}, "num_args": {"i": "1"}, "epsilon": {"f": 0.0}, "padding": {"s": "U0FNRQ=="}, "fused_ops": {"list": {"s": ["Qmlhc0FkZA==", "UmVsdTY="]}}}}, {"name": "BoxPredictor_1/ClassPredictor/BiasAdd", "op": "_FusedConv2D", "input": ["FeatureExtractor/MobilenetV2/Conv_1/Relu6", "BoxPredictor_1/ClassPredictor/weights", "BoxPredictor_1/ClassPredictor/biases"], "device": "/device:CPU:0", "attr": {"dilations": {"list": {"i": ["1", "1", "1", "1"]}}, "T": {"type": "DT_FLOAT"}, "data_format": {"s": "TkhXQw=="}, "strides": {"list": {"i": ["1", "1", "1", "1"]}}, "explicit_paddings": {"list": {}}, "use_cudnn_on_gpu": {"b": true}, "num_args": {"i": "1"}, "epsilon": {"f": 0.0}, "padding": {"s": "U0FNRQ=="}, "fused_ops": {"list": {"s": ["Qmlhc0FkZA=="]}}}}, {"name": "BoxPredictor_1/BoxEncodingPredictor/BiasAdd", "op": "_FusedConv2D", "input": ["FeatureExtractor/MobilenetV2/Conv_1/Relu6", "BoxPredictor_1/BoxEncodingPredictor/weights", "BoxPredictor_1/BoxEncodingPredictor/biases"], "device": "/device:CPU:0", "attr": {"dilations": {"list": {"i": ["1", "1", "1", "1"]}}, "T": {"type": "DT_FLOAT"}, "data_format": {"s": "TkhXQw=="}, "strides": {"list": {"i": ["1", "1", "1", "1"]}}, "explicit_paddings": {"list": {}}, "use_cudnn_on_gpu": {"b": true}, "num_args": {"i": "1"}, "epsilon": {"f": 0.0}, "padding": {"s": "U0FNRQ=="}, "fused_ops": {"list": {"s": ["Qmlhc0FkZA=="]}}}}, {"name": "BoxPredictor_1/Shape_1", "op": "Shape", "input": ["FeatureExtractor/MobilenetV2/Conv_1/Relu6"], "attr": {"T": {"type": "DT_FLOAT"}, "out_type": {"type": "DT_INT32"}}}, {"name": "FeatureExtractor/MobilenetV2/layer_19_1_Conv2d_2_1x1_256/Relu6", "op": "_FusedConv2D", "input": ["FeatureExtractor/MobilenetV2/Conv_1/Relu6", "FeatureExtractor/MobilenetV2/layer_19_1_Conv2d_2_1x1_256/Conv2D_weights", "FeatureExtractor/MobilenetV2/layer_19_1_Conv2d_2_1x1_256/Conv2D_bn_offset"], "device": "/device:CPU:0", "attr": {"dilations": {"list": {"i": ["1", "1", "1", "1"]}}, "T": {"type": "DT_FLOAT"}, "data_format": {"s": "TkhXQw=="}, "strides": {"list": {"i": ["1", "1", "1", "1"]}}, "explicit_paddings": {"list": {}}, "use_cudnn_on_gpu": {"b": true}, "num_args": {"i": "1"}, "epsilon": {"f": 0.0}, "padding": {"s": "U0FNRQ=="}, "fused_ops": {"list": {"s": ["Qmlhc0FkZA==", "UmVsdTY="]}}}}, {"name": "BoxPredictor_1/strided_slice_1", "op": "StridedSlice", "input": ["BoxPredictor_1/Shape_1", "Postprocessor/BatchMultiClassNonMaxSuppression/map/TensorArrayUnstack_1/strided_slice/stack", "Postprocessor/BatchMultiClassNonMaxSuppression/map/TensorArrayUnstack_1/strided_slice/stack_1", "Postprocessor/BatchMultiClassNonMaxSuppression/map/TensorArrayUnstack_1/strided_slice/stack_1"], "attr": {"T": {"type": "DT_INT32"}, "Index": {"type": "DT_INT32"}, "shrink_axis_mask": {"i": "1"}, "ellipsis_mask": {"i": "0"}, "begin_mask": {"i": "0"}, "new_axis_mask": {"i": "0"}, "end_mask": {"i": "0"}}}, {"name": "FeatureExtractor/MobilenetV2/layer_19_2_Conv2d_2_3x3_s2_512/Relu6", "op": "_FusedConv2D", "input": ["FeatureExtractor/MobilenetV2/layer_19_1_Conv2d_2_1x1_256/Relu6", "FeatureExtractor/MobilenetV2/layer_19_2_Conv2d_2_3x3_s2_512/Conv2D_weights", "FeatureExtractor/MobilenetV2/layer_19_2_Conv2d_2_3x3_s2_512/Conv2D_bn_offset"], "device": "/device:CPU:0", "attr": {"dilations": {"list": {"i": ["1", "1", "1", "1"]}}, "T": {"type": "DT_FLOAT"}, "data_format": {"s": "TkhXQw=="}, "strides": {"list": {"i": ["1", "2", "2", "1"]}}, "explicit_paddings": {"list": {}}, "use_cudnn_on_gpu": {"b": true}, "num_args": {"i": "1"}, "epsilon": {"f": 0.0}, "padding": {"s": "U0FNRQ=="}, "fused_ops": {"list": {"s": ["Qmlhc0FkZA==", "UmVsdTY="]}}}}, {"name": "BoxPredictor_1/Reshape_1/shape", "op": "Pack", "input": ["BoxPredictor_1/strided_slice_1", "BoxPredictor_0/Reshape_1/shape/1", "BoxPredictor_0/Reshape_1/shape/2"], "attr": {"T": {"type": "DT_INT32"}, "axis": {"i": "0"}, "N": {"i": "3"}}}, {"name": "BoxPredictor_1/Reshape/shape", "op": "Pack", "input": ["BoxPredictor_1/strided_slice_1", "BoxPredictor_0/Reshape_1/shape/1", "Postprocessor/BatchMultiClassNonMaxSuppression/map/TensorArrayStack/range/delta", "BoxPredictor_0/Reshape/shape/3"], "attr": {"T": {"type": "DT_INT32"}, "axis": {"i": "0"}, "N": {"i": "4"}}}, {"name": "BoxPredictor_2/ClassPredictor/BiasAdd", "op": "_FusedConv2D", "input": ["FeatureExtractor/MobilenetV2/layer_19_2_Conv2d_2_3x3_s2_512/Relu6", "BoxPredictor_2/ClassPredictor/weights", "BoxPredictor_2/ClassPredictor/biases"], "device": "/device:CPU:0", "attr": {"dilations": {"list": {"i": ["1", "1", "1", "1"]}}, "T": {"type": "DT_FLOAT"}, "data_format": {"s": "TkhXQw=="}, "strides": {"list": {"i": ["1", "1", "1", "1"]}}, "explicit_paddings": {"list": {}}, "use_cudnn_on_gpu": {"b": true}, "num_args": {"i": "1"}, "epsilon": {"f": 0.0}, "padding": {"s": "U0FNRQ=="}, "fused_ops": {"list": {"s": ["Qmlhc0FkZA=="]}}}}, {"name": "BoxPredictor_2/BoxEncodingPredictor/BiasAdd", "op": "_FusedConv2D", "input": ["FeatureExtractor/MobilenetV2/layer_19_2_Conv2d_2_3x3_s2_512/Relu6", "BoxPredictor_2/BoxEncodingPredictor/weights", "BoxPredictor_2/BoxEncodingPredictor/biases"], "device": "/device:CPU:0", "attr": {"dilations": {"list": {"i": ["1", "1", "1", "1"]}}, "T": {"type": "DT_FLOAT"}, "data_format": {"s": "TkhXQw=="}, "strides": {"list": {"i": ["1", "1", "1", "1"]}}, "explicit_paddings": {"list": {}}, "use_cudnn_on_gpu": {"b": true}, "num_args": {"i": "1"}, "epsilon": {"f": 0.0}, "padding": {"s": "U0FNRQ=="}, "fused_ops": {"list": {"s": ["Qmlhc0FkZA=="]}}}}, {"name": "BoxPredictor_2/Shape_1", "op": "Shape", "input": ["FeatureExtractor/MobilenetV2/layer_19_2_Conv2d_2_3x3_s2_512/Relu6"], "attr": {"T": {"type": "DT_FLOAT"}, "out_type": {"type": "DT_INT32"}}}, {"name": "FeatureExtractor/MobilenetV2/layer_19_1_Conv2d_3_1x1_128/Relu6", "op": "_FusedConv2D", "input": ["FeatureExtractor/MobilenetV2/layer_19_2_Conv2d_2_3x3_s2_512/Relu6", "FeatureExtractor/MobilenetV2/layer_19_1_Conv2d_3_1x1_128/Conv2D_weights", "FeatureExtractor/MobilenetV2/layer_19_1_Conv2d_3_1x1_128/Conv2D_bn_offset"], "device": "/device:CPU:0", "attr": {"dilations": {"list": {"i": ["1", "1", "1", "1"]}}, "T": {"type": "DT_FLOAT"}, "data_format": {"s": "TkhXQw=="}, "strides": {"list": {"i": ["1", "1", "1", "1"]}}, "explicit_paddings": {"list": {}}, "use_cudnn_on_gpu": {"b": true}, "num_args": {"i": "1"}, "epsilon": {"f": 0.0}, "padding": {"s": "U0FNRQ=="}, "fused_ops": {"list": {"s": ["Qmlhc0FkZA==", "UmVsdTY="]}}}}, {"name": "BoxPredictor_1/Reshape_1", "op": "Reshape", "input": ["BoxPredictor_1/ClassPredictor/BiasAdd", "BoxPredictor_1/Reshape_1/shape"], "attr": {"T": {"type": "DT_FLOAT"}, "Tshape": {"type": "DT_INT32"}}}, {"name": "BoxPredictor_1/Reshape", "op": "Reshape", "input": ["BoxPredictor_1/BoxEncodingPredictor/BiasAdd", "BoxPredictor_1/Reshape/shape"], "attr": {"T": {"type": "DT_FLOAT"}, "Tshape": {"type": "DT_INT32"}}}, {"name": "BoxPredictor_2/strided_slice_1", "op": "StridedSlice", "input": ["BoxPredictor_2/Shape_1", "Postprocessor/BatchMultiClassNonMaxSuppression/map/TensorArrayUnstack_1/strided_slice/stack", "Postprocessor/BatchMultiClassNonMaxSuppression/map/TensorArrayUnstack_1/strided_slice/stack_1", "Postprocessor/BatchMultiClassNonMaxSuppression/map/TensorArrayUnstack_1/strided_slice/stack_1"], "attr": {"T": {"type": "DT_INT32"}, "Index": {"type": "DT_INT32"}, "shrink_axis_mask": {"i": "1"}, "ellipsis_mask": {"i": "0"}, "begin_mask": {"i": "0"}, "new_axis_mask": {"i": "0"}, "end_mask": {"i": "0"}}}, {"name": "FeatureExtractor/MobilenetV2/layer_19_2_Conv2d_3_3x3_s2_256/Relu6", "op": "_FusedConv2D", "input": ["FeatureExtractor/MobilenetV2/layer_19_1_Conv2d_3_1x1_128/Relu6", "FeatureExtractor/MobilenetV2/layer_19_2_Conv2d_3_3x3_s2_256/Conv2D_weights", "FeatureExtractor/MobilenetV2/layer_19_2_Conv2d_3_3x3_s2_256/Conv2D_bn_offset"], "device": "/device:CPU:0", "attr": {"dilations": {"list": {"i": ["1", "1", "1", "1"]}}, "T": {"type": "DT_FLOAT"}, "data_format": {"s": "TkhXQw=="}, "strides": {"list": {"i": ["1", "2", "2", "1"]}}, "explicit_paddings": {"list": {}}, "use_cudnn_on_gpu": {"b": true}, "num_args": {"i": "1"}, "epsilon": {"f": 0.0}, "padding": {"s": "U0FNRQ=="}, "fused_ops": {"list": {"s": ["Qmlhc0FkZA==", "UmVsdTY="]}}}}, {"name": "BoxPredictor_2/Reshape_1/shape", "op": "Pack", "input": ["BoxPredictor_2/strided_slice_1", "BoxPredictor_0/Reshape_1/shape/1", "BoxPredictor_0/Reshape_1/shape/2"], "attr": {"T": {"type": "DT_INT32"}, "axis": {"i": "0"}, "N": {"i": "3"}}}, {"name": "BoxPredictor_2/Reshape/shape", "op": "Pack", "input": ["BoxPredictor_2/strided_slice_1", "BoxPredictor_0/Reshape_1/shape/1", "Postprocessor/BatchMultiClassNonMaxSuppression/map/TensorArrayStack/range/delta", "BoxPredictor_0/Reshape/shape/3"], "attr": {"T": {"type": "DT_INT32"}, "axis": {"i": "0"}, "N": {"i": "4"}}}, {"name": "BoxPredictor_3/ClassPredictor/BiasAdd", "op": "_FusedConv2D", "input": ["FeatureExtractor/MobilenetV2/layer_19_2_Conv2d_3_3x3_s2_256/Relu6", "BoxPredictor_3/ClassPredictor/weights", "BoxPredictor_3/ClassPredictor/biases"], "device": "/device:CPU:0", "attr": {"dilations": {"list": {"i": ["1", "1", "1", "1"]}}, "T": {"type": "DT_FLOAT"}, "data_format": {"s": "TkhXQw=="}, "strides": {"list": {"i": ["1", "1", "1", "1"]}}, "explicit_paddings": {"list": {}}, "use_cudnn_on_gpu": {"b": true}, "num_args": {"i": "1"}, "epsilon": {"f": 0.0}, "padding": {"s": "U0FNRQ=="}, "fused_ops": {"list": {"s": ["Qmlhc0FkZA=="]}}}}, {"name": "BoxPredictor_3/BoxEncodingPredictor/BiasAdd", "op": "_FusedConv2D", "input": ["FeatureExtractor/MobilenetV2/layer_19_2_Conv2d_3_3x3_s2_256/Relu6", "BoxPredictor_3/BoxEncodingPredictor/weights", "BoxPredictor_3/BoxEncodingPredictor/biases"], "device": "/device:CPU:0", "attr": {"dilations": {"list": {"i": ["1", "1", "1", "1"]}}, "T": {"type": "DT_FLOAT"}, "data_format": {"s": "TkhXQw=="}, "strides": {"list": {"i": ["1", "1", "1", "1"]}}, "explicit_paddings": {"list": {}}, "use_cudnn_on_gpu": {"b": true}, "num_args": {"i": "1"}, "epsilon": {"f": 0.0}, "padding": {"s": "U0FNRQ=="}, "fused_ops": {"list": {"s": ["Qmlhc0FkZA=="]}}}}, {"name": "BoxPredictor_3/Shape_1", "op": "Shape", "input": ["FeatureExtractor/MobilenetV2/layer_19_2_Conv2d_3_3x3_s2_256/Relu6"], "attr": {"T": {"type": "DT_FLOAT"}, "out_type": {"type": "DT_INT32"}}}, {"name": "FeatureExtractor/MobilenetV2/layer_19_1_Conv2d_4_1x1_128/Relu6", "op": "_FusedConv2D", "input": ["FeatureExtractor/MobilenetV2/layer_19_2_Conv2d_3_3x3_s2_256/Relu6", "FeatureExtractor/MobilenetV2/layer_19_1_Conv2d_4_1x1_128/Conv2D_weights", "FeatureExtractor/MobilenetV2/layer_19_1_Conv2d_4_1x1_128/Conv2D_bn_offset"], "device": "/device:CPU:0", "attr": {"dilations": {"list": {"i": ["1", "1", "1", "1"]}}, "T": {"type": "DT_FLOAT"}, "data_format": {"s": "TkhXQw=="}, "strides": {"list": {"i": ["1", "1", "1", "1"]}}, "explicit_paddings": {"list": {}}, "use_cudnn_on_gpu": {"b": true}, "num_args": {"i": "1"}, "epsilon": {"f": 0.0}, "padding": {"s": "U0FNRQ=="}, "fused_ops": {"list": {"s": ["Qmlhc0FkZA==", "UmVsdTY="]}}}}, {"name": "BoxPredictor_2/Reshape_1", "op": "Reshape", "input": ["BoxPredictor_2/ClassPredictor/BiasAdd", "BoxPredictor_2/Reshape_1/shape"], "attr": {"T": {"type": "DT_FLOAT"}, "Tshape": {"type": "DT_INT32"}}}, {"name": "BoxPredictor_2/Reshape", "op": "Reshape", "input": ["BoxPredictor_2/BoxEncodingPredictor/BiasAdd", "BoxPredictor_2/Reshape/shape"], "attr": {"T": {"type": "DT_FLOAT"}, "Tshape": {"type": "DT_INT32"}}}, {"name": "BoxPredictor_3/strided_slice_1", "op": "StridedSlice", "input": ["BoxPredictor_3/Shape_1", "Postprocessor/BatchMultiClassNonMaxSuppression/map/TensorArrayUnstack_1/strided_slice/stack", "Postprocessor/BatchMultiClassNonMaxSuppression/map/TensorArrayUnstack_1/strided_slice/stack_1", "Postprocessor/BatchMultiClassNonMaxSuppression/map/TensorArrayUnstack_1/strided_slice/stack_1"], "attr": {"T": {"type": "DT_INT32"}, "Index": {"type": "DT_INT32"}, "shrink_axis_mask": {"i": "1"}, "begin_mask": {"i": "0"}, "ellipsis_mask": {"i": "0"}, "new_axis_mask": {"i": "0"}, "end_mask": {"i": "0"}}}, {"name": "FeatureExtractor/MobilenetV2/layer_19_2_Conv2d_4_3x3_s2_256/Relu6", "op": "_FusedConv2D", "input": ["FeatureExtractor/MobilenetV2/layer_19_1_Conv2d_4_1x1_128/Relu6", "FeatureExtractor/MobilenetV2/layer_19_2_Conv2d_4_3x3_s2_256/Conv2D_weights", "FeatureExtractor/MobilenetV2/layer_19_2_Conv2d_4_3x3_s2_256/Conv2D_bn_offset"], "device": "/device:CPU:0", "attr": {"dilations": {"list": {"i": ["1", "1", "1", "1"]}}, "T": {"type": "DT_FLOAT"}, "data_format": {"s": "TkhXQw=="}, "strides": {"list": {"i": ["1", "2", "2", "1"]}}, "explicit_paddings": {"list": {}}, "use_cudnn_on_gpu": {"b": true}, "num_args": {"i": "1"}, "epsilon": {"f": 0.0}, "padding": {"s": "U0FNRQ=="}, "fused_ops": {"list": {"s": ["Qmlhc0FkZA==", "UmVsdTY="]}}}}, {"name": "BoxPredictor_3/Reshape_1/shape", "op": "Pack", "input": ["BoxPredictor_3/strided_slice_1", "BoxPredictor_0/Reshape_1/shape/1", "BoxPredictor_0/Reshape_1/shape/2"], "attr": {"T": {"type": "DT_INT32"}, "axis": {"i": "0"}, "N": {"i": "3"}}}, {"name": "BoxPredictor_3/Reshape/shape", "op": "Pack", "input": ["BoxPredictor_3/strided_slice_1", "BoxPredictor_0/Reshape_1/shape/1", "Postprocessor/BatchMultiClassNonMaxSuppression/map/TensorArrayStack/range/delta", "BoxPredictor_0/Reshape/shape/3"], "attr": {"T": {"type": "DT_INT32"}, "axis": {"i": "0"}, "N": {"i": "4"}}}, {"name": "BoxPredictor_4/ClassPredictor/BiasAdd", "op": "_FusedConv2D", "input": ["FeatureExtractor/MobilenetV2/layer_19_2_Conv2d_4_3x3_s2_256/Relu6", "BoxPredictor_4/ClassPredictor/weights", "BoxPredictor_4/ClassPredictor/biases"], "device": "/device:CPU:0", "attr": {"dilations": {"list": {"i": ["1", "1", "1", "1"]}}, "T": {"type": "DT_FLOAT"}, "data_format": {"s": "TkhXQw=="}, "strides": {"list": {"i": ["1", "1", "1", "1"]}}, "explicit_paddings": {"list": {}}, "use_cudnn_on_gpu": {"b": true}, "num_args": {"i": "1"}, "epsilon": {"f": 0.0}, "padding": {"s": "U0FNRQ=="}, "fused_ops": {"list": {"s": ["Qmlhc0FkZA=="]}}}}, {"name": "BoxPredictor_4/BoxEncodingPredictor/BiasAdd", "op": "_FusedConv2D", "input": ["FeatureExtractor/MobilenetV2/layer_19_2_Conv2d_4_3x3_s2_256/Relu6", "BoxPredictor_4/BoxEncodingPredictor/weights", "BoxPredictor_4/BoxEncodingPredictor/biases"], "device": "/device:CPU:0", "attr": {"dilations": {"list": {"i": ["1", "1", "1", "1"]}}, "T": {"type": "DT_FLOAT"}, "data_format": {"s": "TkhXQw=="}, "strides": {"list": {"i": ["1", "1", "1", "1"]}}, "explicit_paddings": {"list": {}}, "use_cudnn_on_gpu": {"b": true}, "num_args": {"i": "1"}, "epsilon": {"f": 0.0}, "padding": {"s": "U0FNRQ=="}, "fused_ops": {"list": {"s": ["Qmlhc0FkZA=="]}}}}, {"name": "BoxPredictor_4/Shape_1", "op": "Shape", "input": ["FeatureExtractor/MobilenetV2/layer_19_2_Conv2d_4_3x3_s2_256/Relu6"], "attr": {"T": {"type": "DT_FLOAT"}, "out_type": {"type": "DT_INT32"}}}, {"name": "FeatureExtractor/MobilenetV2/layer_19_1_Conv2d_5_1x1_64/Relu6", "op": "_FusedConv2D", "input": ["FeatureExtractor/MobilenetV2/layer_19_2_Conv2d_4_3x3_s2_256/Relu6", "FeatureExtractor/MobilenetV2/layer_19_1_Conv2d_5_1x1_64/Conv2D_weights", "FeatureExtractor/MobilenetV2/layer_19_1_Conv2d_5_1x1_64/Conv2D_bn_offset"], "device": "/device:CPU:0", "attr": {"dilations": {"list": {"i": ["1", "1", "1", "1"]}}, "T": {"type": "DT_FLOAT"}, "data_format": {"s": "TkhXQw=="}, "strides": {"list": {"i": ["1", "1", "1", "1"]}}, "explicit_paddings": {"list": {}}, "use_cudnn_on_gpu": {"b": true}, "num_args": {"i": "1"}, "epsilon": {"f": 0.0}, "padding": {"s": "U0FNRQ=="}, "fused_ops": {"list": {"s": ["Qmlhc0FkZA==", "UmVsdTY="]}}}}, {"name": "BoxPredictor_3/Reshape_1", "op": "Reshape", "input": ["BoxPredictor_3/ClassPredictor/BiasAdd", "BoxPredictor_3/Reshape_1/shape"], "attr": {"T": {"type": "DT_FLOAT"}, "Tshape": {"type": "DT_INT32"}}}, {"name": "BoxPredictor_3/Reshape", "op": "Reshape", "input": ["BoxPredictor_3/BoxEncodingPredictor/BiasAdd", "BoxPredictor_3/Reshape/shape"], "attr": {"T": {"type": "DT_FLOAT"}, "Tshape": {"type": "DT_INT32"}}}, {"name": "BoxPredictor_4/strided_slice_1", "op": "StridedSlice", "input": ["BoxPredictor_4/Shape_1", "Postprocessor/BatchMultiClassNonMaxSuppression/map/TensorArrayUnstack_1/strided_slice/stack", "Postprocessor/BatchMultiClassNonMaxSuppression/map/TensorArrayUnstack_1/strided_slice/stack_1", "Postprocessor/BatchMultiClassNonMaxSuppression/map/TensorArrayUnstack_1/strided_slice/stack_1"], "attr": {"T": {"type": "DT_INT32"}, "Index": {"type": "DT_INT32"}, "shrink_axis_mask": {"i": "1"}, "ellipsis_mask": {"i": "0"}, "begin_mask": {"i": "0"}, "new_axis_mask": {"i": "0"}, "end_mask": {"i": "0"}}}, {"name": "FeatureExtractor/MobilenetV2/layer_19_2_Conv2d_5_3x3_s2_128/Relu6", "op": "_FusedConv2D", "input": ["FeatureExtractor/MobilenetV2/layer_19_1_Conv2d_5_1x1_64/Relu6", "FeatureExtractor/MobilenetV2/layer_19_2_Conv2d_5_3x3_s2_128/Conv2D_weights", "FeatureExtractor/MobilenetV2/layer_19_2_Conv2d_5_3x3_s2_128/Conv2D_bn_offset"], "device": "/device:CPU:0", "attr": {"dilations": {"list": {"i": ["1", "1", "1", "1"]}}, "T": {"type": "DT_FLOAT"}, "data_format": {"s": "TkhXQw=="}, "strides": {"list": {"i": ["1", "2", "2", "1"]}}, "explicit_paddings": {"list": {}}, "use_cudnn_on_gpu": {"b": true}, "num_args": {"i": "1"}, "epsilon": {"f": 0.0}, "padding": {"s": "U0FNRQ=="}, "fused_ops": {"list": {"s": ["Qmlhc0FkZA==", "UmVsdTY="]}}}}, {"name": "BoxPredictor_4/Reshape_1/shape", "op": "Pack", "input": ["BoxPredictor_4/strided_slice_1", "BoxPredictor_0/Reshape_1/shape/1", "BoxPredictor_0/Reshape_1/shape/2"], "attr": {"T": {"type": "DT_INT32"}, "axis": {"i": "0"}, "N": {"i": "3"}}}, {"name": "BoxPredictor_4/Reshape/shape", "op": "Pack", "input": ["BoxPredictor_4/strided_slice_1", "BoxPredictor_0/Reshape_1/shape/1", "Postprocessor/BatchMultiClassNonMaxSuppression/map/TensorArrayStack/range/delta", "BoxPredictor_0/Reshape/shape/3"], "attr": {"T": {"type": "DT_INT32"}, "axis": {"i": "0"}, "N": {"i": "4"}}}, {"name": "BoxPredictor_5/ClassPredictor/BiasAdd", "op": "_FusedConv2D", "input": ["FeatureExtractor/MobilenetV2/layer_19_2_Conv2d_5_3x3_s2_128/Relu6", "BoxPredictor_5/ClassPredictor/weights", "BoxPredictor_5/ClassPredictor/biases"], "device": "/device:CPU:0", "attr": {"dilations": {"list": {"i": ["1", "1", "1", "1"]}}, "T": {"type": "DT_FLOAT"}, "data_format": {"s": "TkhXQw=="}, "strides": {"list": {"i": ["1", "1", "1", "1"]}}, "explicit_paddings": {"list": {}}, "use_cudnn_on_gpu": {"b": true}, "num_args": {"i": "1"}, "epsilon": {"f": 0.0}, "padding": {"s": "U0FNRQ=="}, "fused_ops": {"list": {"s": ["Qmlhc0FkZA=="]}}}}, {"name": "BoxPredictor_5/BoxEncodingPredictor/BiasAdd", "op": "_FusedConv2D", "input": ["FeatureExtractor/MobilenetV2/layer_19_2_Conv2d_5_3x3_s2_128/Relu6", "BoxPredictor_5/BoxEncodingPredictor/weights", "BoxPredictor_5/BoxEncodingPredictor/biases"], "device": "/device:CPU:0", "attr": {"dilations": {"list": {"i": ["1", "1", "1", "1"]}}, "T": {"type": "DT_FLOAT"}, "data_format": {"s": "TkhXQw=="}, "strides": {"list": {"i": ["1", "1", "1", "1"]}}, "explicit_paddings": {"list": {}}, "use_cudnn_on_gpu": {"b": true}, "num_args": {"i": "1"}, "epsilon": {"f": 0.0}, "padding": {"s": "U0FNRQ=="}, "fused_ops": {"list": {"s": ["Qmlhc0FkZA=="]}}}}, {"name": "BoxPredictor_5/Shape_1", "op": "Shape", "input": ["FeatureExtractor/MobilenetV2/layer_19_2_Conv2d_5_3x3_s2_128/Relu6"], "attr": {"T": {"type": "DT_FLOAT"}, "out_type": {"type": "DT_INT32"}}}, {"name": "BoxPredictor_4/Reshape_1", "op": "Reshape", "input": ["BoxPredictor_4/ClassPredictor/BiasAdd", "BoxPredictor_4/Reshape_1/shape"], "attr": {"T": {"type": "DT_FLOAT"}, "Tshape": {"type": "DT_INT32"}}}, {"name": "BoxPredictor_4/Reshape", "op": "Reshape", "input": ["BoxPredictor_4/BoxEncodingPredictor/BiasAdd", "BoxPredictor_4/Reshape/shape"], "attr": {"T": {"type": "DT_FLOAT"}, "Tshape": {"type": "DT_INT32"}}}, {"name": "BoxPredictor_5/strided_slice_1", "op": "StridedSlice", "input": ["BoxPredictor_5/Shape_1", "Postprocessor/BatchMultiClassNonMaxSuppression/map/TensorArrayUnstack_1/strided_slice/stack", "Postprocessor/BatchMultiClassNonMaxSuppression/map/TensorArrayUnstack_1/strided_slice/stack_1", "Postprocessor/BatchMultiClassNonMaxSuppression/map/TensorArrayUnstack_1/strided_slice/stack_1"], "attr": {"T": {"type": "DT_INT32"}, "Index": {"type": "DT_INT32"}, "shrink_axis_mask": {"i": "1"}, "ellipsis_mask": {"i": "0"}, "begin_mask": {"i": "0"}, "new_axis_mask": {"i": "0"}, "end_mask": {"i": "0"}}}, {"name": "BoxPredictor_5/Reshape_1/shape", "op": "Pack", "input": ["BoxPredictor_5/strided_slice_1", "BoxPredictor_0/Reshape_1/shape/1", "BoxPredictor_0/Reshape_1/shape/2"], "attr": {"T": {"type": "DT_INT32"}, "axis": {"i": "0"}, "N": {"i": "3"}}}, {"name": "BoxPredictor_5/Reshape/shape", "op": "Pack", "input": ["BoxPredictor_5/strided_slice_1", "BoxPredictor_0/Reshape_1/shape/1", "Postprocessor/BatchMultiClassNonMaxSuppression/map/TensorArrayStack/range/delta", "BoxPredictor_0/Reshape/shape/3"], "attr": {"T": {"type": "DT_INT32"}, "axis": {"i": "0"}, "N": {"i": "4"}}}, {"name": "BoxPredictor_5/Reshape_1", "op": "Reshape", "input": ["BoxPredictor_5/ClassPredictor/BiasAdd", "BoxPredictor_5/Reshape_1/shape"], "attr": {"T": {"type": "DT_FLOAT"}, "Tshape": {"type": "DT_INT32"}}}, {"name": "BoxPredictor_5/Reshape", "op": "Reshape", "input": ["BoxPredictor_5/BoxEncodingPredictor/BiasAdd", "BoxPredictor_5/Reshape/shape"], "attr": {"T": {"type": "DT_FLOAT"}, "Tshape": {"type": "DT_INT32"}}}, {"name": "concat_1", "op": "ConcatV2", "input": ["BoxPredictor_0/Reshape_1", "BoxPredictor_1/Reshape_1", "BoxPredictor_2/Reshape_1", "BoxPredictor_3/Reshape_1", "BoxPredictor_4/Reshape_1", "BoxPredictor_5/Reshape_1", "Postprocessor/BatchMultiClassNonMaxSuppression/map/TensorArrayStack/range/delta"], "attr": {"Tidx": {"type": "DT_INT32"}, "T": {"type": "DT_FLOAT"}, "N": {"i": "6"}}}, {"name": "concat", "op": "ConcatV2", "input": ["BoxPredictor_0/Reshape", "BoxPredictor_1/Reshape", "BoxPredictor_2/Reshape", "BoxPredictor_3/Reshape", "BoxPredictor_4/Reshape", "BoxPredictor_5/Reshape", "Postprocessor/BatchMultiClassNonMaxSuppression/map/TensorArrayStack/range/delta"], "attr": {"Tidx": {"type": "DT_INT32"}, "T": {"type": "DT_FLOAT"}, "N": {"i": "6"}}}, {"name": "Postprocessor/convert_scores", "op": "Sigmoid", "input": ["concat_1"], "attr": {"T": {"type": "DT_FLOAT"}}}, {"name": "Squeeze", "op": "Squeeze", "input": ["concat"], "attr": {"squeeze_dims": {"list": {"i": ["2"]}}, "T": {"type": "DT_FLOAT"}}}, {"name": "Postprocessor/Slice", "op": "Slice", "input": ["Postprocessor/convert_scores", "Postprocessor/Slice/begin", "Postprocessor/Slice/size"], "attr": {"Index": {"type": "DT_INT32"}, "T": {"type": "DT_FLOAT"}}}, {"name": "Postprocessor/Reshape_1", "op": "Reshape", "input": ["Squeeze", "Postprocessor/Reshape_1/shape"], "attr": {"T": {"type": "DT_FLOAT"}, "Tshape": {"type": "DT_INT32"}}}, {"name": "Postprocessor/Shape", "op": "Shape", "input": ["Squeeze"], "attr": {"T": {"type": "DT_FLOAT"}, "out_type": {"type": "DT_INT32"}}}, {"name": "Postprocessor/BatchMultiClassNonMaxSuppression/map/TensorArrayUnstack_1/Shape", "op": "Shape", "input": ["Postprocessor/Slice"], "attr": {"T": {"type": "DT_FLOAT"}, "out_type": {"type": "DT_INT32"}}}, {"name": "Postprocessor/Decode/transpose/sub_1", "op": "Const", "input": ["^Postprocessor/Reshape_1"], "attr": {"value": {"tensor": {"dtype": "DT_INT32", "tensorShape": {"dim": [{"size": "2"}]}}}, "dtype": {"type": "DT_INT32"}}}, {"name": "Postprocessor/strided_slice", "op": "StridedSlice", "input": ["Postprocessor/Shape", "Postprocessor/BatchMultiClassNonMaxSuppression/map/TensorArrayUnstack_1/strided_slice/stack", "Postprocessor/BatchMultiClassNonMaxSuppression/map/TensorArrayUnstack_1/strided_slice/stack_1", "Postprocessor/BatchMultiClassNonMaxSuppression/map/TensorArrayUnstack_1/strided_slice/stack_1"], "attr": {"T": {"type": "DT_INT32"}, "Index": {"type": "DT_INT32"}, "shrink_axis_mask": {"i": "1"}, "ellipsis_mask": {"i": "0"}, "begin_mask": {"i": "0"}, "new_axis_mask": {"i": "0"}, "end_mask": {"i": "0"}}}, {"name": "Postprocessor/strided_slice_1", "op": "StridedSlice", "input": ["Postprocessor/Shape", "Postprocessor/BatchMultiClassNonMaxSuppression/map/TensorArrayUnstack_1/strided_slice/stack_1", "Postprocessor/BatchMultiClassNonMaxSuppression/strided_slice_1/stack_1", "Postprocessor/BatchMultiClassNonMaxSuppression/map/TensorArrayUnstack_1/strided_slice/stack_1"], "attr": {"T": {"type": "DT_INT32"}, "Index": {"type": "DT_INT32"}, "shrink_axis_mask": {"i": "1"}, "ellipsis_mask": {"i": "0"}, "begin_mask": {"i": "0"}, "new_axis_mask": {"i": "0"}, "end_mask": {"i": "0"}}}, {"name": "Postprocessor/BatchMultiClassNonMaxSuppression/map/TensorArrayUnstack_1/strided_slice", "op": "StridedSlice", "input": ["Postprocessor/BatchMultiClassNonMaxSuppression/map/TensorArrayUnstack_1/Shape", "Postprocessor/BatchMultiClassNonMaxSuppression/map/TensorArrayUnstack_1/strided_slice/stack", "Postprocessor/BatchMultiClassNonMaxSuppression/map/TensorArrayUnstack_1/strided_slice/stack_1", "Postprocessor/BatchMultiClassNonMaxSuppression/map/TensorArrayUnstack_1/strided_slice/stack_1"], "attr": {"T": {"type": "DT_INT32"}, "Index": {"type": "DT_INT32"}, "shrink_axis_mask": {"i": "1"}, "begin_mask": {"i": "0"}, "ellipsis_mask": {"i": "0"}, "new_axis_mask": {"i": "0"}, "end_mask": {"i": "0"}}}, {"name": "Postprocessor/Decode/transpose", "op": "Transpose", "input": ["Postprocessor/Reshape_1", "Postprocessor/Decode/transpose/sub_1"], "attr": {"Tperm": {"type": "DT_INT32"}, "T": {"type": "DT_FLOAT"}}}, {"name": "Postprocessor/Tile/multiples", "op": "Pack", "input": ["Postprocessor/strided_slice", "Postprocessor/BatchMultiClassNonMaxSuppression/map/TensorArrayStack/range/delta", "Postprocessor/BatchMultiClassNonMaxSuppression/map/TensorArrayStack/range/delta"], "attr": {"T": {"type": "DT_INT32"}, "axis": {"i": "0"}, "N": {"i": "3"}}}, {"name": "Postprocessor/stack", "op": "Pack", "input": ["Postprocessor/strided_slice", "Postprocessor/strided_slice_1", "BoxPredictor_0/Reshape/shape/3"], "attr": {"T": {"type": "DT_INT32"}, "axis": {"i": "0"}, "N": {"i": "3"}}}, {"name": "Postprocessor/BatchMultiClassNonMaxSuppression/map/TensorArrayUnstack_1/range", "op": "Range", "input": ["Postprocessor/BatchMultiClassNonMaxSuppression/map/TensorArrayStack/range/start", "Postprocessor/BatchMultiClassNonMaxSuppression/map/TensorArrayUnstack_1/strided_slice", "Postprocessor/BatchMultiClassNonMaxSuppression/map/TensorArrayStack/range/delta"], "attr": {"Tidx": {"type": "DT_INT32"}}}, {"name": "Postprocessor/Decode/unstack", "op": "Unpack", "input": ["Postprocessor/Decode/transpose"], "attr": {"num": {"i": "4"}, "T": {"type": "DT_FLOAT"}, "axis": {"i": "0"}}}, {"name": "Postprocessor/Tile", "op": "Tile", "input": ["Postprocessor/ExpandDims", "Postprocessor/Tile/multiples"], "attr": {"Tmultiples": {"type": "DT_INT32"}, "T": {"type": "DT_FLOAT"}}}, {"name": "Postprocessor/Decode/truediv", "op": "Mul", "input": ["ConstantFolding/Postprocessor/Decode/truediv_recip", "Postprocessor/Decode/unstack"], "attr": {"T": {"type": "DT_FLOAT"}}}, {"name": "Postprocessor/Decode/truediv_1", "op": "Mul", "input": ["ConstantFolding/Postprocessor/Decode/truediv_recip", "Postprocessor/Decode/unstack:1"], "attr": {"T": {"type": "DT_FLOAT"}}}, {"name": "Postprocessor/Decode/truediv_2", "op": "Mul", "input": ["ConstantFolding/Postprocessor/Decode/truediv_2_recip", "Postprocessor/Decode/unstack:2"], "attr": {"T": {"type": "DT_FLOAT"}}}, {"name": "Postprocessor/Decode/truediv_3", "op": "Mul", "input": ["ConstantFolding/Postprocessor/Decode/truediv_2_recip", "Postprocessor/Decode/unstack:3"], "attr": {"T": {"type": "DT_FLOAT"}}}, {"name": "Postprocessor/Reshape", "op": "Reshape", "input": ["Postprocessor/Tile", "Postprocessor/Reshape_1/shape"], "attr": {"T": {"type": "DT_FLOAT"}, "Tshape": {"type": "DT_INT32"}}}, {"name": "Postprocessor/Decode/Exp_1", "op": "Exp", "input": ["Postprocessor/Decode/truediv_2"], "attr": {"T": {"type": "DT_FLOAT"}}}, {"name": "Postprocessor/Decode/Exp", "op": "Exp", "input": ["Postprocessor/Decode/truediv_3"], "attr": {"T": {"type": "DT_FLOAT"}}}, {"name": "Postprocessor/Decode/get_center_coordinates_and_sizes/transpose/sub_1", "op": "Const", "input": ["^Postprocessor/Reshape"], "attr": {"value": {"tensor": {"dtype": "DT_INT32", "tensorShape": {"dim": [{"size": "2"}]}}}, "dtype": {"type": "DT_INT32"}}}, {"name": "Postprocessor/Decode/get_center_coordinates_and_sizes/transpose", "op": "Transpose", "input": ["Postprocessor/Reshape", "Postprocessor/Decode/get_center_coordinates_and_sizes/transpose/sub_1"], "attr": {"Tperm": {"type": "DT_INT32"}, "T": {"type": "DT_FLOAT"}}}, {"name": "Postprocessor/Decode/get_center_coordinates_and_sizes/unstack", "op": "Unpack", "input": ["Postprocessor/Decode/get_center_coordinates_and_sizes/transpose"], "attr": {"num": {"i": "4"}, "T": {"type": "DT_FLOAT"}, "axis": {"i": "0"}}}, {"name": "Postprocessor/Decode/get_center_coordinates_and_sizes/sub_1", "op": "Sub", "input": ["Postprocessor/Decode/get_center_coordinates_and_sizes/unstack:2", "Postprocessor/Decode/get_center_coordinates_and_sizes/unstack"], "attr": {"T": {"type": "DT_FLOAT"}}}, {"name": "Postprocessor/Decode/get_center_coordinates_and_sizes/sub", "op": "Sub", "input": ["Postprocessor/Decode/get_center_coordinates_and_sizes/unstack:3", "Postprocessor/Decode/get_center_coordinates_and_sizes/unstack:1"], "attr": {"T": {"type": "DT_FLOAT"}}}, {"name": "Postprocessor/Decode/mul_2", "op": "Mul", "input": ["Postprocessor/Decode/get_center_coordinates_and_sizes/sub_1", "Postprocessor/Decode/truediv"], "attr": {"T": {"type": "DT_FLOAT"}}}, {"name": "Postprocessor/Decode/get_center_coordinates_and_sizes/truediv", "op": "Mul", "input": ["ConstantFolding/Postprocessor/Decode/truediv_4_recip", "Postprocessor/Decode/get_center_coordinates_and_sizes/sub_1"], "attr": {"T": {"type": "DT_FLOAT"}}}, {"name": "Postprocessor/Decode/mul_3", "op": "Mul", "input": ["Postprocessor/Decode/get_center_coordinates_and_sizes/sub", "Postprocessor/Decode/truediv_1"], "attr": {"T": {"type": "DT_FLOAT"}}}, {"name": "Postprocessor/Decode/get_center_coordinates_and_sizes/truediv_1", "op": "Mul", "input": ["ConstantFolding/Postprocessor/Decode/truediv_4_recip", "Postprocessor/Decode/get_center_coordinates_and_sizes/sub"], "attr": {"T": {"type": "DT_FLOAT"}}}, {"name": "Postprocessor/Decode/get_center_coordinates_and_sizes/add", "op": "Add", "input": ["Postprocessor/Decode/get_center_coordinates_and_sizes/truediv", "Postprocessor/Decode/get_center_coordinates_and_sizes/unstack"], "attr": {"T": {"type": "DT_FLOAT"}}}, {"name": "Postprocessor/Decode/truediv_4", "op": "Mul", "input": ["Postprocessor/Decode/Exp_1", "Postprocessor/Decode/get_center_coordinates_and_sizes/truediv"], "attr": {"T": {"type": "DT_FLOAT"}}}, {"name": "Postprocessor/Decode/get_center_coordinates_and_sizes/add_1", "op": "Add", "input": ["Postprocessor/Decode/get_center_coordinates_and_sizes/truediv_1", "Postprocessor/Decode/get_center_coordinates_and_sizes/unstack:1"], "attr": {"T": {"type": "DT_FLOAT"}}}, {"name": "Postprocessor/Decode/truediv_5", "op": "Mul", "input": ["Postprocessor/Decode/Exp", "Postprocessor/Decode/get_center_coordinates_and_sizes/truediv_1"], "attr": {"T": {"type": "DT_FLOAT"}}}, {"name": "Postprocessor/Decode/add", "op": "Add", "input": ["Postprocessor/Decode/get_center_coordinates_and_sizes/add", "Postprocessor/Decode/mul_2"], "attr": {"T": {"type": "DT_FLOAT"}}}, {"name": "Postprocessor/Decode/add_1", "op": "Add", "input": ["Postprocessor/Decode/get_center_coordinates_and_sizes/add_1", "Postprocessor/Decode/mul_3"], "attr": {"T": {"type": "DT_FLOAT"}}}, {"name": "Postprocessor/Decode/sub", "op": "Sub", "input": ["Postprocessor/Decode/add", "Postprocessor/Decode/truediv_4"], "attr": {"T": {"type": "DT_FLOAT"}}}, {"name": "Postprocessor/Decode/add_2", "op": "Add", "input": ["Postprocessor/Decode/add", "Postprocessor/Decode/truediv_4"], "attr": {"T": {"type": "DT_FLOAT"}}}, {"name": "Postprocessor/Decode/sub_1", "op": "Sub", "input": ["Postprocessor/Decode/add_1", "Postprocessor/Decode/truediv_5"], "attr": {"T": {"type": "DT_FLOAT"}}}, {"name": "Postprocessor/Decode/add_3", "op": "Add", "input": ["Postprocessor/Decode/add_1", "Postprocessor/Decode/truediv_5"], "attr": {"T": {"type": "DT_FLOAT"}}}, {"name": "Postprocessor/Decode/stack", "op": "Pack", "input": ["Postprocessor/Decode/sub", "Postprocessor/Decode/sub_1", "Postprocessor/Decode/add_2", "Postprocessor/Decode/add_3"], "attr": {"T": {"type": "DT_FLOAT"}, "axis": {"i": "0"}, "N": {"i": "4"}}}, {"name": "Postprocessor/Decode/transpose_1/sub_1", "op": "Const", "input": ["^Postprocessor/Decode/stack"], "attr": {"value": {"tensor": {"dtype": "DT_INT32", "tensorShape": {"dim": [{"size": "2"}]}}}, "dtype": {"type": "DT_INT32"}}}, {"name": "Postprocessor/Decode/transpose_1", "op": "Transpose", "input": ["Postprocessor/Decode/stack", "Postprocessor/Decode/transpose_1/sub_1"], "attr": {"Tperm": {"type": "DT_INT32"}, "T": {"type": "DT_FLOAT"}}}, {"name": "Postprocessor/Reshape_2", "op": "Reshape", "input": ["Postprocessor/Decode/transpose_1", "Postprocessor/stack"], "attr": {"T": {"type": "DT_FLOAT"}, "Tshape": {"type": "DT_INT32"}}}, {"name": "Postprocessor/ExpandDims_1", "op": "ExpandDims", "input": ["Postprocessor/Reshape_2", "Postprocessor/ExpandDims_1/dim"], "attr": {"Tdim": {"type": "DT_INT32"}, "T": {"type": "DT_FLOAT"}}}, {"name": "Postprocessor/BatchMultiClassNonMaxSuppression/map/TensorArrayUnstack/Shape", "op": "Shape", "input": ["Postprocessor/ExpandDims_1"], "attr": {"T": {"type": "DT_FLOAT"}, "out_type": {"type": "DT_INT32"}}}, {"name": "Postprocessor/BatchMultiClassNonMaxSuppression/strided_slice_1", "op": "StridedSlice", "input": ["Postprocessor/BatchMultiClassNonMaxSuppression/map/TensorArrayUnstack/Shape", "Postprocessor/BatchMultiClassNonMaxSuppression/map/TensorArrayUnstack_1/strided_slice/stack_1", "Postprocessor/BatchMultiClassNonMaxSuppression/strided_slice_1/stack_1", "Postprocessor/BatchMultiClassNonMaxSuppression/map/TensorArrayUnstack_1/strided_slice/stack_1"], "attr": {"T": {"type": "DT_INT32"}, "Index": {"type": "DT_INT32"}, "shrink_axis_mask": {"i": "1"}, "begin_mask": {"i": "0"}, "ellipsis_mask": {"i": "0"}, "new_axis_mask": {"i": "0"}, "end_mask": {"i": "0"}}}, {"name": "Postprocessor/BatchMultiClassNonMaxSuppression/map/TensorArrayUnstack/strided_slice", "op": "StridedSlice", "input": ["Postprocessor/BatchMultiClassNonMaxSuppression/map/TensorArrayUnstack/Shape", "Postprocessor/BatchMultiClassNonMaxSuppression/map/TensorArrayUnstack_1/strided_slice/stack", "Postprocessor/BatchMultiClassNonMaxSuppression/map/TensorArrayUnstack_1/strided_slice/stack_1", "Postprocessor/BatchMultiClassNonMaxSuppression/map/TensorArrayUnstack_1/strided_slice/stack_1"], "attr": {"T": {"type": "DT_INT32"}, "Index": {"type": "DT_INT32"}, "shrink_axis_mask": {"i": "1"}, "ellipsis_mask": {"i": "0"}, "begin_mask": {"i": "0"}, "new_axis_mask": {"i": "0"}, "end_mask": {"i": "0"}}}, {"name": "Postprocessor/BatchMultiClassNonMaxSuppression/map/TensorArray_5", "op": "TensorArrayV3", "input": ["Postprocessor/BatchMultiClassNonMaxSuppression/map/TensorArrayUnstack/strided_slice"], "attr": {"element_shape": {"shape": {"unknownRank": true}}, "dynamic_size": {"b": false}, "clear_after_read": {"b": true}, "identical_element_shapes": {"b": true}, "tensor_array_name": {"s": ""}, "dtype": {"type": "DT_FLOAT"}}}, {"name": "Postprocessor/BatchMultiClassNonMaxSuppression/map/TensorArray_7", "op": "TensorArrayV3", "input": ["Postprocessor/BatchMultiClassNonMaxSuppression/map/TensorArrayUnstack/strided_slice"], "attr": {"element_shape": {"shape": {"unknownRank": true}}, "dynamic_size": {"b": false}, "clear_after_read": {"b": true}, "identical_element_shapes": {"b": true}, "tensor_array_name": {"s": ""}, "dtype": {"type": "DT_FLOAT"}}}, {"name": "Postprocessor/BatchMultiClassNonMaxSuppression/map/TensorArray_6", "op": "TensorArrayV3", "input": ["Postprocessor/BatchMultiClassNonMaxSuppression/map/TensorArrayUnstack/strided_slice"], "attr": {"element_shape": {"shape": {"unknownRank": true}}, "clear_after_read": {"b": true}, "dynamic_size": {"b": false}, "identical_element_shapes": {"b": true}, "tensor_array_name": {"s": ""}, "dtype": {"type": "DT_FLOAT"}}}, {"name": "Postprocessor/BatchMultiClassNonMaxSuppression/map/TensorArray_9", "op": "TensorArrayV3", "input": ["Postprocessor/BatchMultiClassNonMaxSuppression/map/TensorArrayUnstack/strided_slice"], "attr": {"element_shape": {"shape": {"unknownRank": true}}, "clear_after_read": {"b": true}, "dynamic_size": {"b": false}, "identical_element_shapes": {"b": true}, "tensor_array_name": {"s": ""}, "dtype": {"type": "DT_INT32"}}}, {"name": "Postprocessor/BatchMultiClassNonMaxSuppression/map/TensorArray_1", "op": "TensorArrayV3", "input": ["Postprocessor/BatchMultiClassNonMaxSuppression/map/TensorArrayUnstack/strided_slice"], "attr": {"element_shape": {"shape": {"unknownRank": true}}, "dynamic_size": {"b": false}, "clear_after_read": {"b": true}, "identical_element_shapes": {"b": true}, "tensor_array_name": {"s": ""}, "dtype": {"type": "DT_FLOAT"}}}, {"name": "Postprocessor/BatchMultiClassNonMaxSuppression/map/TensorArrayUnstack/range", "op": "Range", "input": ["Postprocessor/BatchMultiClassNonMaxSuppression/map/TensorArrayStack/range/start", "Postprocessor/BatchMultiClassNonMaxSuppression/map/TensorArrayUnstack/strided_slice", "Postprocessor/BatchMultiClassNonMaxSuppression/map/TensorArrayStack/range/delta"], "attr": {"Tidx": {"type": "DT_INT32"}}}, {"name": "Postprocessor/BatchMultiClassNonMaxSuppression/map/TensorArray", "op": "TensorArrayV3", "input": ["Postprocessor/BatchMultiClassNonMaxSuppression/map/TensorArrayUnstack/strided_slice"], "attr": {"element_shape": {"shape": {"unknownRank": true}}, "dynamic_size": {"b": false}, "clear_after_read": {"b": true}, "identical_element_shapes": {"b": true}, "tensor_array_name": {"s": ""}, "dtype": {"type": "DT_FLOAT"}}}, {"name": "Postprocessor/BatchMultiClassNonMaxSuppression/map/TensorArray_4", "op": "TensorArrayV3", "input": ["Postprocessor/BatchMultiClassNonMaxSuppression/map/TensorArrayUnstack/strided_slice"], "attr": {"element_shape": {"shape": {"unknownRank": true}}, "clear_after_read": {"b": true}, "dynamic_size": {"b": false}, "identical_element_shapes": {"b": true}, "tensor_array_name": {"s": ""}, "dtype": {"type": "DT_INT32"}}}, {"name": "Postprocessor/BatchMultiClassNonMaxSuppression/map/TensorArray_3", "op": "TensorArrayV3", "input": ["Postprocessor/BatchMultiClassNonMaxSuppression/map/TensorArrayUnstack/strided_slice"], "attr": {"element_shape": {"shape": {"unknownRank": true}}, "clear_after_read": {"b": true}, "dynamic_size": {"b": false}, "identical_element_shapes": {"b": true}, "tensor_array_name": {"s": ""}, "dtype": {"type": "DT_FLOAT"}}}, {"name": "Postprocessor/BatchMultiClassNonMaxSuppression/map/while/Less/Enter", "op": "Enter", "input": ["Postprocessor/BatchMultiClassNonMaxSuppression/map/TensorArrayUnstack/strided_slice"], "attr": {"T": {"type": "DT_INT32"}, "is_constant": {"b": true}, "parallel_iterations": {"i": "32"}, "frame_name": {"s": "UG9zdHByb2Nlc3Nvci9CYXRjaE11bHRpQ2xhc3NOb25NYXhTdXBwcmVzc2lvbi9tYXAvd2hpbGUvd2hpbGVfY29udGV4dA=="}}}, {"name": "ConstantFolding/Postprocessor/BatchMultiClassNonMaxSuppression/ones/packed_const_axis", "op": "Const", "input": ["^Postprocessor/BatchMultiClassNonMaxSuppression/map/TensorArrayUnstack/strided_slice"], "attr": {"value": {"tensor": {"dtype": "DT_INT32", "tensorShape": {}}}, "dtype": {"type": "DT_INT32"}}}, {"name": "Postprocessor/BatchMultiClassNonMaxSuppression/map/while/TensorArrayWrite/TensorArrayWriteV3/Enter", "op": "Enter", "input": ["Postprocessor/BatchMultiClassNonMaxSuppression/map/TensorArray_5"], "attr": {"T": {"type": "DT_RESOURCE"}, "is_constant": {"b": true}, "parallel_iterations": {"i": "32"}, "frame_name": {"s": "UG9zdHByb2Nlc3Nvci9CYXRjaE11bHRpQ2xhc3NOb25NYXhTdXBwcmVzc2lvbi9tYXAvd2hpbGUvd2hpbGVfY29udGV4dA=="}}}, {"name": "Postprocessor/BatchMultiClassNonMaxSuppression/map/while/Enter_2", "op": "Enter", "input": ["Postprocessor/BatchMultiClassNonMaxSuppression/map/TensorArray_5:1"], "attr": {"T": {"type": "DT_FLOAT"}, "is_constant": {"b": false}, "parallel_iterations": {"i": "32"}, "frame_name": {"s": "UG9zdHByb2Nlc3Nvci9CYXRjaE11bHRpQ2xhc3NOb25NYXhTdXBwcmVzc2lvbi9tYXAvd2hpbGUvd2hpbGVfY29udGV4dA=="}}}, {"name": "Postprocessor/BatchMultiClassNonMaxSuppression/map/while/TensorArrayWrite_2/TensorArrayWriteV3/Enter", "op": "Enter", "input": ["Postprocessor/BatchMultiClassNonMaxSuppression/map/TensorArray_7"], "attr": {"T": {"type": "DT_RESOURCE"}, "is_constant": {"b": true}, "parallel_iterations": {"i": "32"}, "frame_name": {"s": "UG9zdHByb2Nlc3Nvci9CYXRjaE11bHRpQ2xhc3NOb25NYXhTdXBwcmVzc2lvbi9tYXAvd2hpbGUvd2hpbGVfY29udGV4dA=="}}}, {"name": "Postprocessor/BatchMultiClassNonMaxSuppression/map/while/Enter_4", "op": "Enter", "input": ["Postprocessor/BatchMultiClassNonMaxSuppression/map/TensorArray_7:1"], "attr": {"T": {"type": "DT_FLOAT"}, "is_constant": {"b": false}, "parallel_iterations": {"i": "32"}, "frame_name": {"s": "UG9zdHByb2Nlc3Nvci9CYXRjaE11bHRpQ2xhc3NOb25NYXhTdXBwcmVzc2lvbi9tYXAvd2hpbGUvd2hpbGVfY29udGV4dA=="}}}, {"name": "Postprocessor/BatchMultiClassNonMaxSuppression/map/while/TensorArrayWrite_1/TensorArrayWriteV3/Enter", "op": "Enter", "input": ["Postprocessor/BatchMultiClassNonMaxSuppression/map/TensorArray_6"], "attr": {"T": {"type": "DT_RESOURCE"}, "is_constant": {"b": true}, "parallel_iterations": {"i": "32"}, "frame_name": {"s": "UG9zdHByb2Nlc3Nvci9CYXRjaE11bHRpQ2xhc3NOb25NYXhTdXBwcmVzc2lvbi9tYXAvd2hpbGUvd2hpbGVfY29udGV4dA=="}}}, {"name": "Postprocessor/BatchMultiClassNonMaxSuppression/map/while/Enter_3", "op": "Enter", "input": ["Postprocessor/BatchMultiClassNonMaxSuppression/map/TensorArray_6:1"], "attr": {"T": {"type": "DT_FLOAT"}, "is_constant": {"b": false}, "parallel_iterations": {"i": "32"}, "frame_name": {"s": "UG9zdHByb2Nlc3Nvci9CYXRjaE11bHRpQ2xhc3NOb25NYXhTdXBwcmVzc2lvbi9tYXAvd2hpbGUvd2hpbGVfY29udGV4dA=="}}}, {"name": "Postprocessor/BatchMultiClassNonMaxSuppression/map/while/TensorArrayWrite_4/TensorArrayWriteV3/Enter", "op": "Enter", "input": ["Postprocessor/BatchMultiClassNonMaxSuppression/map/TensorArray_9"], "attr": {"T": {"type": "DT_RESOURCE"}, "is_constant": {"b": true}, "parallel_iterations": {"i": "32"}, "frame_name": {"s": "UG9zdHByb2Nlc3Nvci9CYXRjaE11bHRpQ2xhc3NOb25NYXhTdXBwcmVzc2lvbi9tYXAvd2hpbGUvd2hpbGVfY29udGV4dA=="}}}, {"name": "Postprocessor/BatchMultiClassNonMaxSuppression/map/while/Enter_6", "op": "Enter", "input": ["Postprocessor/BatchMultiClassNonMaxSuppression/map/TensorArray_9:1"], "attr": {"T": {"type": "DT_FLOAT"}, "is_constant": {"b": false}, "parallel_iterations": {"i": "32"}, "frame_name": {"s": "UG9zdHByb2Nlc3Nvci9CYXRjaE11bHRpQ2xhc3NOb25NYXhTdXBwcmVzc2lvbi9tYXAvd2hpbGUvd2hpbGVfY29udGV4dA=="}}}, {"name": "Postprocessor/BatchMultiClassNonMaxSuppression/map/while/TensorArrayReadV3_1/Enter", "op": "Enter", "input": ["Postprocessor/BatchMultiClassNonMaxSuppression/map/TensorArray_1"], "attr": {"T": {"type": "DT_RESOURCE"}, "is_constant": {"b": true}, "parallel_iterations": {"i": "32"}, "frame_name": {"s": "UG9zdHByb2Nlc3Nvci9CYXRjaE11bHRpQ2xhc3NOb25NYXhTdXBwcmVzc2lvbi9tYXAvd2hpbGUvd2hpbGVfY29udGV4dA=="}}}, {"name": "Postprocessor/BatchMultiClassNonMaxSuppression/map/TensorArrayUnstack_1/TensorArrayScatter/TensorArrayScatterV3", "op": "TensorArrayScatterV3", "input": ["Postprocessor/BatchMultiClassNonMaxSuppression/map/TensorArray_1", "Postprocessor/BatchMultiClassNonMaxSuppression/map/TensorArrayUnstack_1/range", "Postprocessor/Slice", "Postprocessor/BatchMultiClassNonMaxSuppression/map/TensorArray_1:1"], "attr": {"T": {"type": "DT_FLOAT"}}}, {"name": "Postprocessor/BatchMultiClassNonMaxSuppression/map/while/TensorArrayReadV3/Enter", "op": "Enter", "input": ["Postprocessor/BatchMultiClassNonMaxSuppression/map/TensorArray"], "attr": {"T": {"type": "DT_RESOURCE"}, "is_constant": {"b": true}, "parallel_iterations": {"i": "32"}, "frame_name": {"s": "UG9zdHByb2Nlc3Nvci9CYXRjaE11bHRpQ2xhc3NOb25NYXhTdXBwcmVzc2lvbi9tYXAvd2hpbGUvd2hpbGVfY29udGV4dA=="}}}, {"name": "Postprocessor/BatchMultiClassNonMaxSuppression/map/TensorArrayUnstack/TensorArrayScatter/TensorArrayScatterV3", "op": "TensorArrayScatterV3", "input": ["Postprocessor/BatchMultiClassNonMaxSuppression/map/TensorArray", "Postprocessor/BatchMultiClassNonMaxSuppression/map/TensorArrayUnstack/range", "Postprocessor/ExpandDims_1", "Postprocessor/BatchMultiClassNonMaxSuppression/map/TensorArray:1"], "attr": {"T": {"type": "DT_FLOAT"}}}, {"name": "Postprocessor/BatchMultiClassNonMaxSuppression/map/while/TensorArrayReadV3_4/Enter", "op": "Enter", "input": ["Postprocessor/BatchMultiClassNonMaxSuppression/map/TensorArray_4"], "attr": {"T": {"type": "DT_RESOURCE"}, "is_constant": {"b": true}, "parallel_iterations": {"i": "32"}, "frame_name": {"s": "UG9zdHByb2Nlc3Nvci9CYXRjaE11bHRpQ2xhc3NOb25NYXhTdXBwcmVzc2lvbi9tYXAvd2hpbGUvd2hpbGVfY29udGV4dA=="}}}, {"name": "Postprocessor/BatchMultiClassNonMaxSuppression/map/while/TensorArrayReadV3_3/Enter", "op": "Enter", "input": ["Postprocessor/BatchMultiClassNonMaxSuppression/map/TensorArray_3"], "attr": {"T": {"type": "DT_RESOURCE"}, "is_constant": {"b": true}, "parallel_iterations": {"i": "32"}, "frame_name": {"s": "UG9zdHByb2Nlc3Nvci9CYXRjaE11bHRpQ2xhc3NOb25NYXhTdXBwcmVzc2lvbi9tYXAvd2hpbGUvd2hpbGVfY29udGV4dA=="}}}, {"name": "Postprocessor/BatchMultiClassNonMaxSuppression/map/TensorArrayUnstack_3/TensorArrayScatter/TensorArrayScatterV3", "op": "TensorArrayScatterV3", "input": ["Postprocessor/BatchMultiClassNonMaxSuppression/map/TensorArray_3", "Postprocessor/BatchMultiClassNonMaxSuppression/map/TensorArrayUnstack_3/range", "Postprocessor/stack_1", "Postprocessor/BatchMultiClassNonMaxSuppression/map/TensorArray_3:1"], "attr": {"T": {"type": "DT_FLOAT"}}}, {"name": "Postprocessor/BatchMultiClassNonMaxSuppression/map/while/Less", "op": "Less", "input": ["Postprocessor/BatchMultiClassNonMaxSuppression/map/while/Merge", "Postprocessor/BatchMultiClassNonMaxSuppression/map/while/Less/Enter"], "attr": {"T": {"type": "DT_INT32"}}}, {"name": "Postprocessor/BatchMultiClassNonMaxSuppression/map/while/Less_1", "op": "Less", "input": ["Postprocessor/BatchMultiClassNonMaxSuppression/map/while/Merge_1", "Postprocessor/BatchMultiClassNonMaxSuppression/map/while/Less/Enter"], "attr": {"T": {"type": "DT_INT32"}}}, {"name": "Postprocessor/BatchMultiClassNonMaxSuppression/ones/packed", "op": "ExpandDims", "input": ["Postprocessor/BatchMultiClassNonMaxSuppression/map/TensorArrayUnstack/strided_slice", "ConstantFolding/Postprocessor/BatchMultiClassNonMaxSuppression/ones/packed_const_axis"], "attr": {"Tdim": {"type": "DT_INT32"}, "T": {"type": "DT_INT32"}}}, {"name": "Postprocessor/BatchMultiClassNonMaxSuppression/map/while/Merge_2", "op": "Merge", "input": ["Postprocessor/BatchMultiClassNonMaxSuppression/map/while/Enter_2", "Postprocessor/BatchMultiClassNonMaxSuppression/map/while/NextIteration_2"], "attr": {"T": {"type": "DT_FLOAT"}, "N": {"i": "2"}}}, {"name": "Postprocessor/BatchMultiClassNonMaxSuppression/map/while/Merge_4", "op": "Merge", "input": ["Postprocessor/BatchMultiClassNonMaxSuppression/map/while/Enter_4", "Postprocessor/BatchMultiClassNonMaxSuppression/map/while/NextIteration_4"], "attr": {"T": {"type": "DT_FLOAT"}, "N": {"i": "2"}}}, {"name": "Postprocessor/BatchMultiClassNonMaxSuppression/map/while/Merge_3", "op": "Merge", "input": ["Postprocessor/BatchMultiClassNonMaxSuppression/map/while/Enter_3", "Postprocessor/BatchMultiClassNonMaxSuppression/map/while/NextIteration_3"], "attr": {"T": {"type": "DT_FLOAT"}, "N": {"i": "2"}}}, {"name": "Postprocessor/BatchMultiClassNonMaxSuppression/map/while/Merge_6", "op": "Merge", "input": ["Postprocessor/BatchMultiClassNonMaxSuppression/map/while/Enter_6", "Postprocessor/BatchMultiClassNonMaxSuppression/map/while/NextIteration_6"], "attr": {"T": {"type": "DT_FLOAT"}, "N": {"i": "2"}}}, {"name": "Postprocessor/BatchMultiClassNonMaxSuppression/map/while/TensorArrayReadV3_1/Enter_1", "op": "Enter", "input": ["Postprocessor/BatchMultiClassNonMaxSuppression/map/TensorArrayUnstack_1/TensorArrayScatter/TensorArrayScatterV3"], "attr": {"T": {"type": "DT_FLOAT"}, "is_constant": {"b": true}, "parallel_iterations": {"i": "32"}, "frame_name": {"s": "UG9zdHByb2Nlc3Nvci9CYXRjaE11bHRpQ2xhc3NOb25NYXhTdXBwcmVzc2lvbi9tYXAvd2hpbGUvd2hpbGVfY29udGV4dA=="}}}, {"name": "Postprocessor/BatchMultiClassNonMaxSuppression/map/while/TensorArrayReadV3/Enter_1", "op": "Enter", "input": ["Postprocessor/BatchMultiClassNonMaxSuppression/map/TensorArrayUnstack/TensorArrayScatter/TensorArrayScatterV3"], "attr": {"T": {"type": "DT_FLOAT"}, "is_constant": {"b": true}, "parallel_iterations": {"i": "32"}, "frame_name": {"s": "UG9zdHByb2Nlc3Nvci9CYXRjaE11bHRpQ2xhc3NOb25NYXhTdXBwcmVzc2lvbi9tYXAvd2hpbGUvd2hpbGVfY29udGV4dA=="}}}, {"name": "Postprocessor/BatchMultiClassNonMaxSuppression/map/while/TensorArrayReadV3_3/Enter_1", "op": "Enter", "input": ["Postprocessor/BatchMultiClassNonMaxSuppression/map/TensorArrayUnstack_3/TensorArrayScatter/TensorArrayScatterV3"], "attr": {"T": {"type": "DT_FLOAT"}, "is_constant": {"b": true}, "parallel_iterations": {"i": "32"}, "frame_name": {"s": "UG9zdHByb2Nlc3Nvci9CYXRjaE11bHRpQ2xhc3NOb25NYXhTdXBwcmVzc2lvbi9tYXAvd2hpbGUvd2hpbGVfY29udGV4dA=="}}}, {"name": "Postprocessor/BatchMultiClassNonMaxSuppression/map/while/LogicalAnd", "op": "LogicalAnd", "input": ["Postprocessor/BatchMultiClassNonMaxSuppression/map/while/Less", "Postprocessor/BatchMultiClassNonMaxSuppression/map/while/Less_1"]}, {"name": "Postprocessor/BatchMultiClassNonMaxSuppression/ones", "op": "Fill", "input": ["Postprocessor/BatchMultiClassNonMaxSuppression/ones/packed", "Postprocessor/BatchMultiClassNonMaxSuppression/map/TensorArrayStack/range/delta"], "attr": {"T": {"type": "DT_INT32"}, "index_type": {"type": "DT_INT32"}}}, {"name": "Postprocessor/BatchMultiClassNonMaxSuppression/map/while/LoopCond", "op": "LoopCond", "input": ["Postprocessor/BatchMultiClassNonMaxSuppression/map/while/LogicalAnd"]}, {"name": "Postprocessor/BatchMultiClassNonMaxSuppression/mul", "op": "Mul", "input": ["Postprocessor/BatchMultiClassNonMaxSuppression/ones", "Postprocessor/BatchMultiClassNonMaxSuppression/strided_slice_1"], "attr": {"T": {"type": "DT_INT32"}}}, {"name": "Postprocessor/BatchMultiClassNonMaxSuppression/map/while/Switch_2", "op": "Switch", "input": ["Postprocessor/BatchMultiClassNonMaxSuppression/map/while/Merge_2", "Postprocessor/BatchMultiClassNonMaxSuppression/map/while/LoopCond"], "attr": {"T": {"type": "DT_FLOAT"}}}, {"name": "Postprocessor/BatchMultiClassNonMaxSuppression/map/while/Switch_4", "op": "Switch", "input": ["Postprocessor/BatchMultiClassNonMaxSuppression/map/while/Merge_4", "Postprocessor/BatchMultiClassNonMaxSuppression/map/while/LoopCond"], "attr": {"T": {"type": "DT_FLOAT"}}}, {"name": "Postprocessor/BatchMultiClassNonMaxSuppression/map/while/Switch_3", "op": "Switch", "input": ["Postprocessor/BatchMultiClassNonMaxSuppression/map/while/Merge_3", "Postprocessor/BatchMultiClassNonMaxSuppression/map/while/LoopCond"], "attr": {"T": {"type": "DT_FLOAT"}}}, {"name": "Postprocessor/BatchMultiC…
ce_2/stack_1", "Postprocessor/BatchMultiClassNonMaxSuppression/map/while/PadOrClipBoxList/zeros_1/shape_as_tensor", "Postprocessor/BatchMultiClassNonMaxSuppression/map/while/PadOrClipBoxList/strided_slice_2/stack_1"], "attr": {"T": {"type": "DT_INT32"}, "Index": {"type": "DT_INT32"}, "shrink_axis_mask": {"i": "1"}, "ellipsis_mask": {"i": "0"}, "begin_mask": {"i": "0"}, "new_axis_mask": {"i": "0"}, "end_mask": {"i": "0"}}}, {"name": "Postprocessor/BatchMultiClassNonMaxSuppression/map/while/PadOrClipBoxList/sub_10", "op": "Sub", "input": ["Postprocessor/BatchMultiClassNonMaxSuppression/map/while/PadOrClipBoxList/strided_slice_10", "Postprocessor/BatchMultiClassNonMaxSuppression/map/while/PadOrClipBoxList/sub_2/x"], "attr": {"T": {"type": "DT_INT32"}}}, {"name": "Postprocessor/BatchMultiClassNonMaxSuppression/map/while/PadOrClipBoxList/sub_12", "op": "Sub", "input": ["Postprocessor/BatchMultiClassNonMaxSuppression/map/while/PadOrClipBoxList/strided_slice_12", "Postprocessor/BatchMultiClassNonMaxSuppression/map/while/PadOrClipBoxList/sub_2/x"], "attr": {"T": {"type": "DT_INT32"}}}, {"name": "Postprocessor/BatchMultiClassNonMaxSuppression/map/while/PadOrClipBoxList/sub", "op": "Sub", "input": ["Postprocessor/BatchMultiClassNonMaxSuppression/map/while/PadOrClipBoxList/strided_slice", "Postprocessor/BatchMultiClassNonMaxSuppression/map/while/PadOrClipBoxList/sub_2/x"], "attr": {"T": {"type": "DT_INT32"}}}, {"name": "Postprocessor/BatchMultiClassNonMaxSuppression/map/while/PadOrClipBoxList/sub_1", "op": "Sub", "input": ["Postprocessor/BatchMultiClassNonMaxSuppression/map/while/PadOrClipBoxList/strided_slice_1", "Postprocessor/BatchMultiClassNonMaxSuppression/map/while/PadOrClipBoxList/sub_3/x"], "attr": {"T": {"type": "DT_INT32"}}}, {"name": "Postprocessor/BatchMultiClassNonMaxSuppression/map/while/PadOrClipBoxList/Greater_5", "op": "Greater", "input": ["Postprocessor/BatchMultiClassNonMaxSuppression/map/while/PadOrClipBoxList/sub_10", "Postprocessor/BatchMultiClassNonMaxSuppression/map/while/PadOrClipBoxList/zeros_1/Const"], "attr": {"T": {"type": "DT_INT32"}}}, {"name": "Postprocessor/BatchMultiClassNonMaxSuppression/map/while/PadOrClipBoxList/Greater_6", "op": "Greater", "input": ["Postprocessor/BatchMultiClassNonMaxSuppression/map/while/PadOrClipBoxList/sub_12", "Postprocessor/BatchMultiClassNonMaxSuppression/map/while/PadOrClipBoxList/zeros_1/Const"], "attr": {"T": {"type": "DT_INT32"}}}, {"name": "Postprocessor/BatchMultiClassNonMaxSuppression/map/while/PadOrClipBoxList/Greater", "op": "Greater", "input": ["Postprocessor/BatchMultiClassNonMaxSuppression/map/while/PadOrClipBoxList/sub", "Postprocessor/BatchMultiClassNonMaxSuppression/map/while/PadOrClipBoxList/zeros_1/Const"], "attr": {"T": {"type": "DT_INT32"}}}, {"name": "Postprocessor/BatchMultiClassNonMaxSuppression/map/while/PadOrClipBoxList/Greater_1", "op": "Greater", "input": ["Postprocessor/BatchMultiClassNonMaxSuppression/map/while/PadOrClipBoxList/sub_1", "Postprocessor/BatchMultiClassNonMaxSuppression/map/while/PadOrClipBoxList/zeros_1/Const"], "attr": {"T": {"type": "DT_INT32"}}}, {"name": "Postprocessor/BatchMultiClassNonMaxSuppression/map/while/PadOrClipBoxList/Select_5", "op": "Select", "input": ["Postprocessor/BatchMultiClassNonMaxSuppression/map/while/PadOrClipBoxList/Greater_5", "Postprocessor/BatchMultiClassNonMaxSuppression/map/while/PadOrClipBoxList/sub_2/x", "Postprocessor/BatchMultiClassNonMaxSuppression/map/while/PadOrClipBoxList/Select/e"], "attr": {"T": {"type": "DT_INT32"}}}, {"name": "Postprocessor/BatchMultiClassNonMaxSuppression/map/while/PadOrClipBoxList/Select_6", "op": "Select", "input": ["Postprocessor/BatchMultiClassNonMaxSuppression/map/while/PadOrClipBoxList/Greater_6", "Postprocessor/BatchMultiClassNonMaxSuppression/map/while/PadOrClipBoxList/sub_2/x", "Postprocessor/BatchMultiClassNonMaxSuppression/map/while/PadOrClipBoxList/Select/e"], "attr": {"T": {"type": "DT_INT32"}}}, {"name": "Postprocessor/BatchMultiClassNonMaxSuppression/map/while/PadOrClipBoxList/Select", "op": "Select", "input": ["Postprocessor/BatchMultiClassNonMaxSuppression/map/while/PadOrClipBoxList/Greater", "Postprocessor/BatchMultiClassNonMaxSuppression/map/while/PadOrClipBoxList/sub_2/x", "Postprocessor/BatchMultiClassNonMaxSuppression/map/while/PadOrClipBoxList/Select/e"], "attr": {"T": {"type": "DT_INT32"}}}, {"name": "Postprocessor/BatchMultiClassNonMaxSuppression/map/while/PadOrClipBoxList/Select_1", "op": "Select", "input": ["Postprocessor/BatchMultiClassNonMaxSuppression/map/while/PadOrClipBoxList/Greater_1", "Postprocessor/BatchMultiClassNonMaxSuppression/map/while/PadOrClipBoxList/sub_3/x", "Postprocessor/BatchMultiClassNonMaxSuppression/map/while/PadOrClipBoxList/Select/e"], "attr": {"T": {"type": "DT_INT32"}}}, {"name": "ConstantFolding/Postprocessor/BatchMultiClassNonMaxSuppression/map/while/PadOrClipBoxList/Slice_2/size_const_axis", "op": "Const", "input": ["^Postprocessor/BatchMultiClassNonMaxSuppression/map/while/PadOrClipBoxList/Select_5"], "attr": {"value": {"tensor": {"dtype": "DT_INT32", "tensorShape": {}}}, "dtype": {"type": "DT_INT32"}}}, {"name": "ConstantFolding/Postprocessor/BatchMultiClassNonMaxSuppression/map/while/PadOrClipBoxList/Slice_3/size_const_axis", "op": "Const", "input": ["^Postprocessor/BatchMultiClassNonMaxSuppression/map/while/PadOrClipBoxList/Select_6"], "attr": {"value": {"tensor": {"dtype": "DT_INT32", "tensorShape": {}}}, "dtype": {"type": "DT_INT32"}}}, {"name": "Postprocessor/BatchMultiClassNonMaxSuppression/map/while/PadOrClipBoxList/Slice/size", "op": "Pack", "input": ["Postprocessor/BatchMultiClassNonMaxSuppression/map/while/PadOrClipBoxList/Select", "Postprocessor/BatchMultiClassNonMaxSuppression/map/while/PadOrClipBoxList/Select_1"], "attr": {"T": {"type": "DT_INT32"}, "axis": {"i": "0"}, "N": {"i": "2"}}}, {"name": "Postprocessor/BatchMultiClassNonMaxSuppression/map/while/PadOrClipBoxList/Slice_2/size", "op": "ExpandDims", "input": ["Postprocessor/BatchMultiClassNonMaxSuppression/map/while/PadOrClipBoxList/Select_5", "ConstantFolding/Postprocessor/BatchMultiClassNonMaxSuppression/map/while/PadOrClipBoxList/Slice_2/size_const_axis"], "attr": {"Tdim": {"type": "DT_INT32"}, "T": {"type": "DT_INT32"}}}, {"name": "Postprocessor/BatchMultiClassNonMaxSuppression/map/while/PadOrClipBoxList/Slice_3/size", "op": "ExpandDims", "input": ["Postprocessor/BatchMultiClassNonMaxSuppression/map/while/PadOrClipBoxList/Select_6", "ConstantFolding/Postprocessor/BatchMultiClassNonMaxSuppression/map/while/PadOrClipBoxList/Slice_3/size_const_axis"], "attr": {"Tdim": {"type": "DT_INT32"}, "T": {"type": "DT_INT32"}}}, {"name": "Postprocessor/BatchMultiClassNonMaxSuppression/map/while/PadOrClipBoxList/Slice", "op": "Slice", "input": ["Postprocessor/BatchMultiClassNonMaxSuppression/map/while/MultiClassNonMaxSuppression/Gather_28/GatherV2_4", "Postprocessor/BatchMultiClassNonMaxSuppression/map/while/PadOrClipBoxList/zeros_1", "Postprocessor/BatchMultiClassNonMaxSuppression/map/while/PadOrClipBoxList/Slice/size"], "attr": {"Index": {"type": "DT_INT32"}, "T": {"type": "DT_FLOAT"}}}, {"name": "Postprocessor/BatchMultiClassNonMaxSuppression/map/while/PadOrClipBoxList/Slice_2", "op": "Slice", "input": ["Postprocessor/BatchMultiClassNonMaxSuppression/map/while/MultiClassNonMaxSuppression/Gather_28/GatherV2_2", "Postprocessor/BatchMultiClassNonMaxSuppression/map/while/PadOrClipBoxList/zeros_5", "Postprocessor/BatchMultiClassNonMaxSuppression/map/while/PadOrClipBoxList/Slice_2/size"], "attr": {"Index": {"type": "DT_INT32"}, "T": {"type": "DT_FLOAT"}}}, {"name": "Postprocessor/BatchMultiClassNonMaxSuppression/map/while/PadOrClipBoxList/Slice_3", "op": "Slice", "input": ["Postprocessor/BatchMultiClassNonMaxSuppression/map/while/MultiClassNonMaxSuppression/Gather_28/GatherV2_3", "Postprocessor/BatchMultiClassNonMaxSuppression/map/while/PadOrClipBoxList/zeros_5", "Postprocessor/BatchMultiClassNonMaxSuppression/map/while/PadOrClipBoxList/Slice_3/size"], "attr": {"Index": {"type": "DT_INT32"}, "T": {"type": "DT_FLOAT"}}}, {"name": "Postprocessor/BatchMultiClassNonMaxSuppression/map/while/PadOrClipBoxList/Shape_1", "op": "Shape", "input": ["Postprocessor/BatchMultiClassNonMaxSuppression/map/while/PadOrClipBoxList/Slice"], "attr": {"T": {"type": "DT_FLOAT"}, "out_type": {"type": "DT_INT32"}}}, {"name": "Postprocessor/BatchMultiClassNonMaxSuppression/map/while/PadOrClipBoxList/Shape_5", "op": "Shape", "input": ["Postprocessor/BatchMultiClassNonMaxSuppression/map/while/PadOrClipBoxList/Slice_2"], "attr": {"T": {"type": "DT_FLOAT"}, "out_type": {"type": "DT_INT32"}}}, {"name": "Postprocessor/BatchMultiClassNonMaxSuppression/map/while/PadOrClipBoxList/Shape_7", "op": "Shape", "input": ["Postprocessor/BatchMultiClassNonMaxSuppression/map/while/PadOrClipBoxList/Slice_3"], "attr": {"T": {"type": "DT_FLOAT"}, "out_type": {"type": "DT_INT32"}}}, {"name": "Postprocessor/BatchMultiClassNonMaxSuppression/map/while/PadOrClipBoxList/strided_slice_2", "op": "StridedSlice", "input": ["Postprocessor/BatchMultiClassNonMaxSuppression/map/while/PadOrClipBoxList/Shape_1", "Postprocessor/BatchMultiClassNonMaxSuppression/map/while/PadOrClipBoxList/strided_slice_2/stack", "Postprocessor/BatchMultiClassNonMaxSuppression/map/while/PadOrClipBoxList/strided_slice_2/stack_1", "Postprocessor/BatchMultiClassNonMaxSuppression/map/while/PadOrClipBoxList/strided_slice_2/stack_1"], "attr": {"T": {"type": "DT_INT32"}, "Index": {"type": "DT_INT32"}, "shrink_axis_mask": {"i": "1"}, "begin_mask": {"i": "0"}, "ellipsis_mask": {"i": "0"}, "new_axis_mask": {"i": "0"}, "end_mask": {"i": "0"}}}, {"name": "Postprocessor/BatchMultiClassNonMaxSuppression/map/while/PadOrClipBoxList/strided_slice_3", "op": "StridedSlice", "input": ["Postprocessor/BatchMultiClassNonMaxSuppression/map/while/PadOrClipBoxList/Shape_1", "Postprocessor/BatchMultiClassNonMaxSuppression/map/while/PadOrClipBoxList/strided_slice_2/stack_1", "Postprocessor/BatchMultiClassNonMaxSuppression/map/while/PadOrClipBoxList/zeros_1/shape_as_tensor", "Postprocessor/BatchMultiClassNonMaxSuppression/map/while/PadOrClipBoxList/strided_slice_2/stack_1"], "attr": {"T": {"type": "DT_INT32"}, "Index": {"type": "DT_INT32"}, "shrink_axis_mask": {"i": "1"}, "ellipsis_mask": {"i": "0"}, "begin_mask": {"i": "0"}, "new_axis_mask": {"i": "0"}, "end_mask": {"i": "0"}}}, {"name": "Postprocessor/BatchMultiClassNonMaxSuppression/map/while/PadOrClipBoxList/strided_slice_11", "op": "StridedSlice", "input": ["Postprocessor/BatchMultiClassNonMaxSuppression/map/while/PadOrClipBoxList/Shape_5", "Postprocessor/BatchMultiClassNonMaxSuppression/map/while/PadOrClipBoxList/strided_slice_2/stack", "Postprocessor/BatchMultiClassNonMaxSuppression/map/while/PadOrClipBoxList/strided_slice_2/stack_1", "Postprocessor/BatchMultiClassNonMaxSuppression/map/while/PadOrClipBoxList/strided_slice_2/stack_1"], "attr": {"T": {"type": "DT_INT32"}, "Index": {"type": "DT_INT32"}, "shrink_axis_mask": {"i": "1"}, "ellipsis_mask": {"i": "0"}, "begin_mask": {"i": "0"}, "new_axis_mask": {"i": "0"}, "end_mask": {"i": "0"}}}, {"name": "Postprocessor/BatchMultiClassNonMaxSuppression/map/while/PadOrClipBoxList/strided_slice_13", "op": "StridedSlice", "input": ["Postprocessor/BatchMultiClassNonMaxSuppression/map/while/PadOrClipBoxList/Shape_7", "Postprocessor/BatchMultiClassNonMaxSuppression/map/while/PadOrClipBoxList/strided_slice_2/stack", "Postprocessor/BatchMultiClassNonMaxSuppression/map/while/PadOrClipBoxList/strided_slice_2/stack_1", "Postprocessor/BatchMultiClassNonMaxSuppression/map/while/PadOrClipBoxList/strided_slice_2/stack_1"], "attr": {"T": {"type": "DT_INT32"}, "Index": {"type": "DT_INT32"}, "shrink_axis_mask": {"i": "1"}, "ellipsis_mask": {"i": "0"}, "begin_mask": {"i": "0"}, "new_axis_mask": {"i": "0"}, "end_mask": {"i": "0"}}}, {"name": "Postprocessor/BatchMultiClassNonMaxSuppression/map/while/PadOrClipBoxList/sub_2", "op": "Sub", "input": ["Postprocessor/BatchMultiClassNonMaxSuppression/map/while/PadOrClipBoxList/sub_2/x", "Postprocessor/BatchMultiClassNonMaxSuppression/map/while/PadOrClipBoxList/strided_slice_2"], "attr": {"T": {"type": "DT_INT32"}}}, {"name": "Postprocessor/BatchMultiClassNonMaxSuppression/map/while/PadOrClipBoxList/sub_3", "op": "Sub", "input": ["Postprocessor/BatchMultiClassNonMaxSuppression/map/while/PadOrClipBoxList/sub_3/x", "Postprocessor/BatchMultiClassNonMaxSuppression/map/while/PadOrClipBoxList/strided_slice_3"], "attr": {"T": {"type": "DT_INT32"}}}, {"name": "Postprocessor/BatchMultiClassNonMaxSuppression/map/while/PadOrClipBoxList/sub_11", "op": "Sub", "input": ["Postprocessor/BatchMultiClassNonMaxSuppression/map/while/PadOrClipBoxList/sub_2/x", "Postprocessor/BatchMultiClassNonMaxSuppression/map/while/PadOrClipBoxList/strided_slice_11"], "attr": {"T": {"type": "DT_INT32"}}}, {"name": "Postprocessor/BatchMultiClassNonMaxSuppression/map/while/PadOrClipBoxList/sub_13", "op": "Sub", "input": ["Postprocessor/BatchMultiClassNonMaxSuppression/map/while/PadOrClipBoxList/sub_2/x", "Postprocessor/BatchMultiClassNonMaxSuppression/map/while/PadOrClipBoxList/strided_slice_13"], "attr": {"T": {"type": "DT_INT32"}}}, {"name": "Postprocessor/BatchMultiClassNonMaxSuppression/map/while/PadOrClipBoxList/stack/values_1", "op": "Pack", "input": ["Postprocessor/BatchMultiClassNonMaxSuppression/map/while/PadOrClipBoxList/sub_2", "Postprocessor/BatchMultiClassNonMaxSuppression/map/while/PadOrClipBoxList/sub_3"], "attr": {"T": {"type": "DT_INT32"}, "axis": {"i": "0"}, "N": {"i": "2"}}}, {"name": "ConstantFolding/Postprocessor/BatchMultiClassNonMaxSuppression/map/while/PadOrClipBoxList/stack_2/values_1_const_axis", "op": "Const", "input": ["^Postprocessor/BatchMultiClassNonMaxSuppression/map/while/PadOrClipBoxList/sub_11"], "attr": {"value": {"tensor": {"dtype": "DT_INT32", "tensorShape": {}}}, "dtype": {"type": "DT_INT32"}}}, {"name": "ConstantFolding/Postprocessor/BatchMultiClassNonMaxSuppression/map/while/PadOrClipBoxList/stack_3/values_1_const_axis", "op": "Const", "input": ["^Postprocessor/BatchMultiClassNonMaxSuppression/map/while/PadOrClipBoxList/sub_13"], "attr": {"value": {"tensor": {"dtype": "DT_INT32", "tensorShape": {}}}, "dtype": {"type": "DT_INT32"}}}, {"name": "Postprocessor/BatchMultiClassNonMaxSuppression/map/while/PadOrClipBoxList/stack", "op": "Pack", "input": ["Postprocessor/BatchMultiClassNonMaxSuppression/map/while/PadOrClipBoxList/zeros_1", "Postprocessor/BatchMultiClassNonMaxSuppression/map/while/PadOrClipBoxList/stack/values_1"], "attr": {"T": {"type": "DT_INT32"}, "axis": {"i": "1"}, "N": {"i": "2"}}}, {"name": "Postprocessor/BatchMultiClassNonMaxSuppression/map/while/PadOrClipBoxList/stack_2/values_1", "op": "ExpandDims", "input": ["Postprocessor/BatchMultiClassNonMaxSuppression/map/while/PadOrClipBoxList/sub_11", "ConstantFolding/Postprocessor/BatchMultiClassNonMaxSuppression/map/while/PadOrClipBoxList/stack_2/values_1_const_axis"], "attr": {"Tdim": {"type": "DT_INT32"}, "T": {"type": "DT_INT32"}}}, {"name": "Postprocessor/BatchMultiClassNonMaxSuppression/map/while/PadOrClipBoxList/stack_3/values_1", "op": "ExpandDims", "input": ["Postprocessor/BatchMultiClassNonMaxSuppression/map/while/PadOrClipBoxList/sub_13", "ConstantFolding/Postprocessor/BatchMultiClassNonMaxSuppression/map/while/PadOrClipBoxList/stack_3/values_1_const_axis"], "attr": {"Tdim": {"type": "DT_INT32"}, "T": {"type": "DT_INT32"}}}, {"name": "Postprocessor/BatchMultiClassNonMaxSuppression/map/while/PadOrClipBoxList/Pad", "op": "Pad", "input": ["Postprocessor/BatchMultiClassNonMaxSuppression/map/while/PadOrClipBoxList/Slice", "Postprocessor/BatchMultiClassNonMaxSuppression/map/while/PadOrClipBoxList/stack"], "attr": {"T": {"type": "DT_FLOAT"}, "Tpaddings": {"type": "DT_INT32"}}}, {"name": "Postprocessor/BatchMultiClassNonMaxSuppression/map/while/PadOrClipBoxList/stack_2", "op": "Pack", "input": ["Postprocessor/BatchMultiClassNonMaxSuppression/map/while/PadOrClipBoxList/zeros_5", "Postprocessor/BatchMultiClassNonMaxSuppression/map/while/PadOrClipBoxList/stack_2/values_1"], "attr": {"T": {"type": "DT_INT32"}, "axis": {"i": "1"}, "N": {"i": "2"}}}, {"name": "Postprocessor/BatchMultiClassNonMaxSuppression/map/while/PadOrClipBoxList/stack_3", "op": "Pack", "input": ["Postprocessor/BatchMultiClassNonMaxSuppression/map/while/PadOrClipBoxList/zeros_5", "Postprocessor/BatchMultiClassNonMaxSuppression/map/while/PadOrClipBoxList/stack_3/values_1"], "attr": {"T": {"type": "DT_INT32"}, "axis": {"i": "1"}, "N": {"i": "2"}}}, {"name": "Postprocessor/BatchMultiClassNonMaxSuppression/map/while/TensorArrayWrite/TensorArrayWriteV3", "op": "TensorArrayWriteV3", "input": ["Postprocessor/BatchMultiClassNonMaxSuppression/map/while/TensorArrayWrite/TensorArrayWriteV3/Enter", "Postprocessor/BatchMultiClassNonMaxSuppression/map/while/Switch_1:1", "Postprocessor/BatchMultiClassNonMaxSuppression/map/while/PadOrClipBoxList/Pad", "Postprocessor/BatchMultiClassNonMaxSuppression/map/while/Switch_2:1"], "attr": {"T": {"type": "DT_FLOAT"}}}, {"name": "Postprocessor/BatchMultiClassNonMaxSuppression/map/while/PadOrClipBoxList/Pad_2", "op": "Pad", "input": ["Postprocessor/BatchMultiClassNonMaxSuppression/map/while/PadOrClipBoxList/Slice_2", "Postprocessor/BatchMultiClassNonMaxSuppression/map/while/PadOrClipBoxList/stack_2"], "attr": {"T": {"type": "DT_FLOAT"}, "Tpaddings": {"type": "DT_INT32"}}}, {"name": "Postprocessor/BatchMultiClassNonMaxSuppression/map/while/PadOrClipBoxList/Pad_3", "op": "Pad", "input": ["Postprocessor/BatchMultiClassNonMaxSuppression/map/while/PadOrClipBoxList/Slice_3", "Postprocessor/BatchMultiClassNonMaxSuppression/map/while/PadOrClipBoxList/stack_3"], "attr": {"T": {"type": "DT_FLOAT"}, "Tpaddings": {"type": "DT_INT32"}}}, {"name": "Postprocessor/BatchMultiClassNonMaxSuppression/map/while/NextIteration_2", "op": "NextIteration", "input": ["Postprocessor/BatchMultiClassNonMaxSuppression/map/while/TensorArrayWrite/TensorArrayWriteV3"], "attr": {"T": {"type": "DT_FLOAT"}}}, {"name": "Postprocessor/BatchMultiClassNonMaxSuppression/map/while/TensorArrayWrite_2/TensorArrayWriteV3", "op": "TensorArrayWriteV3", "input": ["Postprocessor/BatchMultiClassNonMaxSuppression/map/while/TensorArrayWrite_2/TensorArrayWriteV3/Enter", "Postprocessor/BatchMultiClassNonMaxSuppression/map/while/Switch_1:1", "Postprocessor/BatchMultiClassNonMaxSuppression/map/while/PadOrClipBoxList/Pad_2", "Postprocessor/BatchMultiClassNonMaxSuppression/map/while/Switch_4:1"], "attr": {"T": {"type": "DT_FLOAT"}}}, {"name": "Postprocessor/BatchMultiClassNonMaxSuppression/map/while/TensorArrayWrite_1/TensorArrayWriteV3", "op": "TensorArrayWriteV3", "input": ["Postprocessor/BatchMultiClassNonMaxSuppression/map/while/TensorArrayWrite_1/TensorArrayWriteV3/Enter", "Postprocessor/BatchMultiClassNonMaxSuppression/map/while/Switch_1:1", "Postprocessor/BatchMultiClassNonMaxSuppression/map/while/PadOrClipBoxList/Pad_3", "Postprocessor/BatchMultiClassNonMaxSuppression/map/while/Switch_3:1"], "attr": {"T": {"type": "DT_FLOAT"}}}, {"name": "Postprocessor/BatchMultiClassNonMaxSuppression/map/while/NextIteration_4", "op": "NextIteration", "input": ["Postprocessor/BatchMultiClassNonMaxSuppression/map/while/TensorArrayWrite_2/TensorArrayWriteV3"], "attr": {"T": {"type": "DT_FLOAT"}}}, {"name": "Postprocessor/BatchMultiClassNonMaxSuppression/map/while/NextIteration_3", "op": "NextIteration", "input": ["Postprocessor/BatchMultiClassNonMaxSuppression/map/while/TensorArrayWrite_1/TensorArrayWriteV3"], "attr": {"T": {"type": "DT_FLOAT"}}}], "versions": {"producer": 175}}, "weightsManifest": [{"paths": ["group1-shard1of5.bin", "group1-shard2of5.bin", "group1-shard3of5.bin", "group1-shard4of5.bin", "group1-shard5of5.bin"], "weights": [{"name": "BoxPredictor_0/ClassPredictor/weights", "shape": [1, 1, 576, 84], "dtype": "float32"}, {"name": "BoxPredictor_0/ClassPredictor/biases", "shape": [84], "dtype": "float32"}, {"name": "BoxPredictor_1/ClassPredictor/weights", "shape": [1, 1, 1280, 168], "dtype": "float32"}, {"name": "BoxPredictor_1/ClassPredictor/biases", "shape": [168], "dtype": "float32"}, {"name": "BoxPredictor_2/ClassPredictor/weights", "shape": [1, 1, 512, 168], "dtype": "float32"}, {"name": "BoxPredictor_2/ClassPredictor/biases", "shape": [168], "dtype": "float32"}, {"name": "BoxPredictor_3/ClassPredictor/weights", "shape": [1, 1, 256, 168], "dtype": "float32"}, {"name": "BoxPredictor_3/ClassPredictor/biases", "shape": [168], "dtype": "float32"}, {"name": "BoxPredictor_4/ClassPredictor/weights", "shape": [1, 1, 256, 168], "dtype": "float32"}, {"name": "BoxPredictor_4/ClassPredictor/biases", "shape": [168], "dtype": "float32"}, {"name": "BoxPredictor_5/ClassPredictor/weights", "shape": [1, 1, 128, 168], "dtype": "float32"}, {"name": "BoxPredictor_5/ClassPredictor/biases", "shape": [168], "dtype": "float32"}, {"name": "BoxPredictor_0/Reshape_1/shape/2", "shape": [], "dtype": "int32"}, {"name": "Postprocessor/Slice/begin", "shape": [3], "dtype": "int32"}, {"name": "Postprocessor/Slice/size", "shape": [3], "dtype": "int32"}, {"name": "ConstantFolding/Postprocessor/truediv_recip", "shape": [], "dtype": "float32"}, {"name": "ConstantFolding/Postprocessor/Decode/truediv_recip", "shape": [], "dtype": "float32"}, {"name": "ConstantFolding/Postprocessor/Decode/truediv_2_recip", "shape": [], "dtype": "float32"}, {"name": "ConstantFolding/Postprocessor/Decode/truediv_4_recip", "shape": [], "dtype": "float32"}, {"name": "Postprocessor/ExpandDims", "shape": [1, 7326, 4], "dtype": "float32"}, {"name": "Postprocessor/Reshape_1/shape", "shape": [2], "dtype": "int32"}, {"name": "BoxPredictor_0/BoxEncodingPredictor/weights", "shape": [1, 1, 576, 12], "dtype": "float32"}, {"name": "BoxPredictor_0/BoxEncodingPredictor/biases", "shape": [12], "dtype": "float32"}, {"name": "BoxPredictor_1/BoxEncodingPredictor/weights", "shape": [1, 1, 1280, 24], "dtype": "float32"}, {"name": "BoxPredictor_1/BoxEncodingPredictor/biases", "shape": [24], "dtype": "float32"}, {"name": "BoxPredictor_2/BoxEncodingPredictor/weights", "shape": [1, 1, 512, 24], "dtype": "float32"}, {"name": "BoxPredictor_2/BoxEncodingPredictor/biases", "shape": [24], "dtype": "float32"}, {"name": "BoxPredictor_3/BoxEncodingPredictor/weights", "shape": [1, 1, 256, 24], "dtype": "float32"}, {"name": "BoxPredictor_3/BoxEncodingPredictor/biases", "shape": [24], "dtype": "float32"}, {"name": "BoxPredictor_4/BoxEncodingPredictor/weights", "shape": [1, 1, 256, 24], "dtype": "float32"}, {"name": "BoxPredictor_4/BoxEncodingPredictor/biases", "shape": [24], "dtype": "float32"}, {"name": "BoxPredictor_5/BoxEncodingPredictor/weights", "shape": [1, 1, 128, 24], "dtype": "float32"}, {"name": "BoxPredictor_5/BoxEncodingPredictor/biases", "shape": [24], "dtype": "float32"}, {"name": "Postprocessor/BatchMultiClassNonMaxSuppression/map/TensorArrayStack/range/start", "shape": [], "dtype": "int32"}, {"name": "Preprocessor/mul/x", "shape": [], "dtype": "float32"}, {"name": "add/y", "shape": [], "dtype": "float32"}, {"name": "BoxPredictor_0/Reshape_1/shape/1", "shape": [], "dtype": "int32"}, {"name": "Postprocessor/BatchMultiClassNonMaxSuppression/map/TensorArrayStack/range/delta", "shape": [], "dtype": "int32"}, {"name": "Postprocessor/BatchMultiClassNonMaxSuppression/strided_slice_1/stack_1", "shape": [1], "dtype": "int32"}, {"name": "BoxPredictor_0/Reshape/shape/3", "shape": [], "dtype": "int32"}, {"name": "Postprocessor/ExpandDims_1/dim", "shape": [], "dtype": "int32"}, {"name": "Postprocessor/BatchMultiClassNonMaxSuppression/map/TensorArrayUnstack_1/strided_slice/stack", "shape": [1], "dtype": "int32"}, {"name": "Postprocessor/BatchMultiClassNonMaxSuppression/map/TensorArrayUnstack_1/strided_slice/stack_1", "shape": [1], "dtype": "int32"}, {"name": "FeatureExtractor/MobilenetV2/Conv/Conv2D_weights", "shape": [3, 3, 3, 32], "dtype": "float32"}, {"name": "FeatureExtractor/MobilenetV2/Conv/Conv2D_bn_offset", "shape": [32], "dtype": "float32"}, {"name": "FeatureExtractor/MobilenetV2/expanded_conv/depthwise/depthwise_weights", "shape": [3, 3, 32, 1], "dtype": "float32"}, {"name": "FeatureExtractor/MobilenetV2/expanded_conv/depthwise/depthwise_bn_offset", "shape": [32], "dtype": "float32"}, {"name": "FeatureExtractor/MobilenetV2/expanded_conv/project/Conv2D_weights", "shape": [1, 1, 32, 16], "dtype": "float32"}, {"name": "FeatureExtractor/MobilenetV2/expanded_conv/project/Conv2D_bn_offset", "shape": [16], "dtype": "float32"}, {"name": "FeatureExtractor/MobilenetV2/expanded_conv_1/expand/Conv2D_weights", "shape": [1, 1, 16, 96], "dtype": "float32"}, {"name": "FeatureExtractor/MobilenetV2/expanded_conv_1/expand/Conv2D_bn_offset", "shape": [96], "dtype": "float32"}, {"name": "FeatureExtractor/MobilenetV2/expanded_conv_1/depthwise/depthwise_weights", "shape": [3, 3, 96, 1], "dtype": "float32"}, {"name": "FeatureExtractor/MobilenetV2/expanded_conv_1/depthwise/depthwise_bn_offset", "shape": [96], "dtype": "float32"}, {"name": "FeatureExtractor/MobilenetV2/expanded_conv_1/project/Conv2D_weights", "shape": [1, 1, 96, 24], "dtype": "float32"}, {"name": "FeatureExtractor/MobilenetV2/expanded_conv_1/project/Conv2D_bn_offset", "shape": [24], "dtype": "float32"}, {"name": "FeatureExtractor/MobilenetV2/expanded_conv_2/expand/Conv2D_weights", "shape": [1, 1, 24, 144], "dtype": "float32"}, {"name": "FeatureExtractor/MobilenetV2/expanded_conv_2/expand/Conv2D_bn_offset", "shape": [144], "dtype": "float32"}, {"name": "FeatureExtractor/MobilenetV2/expanded_conv_2/depthwise/depthwise_weights", "shape": [3, 3, 144, 1], "dtype": "float32"}, {"name": "FeatureExtractor/MobilenetV2/expanded_conv_2/depthwise/depthwise_bn_offset", "shape": [144], "dtype": "float32"}, {"name": "FeatureExtractor/MobilenetV2/expanded_conv_2/project/Conv2D_weights", "shape": [1, 1, 144, 24], "dtype": "float32"}, {"name": "FeatureExtractor/MobilenetV2/expanded_conv_2/project/Conv2D_bn_offset", "shape": [24], "dtype": "float32"}, {"name": "FeatureExtractor/MobilenetV2/expanded_conv_3/expand/Conv2D_weights", "shape": [1, 1, 24, 144], "dtype": "float32"}, {"name": "FeatureExtractor/MobilenetV2/expanded_conv_3/expand/Conv2D_bn_offset", "shape": [144], "dtype": "float32"}, {"name": "FeatureExtractor/MobilenetV2/expanded_conv_3/depthwise/depthwise_weights", "shape": [3, 3, 144, 1], "dtype": "float32"}, {"name": "FeatureExtractor/MobilenetV2/expanded_conv_3/depthwise/depthwise_bn_offset", "shape": [144], "dtype": "float32"}, {"name": "FeatureExtractor/MobilenetV2/expanded_conv_3/project/Conv2D_weights", "shape": [1, 1, 144, 32], "dtype": "float32"}, {"name": "FeatureExtractor/MobilenetV2/expanded_conv_3/project/Conv2D_bn_offset", "shape": [32], "dtype": "float32"}, {"name": "FeatureExtractor/MobilenetV2/expanded_conv_4/expand/Conv2D_weights", "shape": [1, 1, 32, 192], "dtype": "float32"}, {"name": "FeatureExtractor/MobilenetV2/expanded_conv_4/expand/Conv2D_bn_offset", "shape": [192], "dtype": "float32"}, {"name": "FeatureExtractor/MobilenetV2/expanded_conv_4/depthwise/depthwise_weights", "shape": [3, 3, 192, 1], "dtype": "float32"}, {"name": "FeatureExtractor/MobilenetV2/expanded_conv_4/depthwise/depthwise_bn_offset", "shape": [192], "dtype": "float32"}, {"name": "FeatureExtractor/MobilenetV2/expanded_conv_4/project/Conv2D_weights", "shape": [1, 1, 192, 32], "dtype": "float32"}, {"name": "FeatureExtractor/MobilenetV2/expanded_conv_4/project/Conv2D_bn_offset", "shape": [32], "dtype": "float32"}, {"name": "FeatureExtractor/MobilenetV2/expanded_conv_5/expand/Conv2D_weights", "shape": [1, 1, 32, 192], "dtype": "float32"}, {"name": "FeatureExtractor/MobilenetV2/expanded_conv_5/expand/Conv2D_bn_offset", "shape": [192], "dtype": "float32"}, {"name": "FeatureExtractor/MobilenetV2/expanded_conv_5/depthwise/depthwise_weights", "shape": [3, 3, 192, 1], "dtype": "float32"}, {"name": "FeatureExtractor/MobilenetV2/expanded_conv_5/depthwise/depthwise_bn_offset", "shape": [192], "dtype": "float32"}, {"name": "FeatureExtractor/MobilenetV2/expanded_conv_5/project/Conv2D_weights", "shape": [1, 1, 192, 32], "dtype": "float32"}, {"name": "FeatureExtractor/MobilenetV2/expanded_conv_5/project/Conv2D_bn_offset", "shape": [32], "dtype": "float32"}, {"name": "FeatureExtractor/MobilenetV2/expanded_conv_6/expand/Conv2D_weights", "shape": [1, 1, 32, 192], "dtype": "float32"}, {"name": "FeatureExtractor/MobilenetV2/expanded_conv_6/expand/Conv2D_bn_offset", "shape": [192], "dtype": "float32"}, {"name": "FeatureExtractor/MobilenetV2/expanded_conv_6/depthwise/depthwise_weights", "shape": [3, 3, 192, 1], "dtype": "float32"}, {"name": "FeatureExtractor/MobilenetV2/expanded_conv_6/depthwise/depthwise_bn_offset", "shape": [192], "dtype": "float32"}, {"name": "FeatureExtractor/MobilenetV2/expanded_conv_6/project/Conv2D_weights", "shape": [1, 1, 192, 64], "dtype": "float32"}, {"name": "FeatureExtractor/MobilenetV2/expanded_conv_6/project/Conv2D_bn_offset", "shape": [64], "dtype": "float32"}, {"name": "FeatureExtractor/MobilenetV2/expanded_conv_7/expand/Conv2D_weights", "shape": [1, 1, 64, 384], "dtype": "float32"}, {"name": "FeatureExtractor/MobilenetV2/expanded_conv_7/expand/Conv2D_bn_offset", "shape": [384], "dtype": "float32"}, {"name": "FeatureExtractor/MobilenetV2/expanded_conv_7/depthwise/depthwise_weights", "shape": [3, 3, 384, 1], "dtype": "float32"}, {"name": "FeatureExtractor/MobilenetV2/expanded_conv_7/depthwise/depthwise_bn_offset", "shape": [384], "dtype": "float32"}, {"name": "FeatureExtractor/MobilenetV2/expanded_conv_7/project/Conv2D_weights", "shape": [1, 1, 384, 64], "dtype": "float32"}, {"name": "FeatureExtractor/MobilenetV2/expanded_conv_7/project/Conv2D_bn_offset", "shape": [64], "dtype": "float32"}, {"name": "FeatureExtractor/MobilenetV2/expanded_conv_8/expand/Conv2D_weights", "shape": [1, 1, 64, 384], "dtype": "float32"}, {"name": "FeatureExtractor/MobilenetV2/expanded_conv_8/expand/Conv2D_bn_offset", "shape": [384], "dtype": "float32"}, {"name": "FeatureExtractor/MobilenetV2/expanded_conv_8/depthwise/depthwise_weights", "shape": [3, 3, 384, 1], "dtype": "float32"}, {"name": "FeatureExtractor/MobilenetV2/expanded_conv_8/depthwise/depthwise_bn_offset", "shape": [384], "dtype": "float32"}, {"name": "FeatureExtractor/MobilenetV2/expanded_conv_8/project/Conv2D_weights", "shape": [1, 1, 384, 64], "dtype": "float32"}, {"name": "FeatureExtractor/MobilenetV2/expanded_conv_8/project/Conv2D_bn_offset", "shape": [64], "dtype": "float32"}, {"name": "FeatureExtractor/MobilenetV2/expanded_conv_9/expand/Conv2D_weights", "shape": [1, 1, 64, 384], "dtype": "float32"}, {"name": "FeatureExtractor/MobilenetV2/expanded_conv_9/expand/Conv2D_bn_offset", "shape": [384], "dtype": "float32"}, {"name": "FeatureExtractor/MobilenetV2/expanded_conv_9/depthwise/depthwise_weights", "shape": [3, 3, 384, 1], "dtype": "float32"}, {"name": "FeatureExtractor/MobilenetV2/expanded_conv_9/depthwise/depthwise_bn_offset", "shape": [384], "dtype": "float32"}, {"name": "FeatureExtractor/MobilenetV2/expanded_conv_9/project/Conv2D_weights", "shape": [1, 1, 384, 64], "dtype": "float32"}, {"name": "FeatureExtractor/MobilenetV2/expanded_conv_9/project/Conv2D_bn_offset", "shape": [64], "dtype": "float32"}, {"name": "FeatureExtractor/MobilenetV2/expanded_conv_10/expand/Conv2D_weights", "shape": [1, 1, 64, 384], "dtype": "float32"}, {"name": "FeatureExtractor/MobilenetV2/expanded_conv_10/expand/Conv2D_bn_offset", "shape": [384], "dtype": "float32"}, {"name": "FeatureExtractor/MobilenetV2/expanded_conv_10/depthwise/depthwise_weights", "shape": [3, 3, 384, 1], "dtype": "float32"}, {"name": "FeatureExtractor/MobilenetV2/expanded_conv_10/depthwise/depthwise_bn_offset", "shape": [384], "dtype": "float32"}, {"name": "FeatureExtractor/MobilenetV2/expanded_conv_10/project/Conv2D_weights", "shape": [1, 1, 384, 96], "dtype": "float32"}, {"name": "FeatureExtractor/MobilenetV2/expanded_conv_10/project/Conv2D_bn_offset", "shape": [96], "dtype": "float32"}, {"name": "FeatureExtractor/MobilenetV2/expanded_conv_11/expand/Conv2D_weights", "shape": [1, 1, 96, 576], "dtype": "float32"}, {"name": "FeatureExtractor/MobilenetV2/expanded_conv_11/expand/Conv2D_bn_offset", "shape": [576], "dtype": "float32"}, {"name": "FeatureExtractor/MobilenetV2/expanded_conv_11/depthwise/depthwise_weights", "shape": [3, 3, 576, 1], "dtype": "float32"}, {"name": "FeatureExtractor/MobilenetV2/expanded_conv_11/depthwise/depthwise_bn_offset", "shape": [576], "dtype": "float32"}, {"name": "FeatureExtractor/MobilenetV2/expanded_conv_11/project/Conv2D_weights", "shape": [1, 1, 576, 96], "dtype": "float32"}, {"name": "FeatureExtractor/MobilenetV2/expanded_conv_11/project/Conv2D_bn_offset", "shape": [96], "dtype": "float32"}, {"name": "FeatureExtractor/MobilenetV2/expanded_conv_12/expand/Conv2D_weights", "shape": [1, 1, 96, 576], "dtype": "float32"}, {"name": "FeatureExtractor/MobilenetV2/expanded_conv_12/expand/Conv2D_bn_offset", "shape": [576], "dtype": "float32"}, {"name": "FeatureExtractor/MobilenetV2/expanded_conv_12/depthwise/depthwise_weights", "shape": [3, 3, 576, 1], "dtype": "float32"}, {"name": "FeatureExtractor/MobilenetV2/expanded_conv_12/depthwise/depthwise_bn_offset", "shape": [576], "dtype": "float32"}, {"name": "FeatureExtractor/MobilenetV2/expanded_conv_12/project/Conv2D_weights", "shape": [1, 1, 576, 96], "dtype": "float32"}, {"name": "FeatureExtractor/MobilenetV2/expanded_conv_12/project/Conv2D_bn_offset", "shape": [96], "dtype": "float32"}, {"name": "FeatureExtractor/MobilenetV2/expanded_conv_13/expand/Conv2D_weights", "shape": [1, 1, 96, 576], "dtype": "float32"}, {"name": "FeatureExtractor/MobilenetV2/expanded_conv_13/expand/Conv2D_bn_offset", "shape": [576], "dtype": "float32"}, {"name": "FeatureExtractor/MobilenetV2/expanded_conv_13/depthwise/depthwise_weights", "shape": [3, 3, 576, 1], "dtype": "float32"}, {"name": "FeatureExtractor/MobilenetV2/expanded_conv_13/depthwise/depthwise_bn_offset", "shape": [576], "dtype": "float32"}, {"name": "FeatureExtractor/MobilenetV2/expanded_conv_13/project/Conv2D_weights", "shape": [1, 1, 576, 160], "dtype": "float32"}, {"name": "FeatureExtractor/MobilenetV2/expanded_conv_13/project/Conv2D_bn_offset", "shape": [160], "dtype": "float32"}, {"name": "FeatureExtractor/MobilenetV2/expanded_conv_14/expand/Conv2D_weights", "shape": [1, 1, 160, 960], "dtype": "float32"}, {"name": "FeatureExtractor/MobilenetV2/expanded_conv_14/expand/Conv2D_bn_offset", "shape": [960], "dtype": "float32"}, {"name": "FeatureExtractor/MobilenetV2/expanded_conv_14/depthwise/depthwise_weights", "shape": [3, 3, 960, 1], "dtype": "float32"}, {"name": "FeatureExtractor/MobilenetV2/expanded_conv_14/depthwise/depthwise_bn_offset", "shape": [960], "dtype": "float32"}, {"name": "FeatureExtractor/MobilenetV2/expanded_conv_14/project/Conv2D_weights", "shape": [1, 1, 960, 160], "dtype": "float32"}, {"name": "FeatureExtractor/MobilenetV2/expanded_conv_14/project/Conv2D_bn_offset", "shape": [160], "dtype": "float32"}, {"name": "FeatureExtractor/MobilenetV2/expanded_conv_15/expand/Conv2D_weights", "shape": [1, 1, 160, 960], "dtype": "float32"}, {"name": "FeatureExtractor/MobilenetV2/expanded_conv_15/expand/Conv2D_bn_offset", "shape": [960], "dtype": "float32"}, {"name": "FeatureExtractor/MobilenetV2/expanded_conv_15/depthwise/depthwise_weights", "shape": [3, 3, 960, 1], "dtype": "float32"}, {"name": "FeatureExtractor/MobilenetV2/expanded_conv_15/depthwise/depthwise_bn_offset", "shape": [960], "dtype": "float32"}, {"name": "FeatureExtractor/MobilenetV2/expanded_conv_15/project/Conv2D_weights", "shape": [1, 1, 960, 160], "dtype": "float32"}, {"name": "FeatureExtractor/MobilenetV2/expanded_conv_15/project/Conv2D_bn_offset", "shape": [160], "dtype": "float32"}, {"name": "FeatureExtractor/MobilenetV2/expanded_conv_16/expand/Conv2D_weights", "shape": [1, 1, 160, 960], "dtype": "float32"}, {"name": "FeatureExtractor/MobilenetV2/expanded_conv_16/expand/Conv2D_bn_offset", "shape": [960], "dtype": "float32"}, {"name": "FeatureExtractor/MobilenetV2/expanded_conv_16/depthwise/depthwise_weights", "shape": [3, 3, 960, 1], "dtype": "float32"}, {"name": "FeatureExtractor/MobilenetV2/expanded_conv_16/depthwise/depthwise_bn_offset", "shape": [960], "dtype": "float32"}, {"name": "FeatureExtractor/MobilenetV2/expanded_conv_16/project/Conv2D_weights", "shape": [1, 1, 960, 320], "dtype": "float32"}, {"name": "FeatureExtractor/MobilenetV2/expanded_conv_16/project/Conv2D_bn_offset", "shape": [320], "dtype": "float32"}, {"name": "FeatureExtractor/MobilenetV2/Conv_1/Conv2D_weights", "shape": [1, 1, 320, 1280], "dtype": "float32"}, {"name": "FeatureExtractor/MobilenetV2/Conv_1/Conv2D_bn_offset", "shape": [1280], "dtype": "float32"}, {"name": "FeatureExtractor/MobilenetV2/layer_19_1_Conv2d_2_1x1_256/Conv2D_weights", "shape": [1, 1, 1280, 256], "dtype": "float32"}, {"name": "FeatureExtractor/MobilenetV2/layer_19_1_Conv2d_2_1x1_256/Conv2D_bn_offset", "shape": [256], "dtype": "float32"}, {"name": "FeatureExtractor/MobilenetV2/layer_19_2_Conv2d_2_3x3_s2_512/Conv2D_weights", "shape": [3, 3, 256, 512], "dtype": "float32"}, {"name": "FeatureExtractor/MobilenetV2/layer_19_2_Conv2d_2_3x3_s2_512/Conv2D_bn_offset", "shape": [512], "dtype": "float32"}, {"name": "FeatureExtractor/MobilenetV2/layer_19_1_Conv2d_3_1x1_128/Conv2D_weights", "shape": [1, 1, 512, 128], "dtype": "float32"}, {"name": "FeatureExtractor/MobilenetV2/layer_19_1_Conv2d_3_1x1_128/Conv2D_bn_offset", "shape": [128], "dtype": "float32"}, {"name": "FeatureExtractor/MobilenetV2/layer_19_2_Conv2d_3_3x3_s2_256/Conv2D_weights", "shape": [3, 3, 128, 256], "dtype": "float32"}, {"name": "FeatureExtractor/MobilenetV2/layer_19_2_Conv2d_3_3x3_s2_256/Conv2D_bn_offset", "shape": [256], "dtype": "float32"}, {"name": "FeatureExtractor/MobilenetV2/layer_19_1_Conv2d_4_1x1_128/Conv2D_weights", "shape": [1, 1, 256, 128], "dtype": "float32"}, {"name": "FeatureExtractor/MobilenetV2/layer_19_1_Conv2d_4_1x1_128/Conv2D_bn_offset", "shape": [128], "dtype": "float32"}, {"name": "FeatureExtractor/MobilenetV2/layer_19_2_Conv2d_4_3x3_s2_256/Conv2D_weights", "shape": [3, 3, 128, 256], "dtype": "float32"}, {"name": "FeatureExtractor/MobilenetV2/layer_19_2_Conv2d_4_3x3_s2_256/Conv2D_bn_offset", "shape": [256], "dtype": "float32"}, {"name": "FeatureExtractor/MobilenetV2/layer_19_1_Conv2d_5_1x1_64/Conv2D_weights", "shape": [1, 1, 256, 64], "dtype": "float32"}, {"name": "FeatureExtractor/MobilenetV2/layer_19_1_Conv2d_5_1x1_64/Conv2D_bn_offset", "shape": [64], "dtype": "float32"}, {"name": "FeatureExtractor/MobilenetV2/layer_19_2_Conv2d_5_3x3_s2_128/Conv2D_weights", "shape": [3, 3, 64, 128], "dtype": "float32"}, {"name": "FeatureExtractor/MobilenetV2/layer_19_2_Conv2d_5_3x3_s2_128/Conv2D_bn_offset", "shape": [128], "dtype": "float32"}, {"name": "Preprocessor/map/while/ResizeImage/stack_1", "shape": [3], "dtype": "int32"}, {"name": "Preprocessor/map/while/ResizeImage/resize_images/ExpandDims/dim", "shape": [], "dtype": "int32"}, {"name": "Preprocessor/map/while/ResizeImage/stack", "shape": [2], "dtype": "int32"}, {"name": "Preprocessor/map/while/add/y", "shape": [], "dtype": "int32"}, {"name": "Postprocessor/Decode/transpose/sub_1", "shape": [2], "dtype": "int32"}, {"name": "Postprocessor/Decode/get_center_coordinates_and_sizes/transpose/sub_1", "shape": [2], "dtype": "int32"}, {"name": "Postprocessor/Decode/transpose_1/sub_1", "shape": [2], "dtype": "int32"}, {"name": "ConstantFolding/Postprocessor/BatchMultiClassNonMaxSuppression/ones/packed_const_axis", "shape": [], "dtype": "int32"}, {"name": "Postprocessor/BatchMultiClassNonMaxSuppression/map/while/PadOrClipBoxList/sub_3/x", "shape": [], "dtype": "int32"}, {"name": "Postprocessor/BatchMultiClassNonMaxSuppression/map/while/PadOrClipBoxList/zeros_1/shape_as_tensor", "shape": [1], "dtype": "int32"}, {"name": "Postprocessor/BatchMultiClassNonMaxSuppression/map/while/MultiClassNonMaxSuppression/add_5/y", "shape": [], "dtype": "float32"}, {"name": "Postprocessor/BatchMultiClassNonMaxSuppression/map/while/MultiClassNonMaxSuppression/add_7/y", "shape": [], "dtype": "float32"}, {"name": "Postprocessor/BatchMultiClassNonMaxSuppression/map/while/MultiClassNonMaxSuppression/add_9/y", "shape": [], "dtype": "float32"}, {"name": "Postprocessor/BatchMultiClassNonMaxSuppression/map/while/MultiClassNonMaxSuppression/add_11/y", "shape": [], "dtype": "float32"}, {"name": "Postprocessor/BatchMultiClassNonMaxSuppression/map/while/MultiClassNonMaxSuppression/add_13/y", "shape": [], "dtype": "float32"}, {"name": "Postprocessor/BatchMultiClassNonMaxSuppression/map/while/MultiClassNonMaxSuppression/add_15/y", "shape": [], "dtype": "float32"}, {"name": "Postprocessor/BatchMultiClassNonMaxSuppression/map/while/MultiClassNonMaxSuppression/add_17/y", "shape": [], "dtype": "float32"}, {"name": "Postprocessor/BatchMultiClassNonMaxSuppression/map/while/MultiClassNonMaxSuppression/add_19/y", "shape": [], "dtype": "float32"}, {"name": "Postprocessor/BatchMultiClassNonMaxSuppression/map/while/MultiClassNonMaxSuppression/add_21/y", "shape": [], "dtype": "float32"}, {"name": "Postprocessor/BatchMultiClassNonMaxSuppression/map/while/MultiClassNonMaxSuppression/add_23/y", "shape": [], "dtype": "float32"}, {"name": "Postprocessor/BatchMultiClassNonMaxSuppression/map/while/MultiClassNonMaxSuppression/add_25/y", "shape": [], "dtype": "float32"}, {"name": "Postprocessor/BatchMultiClassNonMaxSuppression/map/while/MultiClassNonMaxSuppression/add_27/y", "shape": [], "dtype": "float32"}, {"name": "Postprocessor/BatchMultiClassNonMaxSuppression/map/while/MultiClassNonMaxSuppression/add_29/y", "shape": [], "dtype": "float32"}, {"name": "Postprocessor/BatchMultiClassNonMaxSuppression/map/while/MultiClassNonMaxSuppression/add_31/y", "shape": [], "dtype": "float32"}, {"name": "Postprocessor/BatchMultiClassNonMaxSuppression/map/while/MultiClassNonMaxSuppression/add_33/y", "shape": [], "dtype": "float32"}, {"name": "Postprocessor/BatchMultiClassNonMaxSuppression/map/while/MultiClassNonMaxSuppression/add_35/y", "shape": [], "dtype": "float32"}, {"name": "Postprocessor/BatchMultiClassNonMaxSuppression/map/while/MultiClassNonMaxSuppression/add_37/y", "shape": [], "dtype": "float32"}, {"name": "Postprocessor/BatchMultiClassNonMaxSuppression/map/while/MultiClassNonMaxSuppression/add_39/y", "shape": [], "dtype": "float32"}, {"name": "Postprocessor/BatchMultiClassNonMaxSuppression/map/while/MultiClassNonMaxSuppression/add_41/y", "shape": [], "dtype": "float32"}, {"name": "Postprocessor/BatchMultiClassNonMaxSuppression/map/while/MultiClassNonMaxSuppression/add_43/y", "shape": [], "dtype": "float32"}, {"name": "Postprocessor/BatchMultiClassNonMaxSuppression/map/while/MultiClassNonMaxSuppression/add_45/y", "shape": [], "dtype": "float32"}, {"name": "Postprocessor/BatchMultiClassNonMaxSuppression/map/while/MultiClassNonMaxSuppression/add_47/y", "shape": [], "dtype": "float32"}, {"name": "Postprocessor/BatchMultiClassNonMaxSuppression/map/while/MultiClassNonMaxSuppression/add_49/y", "shape": [], "dtype": "float32"}, {"name": "Postprocessor/BatchMultiClassNonMaxSuppression/map/while/MultiClassNonMaxSuppression/add_51/y", "shape": [], "dtype": "float32"}, {"name": "Postprocessor/BatchMultiClassNonMaxSuppression/map/while/MultiClassNonMaxSuppression/add_53/y", "shape": [], "dtype": "float32"}, {"name": "Postprocessor/BatchMultiClassNonMaxSuppression/map/while/MultiClassNonMaxSuppression/mul_27/x", "shape": [], "dtype": "float32"}, {"name": "Postprocessor/BatchMultiClassNonMaxSuppression/map/while/MultiClassNonMaxSuppression/add_3/y", "shape": [], "dtype": "float32"}, {"name": "Postprocessor/BatchMultiClassNonMaxSuppression/map/while/MultiClassNonMaxSuppression/Slice_1/begin", "shape": [2], "dtype": "int32"}, {"name": "Postprocessor/BatchMultiClassNonMaxSuppression/map/while/MultiClassNonMaxSuppression/Slice_2/begin", "shape": [2], "dtype": "int32"}, {"name": "Postprocessor/BatchMultiClassNonMaxSuppression/map/while/MultiClassNonMaxSuppression/Slice_3/begin", "shape": [2], "dtype": "int32"}, {"name": "Postprocessor/BatchMultiClassNonMaxSuppression/map/while/MultiClassNonMaxSuppression/Slice_4/begin", "shape": [2], "dtype": "int32"}, {"name": "Postprocessor/BatchMultiClassNonMaxSuppression/map/while/MultiClassNonMaxSuppression/Slice_5/begin", "shape": [2], "dtype": "int32"}, {"name": "Postprocessor/BatchMultiClassNonMaxSuppression/map/while/MultiClassNonMaxSuppression/Slice_6/begin", "shape": [2], "dtype": "int32"}, {"name": "Postprocessor/BatchMultiClassNonMaxSuppression/map/while/MultiClassNonMaxSuppression/Slice_7/begin", "shape": [2], "dtype": "int32"}, {"name": "Postprocessor/BatchMultiClassNonMaxSuppression/map/while/MultiClassNonMaxSuppression/Slice_8/begin", "shape": [2], "dtype": "int32"}, {"name": "Postprocessor/BatchMultiClassNonMaxSuppression/map/while/MultiClassNonMaxSuppression/Slice_9/begin", "shape": [2], "dtype": "int32"}, {"name": "Postprocessor/BatchMultiClassNonMaxSuppression/map/while/MultiClassNonMaxSuppression/Slice_10/begin", "shape": [2], "dtype": "int32"}, {"name": "Postprocessor/BatchMultiClassNonMaxSuppression/map/while/MultiClassNonMaxSuppression/Slice_11/begin", "shape": [2], "dtype": "int32"}, {"name": "Postprocessor/BatchMultiClassNonMaxSuppression/map/while/MultiClassNonMaxSuppression/Slice_12/begin", "shape": [2], "dtype": "int32"}, {"name": "Postprocessor/BatchMultiClassNonMaxSuppression/map/while/MultiClassNonMaxSuppression/Slice_13/begin", "shape": [2], "dtype": "int32"}, {"name": "Postprocessor/BatchMultiClassNonMaxSuppression/map/while/MultiClassNonMaxSuppression/Slice_14/begin", "shape": [2], "dtype": "int32"}, {"name": "Postprocessor/BatchMultiClassNonMaxSuppression/map/while/MultiClassNonMaxSuppression/Slice_15/begin", "shape": [2], "dtype": "int32"}, {"name": "Postprocessor/BatchMultiClassNonMaxSuppression/map/while/MultiClassNonMaxSuppression/Slice_16/begin", "shape": [2], "dtype": "int32"}, {"name": "Postprocessor/BatchMultiClassNonMaxSuppression/map/while/MultiClassNonMaxSuppression/Slice_17/begin", "shape": [2], "dtype": "int32"}, {"name": "Postprocessor/BatchMultiClassNonMaxSuppression/map/while/MultiClassNonMaxSuppression/Slice_18/begin", "shape": [2], "dtype": "int32"}, {"name": "Postprocessor/BatchMultiClassNonMaxSuppression/map/while/MultiClassNonMaxSuppression/Slice_19/begin", "shape": [2], "dtype": "int32"}, {"name": "Postprocessor/BatchMultiClassNonMaxSuppression/map/while/MultiClassNonMaxSuppression/Slice_20/begin", "shape": [2], "dtype": "int32"}, {"name": "Postprocessor/BatchMultiClassNonMaxSuppression/map/while/MultiClassNonMaxSuppression/Slice_21/begin", "shape": [2], "dtype": "int32"}, {"name": "Postprocessor/BatchMultiClassNonMaxSuppression/map/while/MultiClassNonMaxSuppression/Slice_22/begin", "shape": [2], "dtype": "int32"}, {"name": "Postprocessor/BatchMultiClassNonMaxSuppression/map/while/MultiClassNonMaxSuppression/Slice_23/begin", "shape": [2], "dtype": "int32"}, {"name": "Postprocessor/BatchMultiClassNonMaxSuppression/map/while/MultiClassNonMaxSuppression/Slice_24/begin", "shape": [2], "dtype": "int32"}, {"name": "Postprocessor/BatchMultiClassNonMaxSuppression/map/while/MultiClassNonMaxSuppression/Slice_25/begin", "shape": [2], "dtype": "int32"}, {"name": "Postprocessor/BatchMultiClassNonMaxSuppression/map/while/MultiClassNonMaxSuppression/Slice_26/begin", "shape": [2], "dtype": "int32"}, {"name": "Postprocessor/BatchMultiClassNonMaxSuppression/map/while/MultiClassNonMaxSuppression/Slice/begin", "shape": [2], "dtype": "int32"}, {"name": "Postprocessor/BatchMultiClassNonMaxSuppression/map/while/Reshape_1/shape", "shape": [2], "dtype": "int32"}, {"name": "Postprocessor/BatchMultiClassNonMaxSuppression/map/while/PadOrClipBoxList/sub_2/x", "shape": [], "dtype": "int32"}, {"name": "Postprocessor/BatchMultiClassNonMaxSuppression/map/while/Slice/begin", "shape": [3], "dtype": "int32"}, {"name": "Postprocessor/BatchMultiClassNonMaxSuppression/map/while/PadOrClipBoxList/Select/e", "shape": [], "dtype": "int32"}, {"name": "Postprocessor/BatchMultiClassNonMaxSuppression/map/while/Reshape/shape", "shape": [3], "dtype": "int32"}, {"name": "Postprocessor/BatchMultiClassNonMaxSuppression/map/while/MultiClassNonMaxSuppression/non_max_suppression/iou_threshold", "shape": [], "dtype": "float32"}, {"name": "Postprocessor/BatchMultiClassNonMaxSuppression/map/while/MultiClassNonMaxSuppression/non_max_suppression/score_threshold", "shape": [], "dtype": "float32"}, {"name": "Postprocessor/BatchMultiClassNonMaxSuppression/map/while/MultiClassNonMaxSuppression/add_1/y", "shape": [], "dtype": "float32"}, {"name": "Postprocessor/BatchMultiClassNonMaxSuppression/map/while/MultiClassNonMaxSuppression/ones_27/Reshape/shape", "shape": [1], "dtype": "int32"}, {"name": "Postprocessor/BatchMultiClassNonMaxSuppression/map/while/PadOrClipBoxList/zeros_1/Const", "shape": [], "dtype": "int32"}, {"name": "Postprocessor/BatchMultiClassNonMaxSuppression/map/while/PadOrClipBoxList/strided_slice_2/stack", "shape": [1], "dtype": "int32"}, {"name": "Postprocessor/BatchMultiClassNonMaxSuppression/map/while/PadOrClipBoxList/strided_slice_2/stack_1", "shape": [1], "dtype": "int32"}, {"name": "Postprocessor/BatchMultiClassNonMaxSuppression/map/while/MultiClassNonMaxSuppression/range_27/delta", "shape": [], "dtype": "int32"}, {"name": "Postprocessor/BatchMultiClassNonMaxSuppression/map/while/PadOrClipBoxList/zeros_1", "shape": [2], "dtype": "int32"}, {"name": "Postprocessor/BatchMultiClassNonMaxSuppression/map/while/PadOrClipBoxList/zeros_5", "shape": [1], "dtype": "int32"}, {"name": "ConstantFolding/Postprocessor/BatchMultiClassNonMaxSuppression/map/while/PadOrClipBoxList/Slice_2/size_const_axis", "shape": [], "dtype": "int32"}, {"name": "ConstantFolding/Postprocessor/BatchMultiClassNonMaxSuppression/map/while/PadOrClipBoxList/Slice_3/size_const_axis", "shape": [], "dtype": "int32"}, {"name": "ConstantFolding/Postprocessor/BatchMultiClassNonMaxSuppression/map/while/PadOrClipBoxList/stack_2/values_1_const_axis", "shape": [], "dtype": "int32"}, {"name": "ConstantFolding/Postprocessor/BatchMultiClassNonMaxSuppression/map/while/PadOrClipBoxList/stack_3/values_1_const_axis", "shape": [], "dtype": "int32"}]}]}